object_recognition_fruit_v4.tflite (tflite, 269404 bytes, 6 tensors)

sequential/conv2d/BiasAdd/ReadVariableOp f4 [32]
0	0xbc52df01	-0.012870551
1	0x3d3d2a58	0.04618296
2	0x3ccd9bbf	0.02509868
3	0xbc74c2f7	-0.014939061
4	0x3d7b77de	0.06139361
5	0xbb2a149e	-0.002595223
6	0xbbd90163	-0.0066224798
7	0x3e01d4f8	0.12678897
8	0x3c9292fd	0.017892355
9	0xbb1c2fe9	-0.0023832268
10	0x3dbda7e1	0.09260536
11	0x3d199fb7	0.03750583
12	0x3c407128	0.011745729
13	0x3d68cb21	0.056834344
14	0x3d1df1f3	0.03856082
15	0x3dee5ccb	0.116387926
16	0xbbc2c1ed	-0.005943528
17	0x3d1c8b55	0.038218815
18	0x3cf5c2c2	0.030000094
19	0x3cb28a18	0.021794364
20	0x3a2de37a	0.0006633323
21	0xbd27637b	-0.040866356
22	0xbc256c8b	-0.010096679
23	0xbd18ee14	-0.037336424
24	0xbd447a87	-0.047968414
25	0xbce38555	-0.027773539
26	0xbcc1aa04	-0.02364064
27	0x3cc1004f	0.023559717
28	0x3da1ab44	0.078939945
29	0xbd810c6d	-0.06301198
30	0x3da67116	0.08127038
31	0xbb348fe2	-0.002755158

sequential/conv2d_1/BiasAdd/ReadVariableOp f4 [32]
0	0xbc20df72	-0.0098188985
1	0xbd72a920	-0.05924332
2	0x3ca96909	0.020679967
3	0xbcf7df29	-0.030257778
4	0xbd08b095	-0.033371527
5	0xbd365b94	-0.04452093
6	0xbc002ba5	-0.007822906
7	0x3d594a77	0.05304953
8	0x3d276696	0.040869318
9	0xbd1b3596	-0.0378929
10	0xbc2bf8b8	-0.010496311
11	0x3c68fe5a	0.014220798
12	0xbb79abd8	-0.0038096812
13	0xbcbb1828	-0.022838667
14	0xbca76173	-0.02043221
15	0x3d9e1c27	0.077202134
16	0x3b8dfc31	0.004333042
17	0x3d63a198	0.05557403
18	0x3cd3dd03	0.025862223
19	0xbca2491a	-0.019810248
20	0x3d04d03e	0.032425158
21	0xbc7a7794	-0.015287299
22	0x3d22e22c	0.039766476
23	0x3c460517	0.012086174
24	0xbc5015d8	-0.01270052
25	0x3d2d232b	0.042269867
26	0x3c8a40f8	0.016876683
27	0xbc078df4	-0.00827359
28	0x3c4f5f35	0.0126569765
29	0x3d02b0da	0.03190694
30	0x3c2667a0	0.010156542
31	0x3b24e4bd	0.0025160753

sequential/conv2d/Conv2D f4 [32, 3, 3, 3]
0	0x3c8c5462	0.01713008
1	0x3d769bd1	0.06020719
2	0xbe089ace	-0.13340303
3	0x3d8af4a9	0.067849465
4	0xbd9bf791	-0.07615579
5	0xbd8895f9	-0.0666923
6	0x3dd63580	0.10459423
7	0xbd97c498	-0.07410544
8	0x3b518dc0	0.0031975359
9	0x3d916b7e	0.07100581
10	0x3e100c10	0.14067101
11	0xbe1de328	-0.15418684
12	0x3dcaf17b	0.0990934
13	0x3e1171db	0.14203589
14	0xbd64d09d	-0.05586301
15	0xbd010b70	-0.03150505
16	0xbdc0747e	-0.09397219
17	0xbe0061ed	-0.12537356
18	0xbd46587b	-0.048424225
19	0x3c36350d	0.011121047
20	0x3dde241a	0.108467296
21	0x3d05887b	0.03260086
22	0x3d6af732	0.05736465
23	0x3ddd2569	0.10798151
24	0xbdc4f277	-0.09616559
25	0x3c99d14f	0.018776564
26	0xbe107d83	-0.14110379
27	0xbd591c57	-0.053005543
28	0xbd37ff8c	-0.044921443
29	0xbd4270ae	-0.04747074
30	0xbe01cad1	-0.12675025
31	0x3de0a595	0.10969082
32	0xbd1a1d5f	-0.037625667
33	0xbcede127	-0.029038025
34	0xbd22207d	-0.039581764
35	0x3d8aeeaa	0.06783803
36	0x3dfbc755	0.12293879
37	0x3cd67c40	0.026182294
38	0x3dca99f5	0.09892646
39	0x3d8d9859	0.06913824
40	0x3dd247eb	0.102676235
41	0x3d380df3	0.044935178
42	0xbe04f408	-0.12983716
43	0xbe0537b2	-0.13009527
44	0xbd8d6f4e	-0.06905995
45	0x3c759a07	0.014990336
46	0xbcb9d11b	-0.022682717
47	0x3e14da7a	0.14536467
48	0x3e2a3dc4	0.16625124
49	0x3e2a9056	0.16656622
50	0xbce86b34	-0.028371431
51	0xbddb23cb	-0.10700186
52	0xbe2bf3f0	-0.16792274
53	0xbe3c0af2	-0.1836355
54	0xbe2224e0	-0.15834379
55	0xbbd44af6	-0.0064786626
56	0xbe008d0a	-0.12553802
57	0xbd914053	-0.07092347
58	0x3d7c9ba3	0.061671864
59	0xbaee7fe4	-0.0018196073
60	0xbda88a09	-0.08229453
61	0x3d20fbaf	0.039302524
62	0x3d5e3fd5	0.054260094
63	0x3db08474	0.086190134
64	0x3e1b1ad6	0.15146956
65	0x3d08d229	0.03340355
66	0x3b4c76db	0.0031198773
67	0x3dcbcf7f	0.09951686
68	0xbcb5eb15	-0.022206822
69	0x3b95db8a	0.0045732902
70	0xbc26dda5	-0.01018468
71	0x3dfee36e	0.124457225
72	0x3d86a52d	0.065744735
73	0xbb034a28	-0.0020033214
74	0x3ca2dcfe	0.019880768
75	0x3b1b2177	0.002367107
76	0x3df86199	0.1212799
77	0x3dcd7224	0.10031536
78	0xbdda17f9	-0.10649104
79	0x3c7b300a	0.015331278
80	0xbd434d65	-0.04768123
81	0xbdb77f39	-0.08959813
82	0x3bcba0c1	0.0062142317
83	0xbd92a1e5	-0.07159785
84	0x3df43d78	0.11925787
85	0x3dd02e41	0.10165072
86	0x3da9842c	0.08277163
87	0x3db34d52	0.08754982
88	0x3cc53ff1	0.024078341
89	0xbe0aa91a	-0.1354107
90	0x3e2fe39e	0.17176673
91	0xbdc6c97e	-0.097064
92	0xbe16c076	-0.14721856
93	0x3d7262cf	0.059176262
94	0x3dd5aa10	0.104328275
95	0x3d8f8306	0.070074126
96	0xba4dd4b8	-0.0007851827
97	0xbdb4f05c	-0.088349074
98	0xbe0292d0	-0.12751317
99	0x3e256e67	0.16155396
100	0xbdc7300c	-0.09725961
101	0xbe25452f	-0.16139673
102	0x3e182ca6	0.14860782
103	0xbdc2b72a	-0.09507592
104	0xbca4f919	-0.02013831
105	0x3d4baf4f	0.049727734
106	0xbbe35f1a	-0.006938827
107	0xbe12d2a0	-0.1433816
108	0x3d7a85d0	0.06116277
109	0xbd81f540	-0.06345606
110	0x3d7d42d5	0.061831314
111	0xbd5efd00	-0.0544405
112	0xbc6dce4b	-0.014514516
113	0x3d2c15d5	0.04201301
114	0x3e05d289	0.13068594
115	0xbd05c0f4	-0.032654718
116	0x3e0108a2	0.1260095
117	0xbda6e178	-0.081484735
118	0xbe01e95a	-0.12686673
119	0x3e251341	0.16120626
120	0xbd2784b6	-0.040898047
121	0x3d89950f	0.06717884
122	0xbc6ca523	-0.014443669
123	0xbd7551a6	-0.05989232
124	0xbdf427d6	-0.119216606
125	0x3e04f885	0.12985428
126	0x3dd811ef	0.105502956
127	0xbe188b22	-0.14896825
128	0x3db4f3a9	0.08835537
129	0x3e22d301	0.15900804
130	0xbe396895	-0.18106301
131	0xbd9aae03	-0.07552721
132	0x3dabd764	0.08390692
133	0xbe0ef7ea	-0.13961759
134	0xbd857b7d	-0.06517694
135	0x3de3ecb1	0.1112913
136	0xbdc4ac4d	-0.09603176
137	0x3e24a970	0.1608026
138	0x3d908fb7	0.070586614
139	0x3d908df0	0.070583224
140	0xbda3a766	-0.07990913
141	0xbccc1c6c	-0.024915896
142	0xbe265c2b	-0.16246097
143	0xbcfa3b3d	-0.030545825
144	0x3e133f78	0.1437968
145	0xb9b94a1d	-0.00035341168
146	0xbe18f0a8	-0.14935553
147	0x3dc4c419	0.09607715
148	0xbe40c5d2	-0.18825462
149	0x3b99f946	0.004698905
150	0x3df3dce9	0.1190737
151	0x3d789036	0.060684405
152	0x3d8ad0ec	0.0677813
153	0x3d59154d	0.05299883
154	0x3d817f62	0.063231245
155	0x3dd542c0	0.10413122
156	0xbded2ca5	-0.11580781
157	0xbd12a730	-0.035803974
158	0x3c9ca974	0.01912377
159	0xbc977450	-0.01848808
160	0xbe02ae27	-0.12761746
161	0xbdbc6e54	-0.09200731
162	0xbc9a9915	-0.018871823
163	0x3d8fb59e	0.070170626
164	0x3e11b13e	0.14227769
165	0x3de3ded4	0.111264855
166	0xbccf714b	-0.025322577
167	0x3daafb88	0.08348757
168	0x3de8a2bd	0.11359165
169	0xbe0284cc	-0.1274597
170	0x3e0017ee	0.12509128
171	0x3d6e7ff0	0.05822748
172	0x3d83c690	0.06434357
173	0x3daa8fbb	0.08328196
174	0xbd3c60ac	-0.04599063
175	0xbdedcc16	-0.11611192
176	0x3d919d78	0.07110113
177	0x3dee7c71	0.11644829
178	0xbe2a2c0f	-0.1661837
179	0xbcb1349b	-0.02163153
180	0xbdc8edb3	-0.098109625
181	0xbdf9324d	-0.12167797
182	0x3d07df93	0.0331722
183	0xbd135762	-0.035972007
184	0x3ce0c908	0.02743961
185	0x3dd26b2d	0.102743484
186	0x3dc1f352	0.09470238
187	0x3c17bd06	0.009261375
188	0x3cab53aa	0.020913918
189	0xbe11bae7	-0.14231454
190	0x3cd00fb4	0.025398113
191	0xbd85ce6f	-0.06533515
192	0xbded4b99	-0.11586685
193	0xbdd85c04	-0.105644256
194	0xbde00e9b	-0.10940286
195	0xbdbef1a1	-0.09323431
196	0xbdb862e2	-0.090032354
197	0xbd7039e5	-0.058648963
198	0xbda4f960	-0.08055377
199	0x3e14eb9c	0.14543003
200	0x3d575996	0.05257567
201	0xbbe63991	-0.0070259054
202	0x3e086107	0.13318263
203	0x3d1395dd	0.036031593
204	0xbdf5e076	-0.12005703
205	0xbd14aa36	-0.03629514
206	0xbd684eb8	-0.056715697
207	0xbdbea4f3	-0.09308805
208	0xbcb26adf	-0.021779476
209	0x3d0b0e80	0.033949375
210	0x3d7fe5ee	0.062475137
211	0x3dfc7034	0.123260885
212	0x3dde58c4	0.108567744
213	0x3dc9bff9	0.09851069
214	0x3e518c1f	0.20463608
215	0xbd540951	-0.051766697
216	0xbd34179d	-0.043967832
217	0xbd9387bd	-0.072036244
218	0x3da06bbd	0.078330494
219	0xbda5e119	-0.080995746
220	0x3de8d5cd	0.11368904
221	0xbdceadaf	-0.10091721
222	0x3db3745c	0.08762428
223	0x3dfb2553	0.122629784
224	0x3de45b08	0.11150175
225	0xbc3a7976	-0.011381498
226	0x3e11d992	0.14243153
227	0x3cb5254f	0.022112517
228	0x3d8fc732	0.07020415
229	0x3d4999e1	0.049219016
230	0x3dce5689	0.10075099
231	0xbd17bf7a	-0.03704784
232	0xbd49577c	-0.049155697
233	0xbd4857cf	-0.048911866
234	0xba5a9611	-0.00083384017
235	0x3d5b2f24	0.053511754
236	0x3b96498e	0.004586405
237	0xbe0f94f3	-0.14021663
238	0xbd884d64	-0.06655386
239	0xbc78f6a8	-0.015195526
240	0xbde6fd0a	-0.11278732
241	0x3df2ed62	0.118616834
242	0xbd7af1cc	-0.06126575
243	0x3e097e95	0.13427193
244	0xbddeaf3f	-0.10873269
245	0xbdb03ced	-0.08605371
246	0x3dbf4406	0.09339146
247	0x3d6c6075	0.057709176
248	0xbc4b3340	-0.012402356
249	0x3d0ffd7f	0.035153862
250	0x3d9eb044	0.07748464
251	0x3cf0507b	0.029335251
252	0xbda710af	-0.08157479
253	0xbe1008b2	-0.14065817
254	0x3b87f8eb	0.0041495464
255	0x3d81a732	0.06330718

sequential/conv2d_1/Conv2D f4 [32, 3, 3, 32]
0	0x3d79793a	0.060906626
1	0x3c3f17e3	0.01166341
2	0xbda68469	-0.08130724
3	0xbd3f3273	-0.04667897
4	0x3d9bd82f	0.07609593
5	0xbda31d16	-0.07964532
6	0xbd88e934	-0.06685105
7	0x3c948981	0.018131973
8	0x3c77c16a	0.015121797
9	0xbd0fe681	-0.035131935
10	0x3e0b09ae	0.13577911
11	0x3d5a3d8d	0.053281356
12	0x3d199157	0.037492123
13	0x3e130f3e	0.14361283
14	0x3de595be	0.11210202
15	0xbc50e41c	-0.012749698
16	0x3d632bea	0.0554618
17	0x3dd08f1b	0.10183545
18	0xbd53578e	-0.05159717
19	0x3d2c2989	0.0420318
20	0xbcba7439	-0.022760497
21	0xbdabd5e0	-0.08390403
22	0xbe0611fc	-0.13092798
23	0x3b051680	0.00203076
24	0x3d0b5ec2	0.034025915
25	0x3d81dbb5	0.06340734
26	0xbd0049a3	-0.031320225
27	0x3dbb9f34	0.09161225
28	0xbccf4b77	-0.02530454
29	0xbda0257f	-0.07819652
30	0x3d9e13a9	0.077185936
31	0x3ddb53db	0.107093535
32	0x3dc9c9fe	0.0985298
33	0x3c5c43da	0.013443911
34	0x3d433e45	0.047666807
35	0xbd47023c	-0.048586115
36	0xbd8e56b0	-0.06950128
37	0x3c9910b3	0.01868472
38	0x3d894723	0.067030214
39	0x3dbf4c1d	0.09340689
40	0xbced313d	-0.028954143
41	0xbd7be738	-0.061499804
42	0x3de2fb09	0.110830374
43	0xbd54297a	-0.051797368
44	0x3d9612ac	0.0732778
45	0xbcbd4b06	-0.023107063
46	0x3e91884b	0.28424296
47	0x3c1fd923	0.009756359
48	0xbded6601	-0.11591721
49	0x3d9aeaf9	0.07564349
50	0xbc871559	-0.016489672
51	0xbd12a278	-0.035799474
52	0x3e047aaa	0.12937418
53	0x3cef7d5d	0.029234583
54	0xbdb0aed7	-0.08627098
55	0xbd7897de	-0.060691707
56	0x3d2fc554	0.042912796
57	0x3d08f70c	0.033438727
58	0xbda8bfc0	-0.082396984
59	0x3dd17279	0.10226912
60	0x3e21d617	0.15804325
61	0x3d09a7ce	0.033607297
62	0xb79d5680	-1.8756138e-05
63	0x3c9cff62	0.019164745
64	0xbd9bd912	-0.07609762
65	0x3e457489	0.19282736
66	0x3c149c25	0.009070431
67	0xbde5c8a9	-0.112199135
68	0x3c62be62	0.013839336
69	0x3c5bf994	0.013426203
70	0xbdc25c0b	-0.09490212
71	0xbb5ea637	-0.0033973583
72	0x3b75db34	0.0037514688
73	0xbc91c2fe	-0.017793175
74	0x3cc21d8f	0.023695735
75	0x3dfa6584	0.12226394
76	0x3ddecb69	0.10878641
77	0x3d4044c1	0.04694057
78	0x3e8325a0	0.25614643
79	0xbc82c4fc	-0.01596307
80	0xbcd0cd4c	-0.025488518
81	0xbd687dc9	-0.056760583
82	0x3dc86243	0.09784367
83	0x3d1b1b17	0.03786763
84	0x3c08eda8	0.008357443
85	0xbd5dca60	-0.054148078
86	0xbd4d6023	-0.05014051
87	0xbbcaf2e5	-0.006193506
88	0x3d45ae41	0.048261885
89	0x3d960d43	0.07326748
90	0x3b577d0c	0.003288093
91	0x3da03ce2	0.078241125
92	0x3dbbb09f	0.09164547
93	0xbd3b756b	-0.045766275
94	0x3de226bd	0.11042545
95	0xbcd05bc2	-0.025434379
96	0x3da8c176	0.08240025
97	0x3e1dfd0a	0.15428558
98	0xbb047f27	-0.002021739
99	0xbd8f016f	-0.06982695
100	0x3deceb38	0.11568302
101	0xbdabf5d2	-0.08396496
102	0x3c7344a6	0.01484791
103	0xbc86e414	-0.016466178
104	0x3cb17fb6	0.021667343
105	0x3cedf721	0.029048504
106	0x3d07e9d2	0.033181973
107	0x3dca4507	0.09876447
108	0xbd265b3f	-0.040614363
109	0x3a6591ca	0.0008757381
110	0x3dbda323	0.092596315
111	0xbd8260fe	-0.06366156
112	0x3d0547cd	0.032539178
113	0x3da00cc7	0.07814937
114	0x3cee1d42	0.029066686
115	0x3c8a7d13	0.016905343
116	0x3d862d52	0.06551613
117	0xbd65bb4b	-0.05608682
118	0x3cb876ee	0.022517648
119	0xbd14a20d	-0.036287356
120	0xbad76bbd	-0.0016435307
121	0x3d8096d7	0.062787704
122	0x3cd1de12	0.025618587
123	0xbd54f6f2	-0.051993318
124	0x3db3b04b	0.087738596
125	0xbc5e36fb	-0.013562913
126	0x3dbd23e3	0.092353605
127	0x3e118ebd	0.14214607
128	0xbd2129b5	-0.039346416
129	0x3d5cbd66	0.053891562
130	0x3d6f0fa5	0.05836453
131	0xbd6207f6	-0.055183373
132	0x3db3569c	0.08756754
133	0x3c22a35f	0.009926646
134	0x3d0873ab	0.033313435
135	0xbdb7bdc9	-0.089717455
136	0xbd9f100d	-0.07766733
137	0x3d39f1c6	0.04539659
138	0xbd4d8878	-0.050178975
139	0xbd0b5ae5	-0.03402223
140	0x3a86f5f4	0.0010296688
141	0xbbb02428	-0.005375404
142	0x3e19c32f	0.15015863
143	0x3dfa5643	0.12223484
144	0xbd8eec26	-0.069786355
145	0x3d843384	0.06455138
146	0x3c44cc9e	0.012011675
147	0x3d178a41	0.036997084
148	0x3e15e779	0.14639081
149	0xbd338362	-0.04382647
150	0x3b226a31	0.0024782533
151	0x3b84634d	0.004040158
152	0xbd9d89af	-0.07692277
153	0x3d64f315	0.055895884
154	0x3cf76184	0.030197866
155	0xbd1e2283	-0.03860713
156	0x3dfdf9e2	0.12401177
157	0x3c4ef709	0.01263214
158	0x3dd76aa8	0.1051839
159	0x3e2893c2	0.16462615
160	0xbda3b490	-0.07993424
161	0x3e05dcb1	0.13072468
162	0x3d3a3025	0.04545607
163	0xbd91eb70	-0.07124984
164	0xbb43d470	-0.0029881261
165	0x3cf125a5	0.029436896
166	0xbd1573aa	-0.03648726
167	0xbdb0ff1f	-0.086424105
168	0x3ccbfab5	0.02489982
169	0x3cab6cff	0.020925997
170	0x3dd2fd9d	0.10302279
171	0x3db7def1	0.089780696
172	0xbcc71286	-0.024300825
173	0x3d238236	0.0399191
174	0x3e2a649a	0.16639939
175	0x3d138dc8	0.036023885
176	0xbdb65199	-0.08902282
177	0x3db47600	0.08811569
178	0xbdc04f00	-0.09390068
179	0x3df5bfb0	0.11999452
180	0x3d6ad5c8	0.057332784
181	0xbd6cccc7	-0.05781248
182	0xbd4d3610	-0.050100386
183	0xbdc8e450	-0.09809172
184	0x3c3d7df4	0.011565674
185	0x3dcb9a16	0.09941499
186	0x3cf0a67f	0.029376267
187	0x3d64f987	0.05590203
188	0x3cf87ab5	0.030331949
189	0xbc138fcf	-0.009006455
190	0x3dc556e9	0.096357174
191	0x3df40189	0.11914355
192	0xbcb9d856	-0.022686165
193	0x3dd31866	0.10307388
194	0x3d95f79d	0.07322619
195	0x3cdc1ec5	0.02687014
196	0x3e18ff41	0.14941122
197	0xbd0a3ae8	-0.033747584
198	0x3dd66868	0.10469133
199	0x3da154db	0.07877513
200	0x3dc02c53	0.09383454
201	0xbc8ded94	-0.0173252
202	0x3d4aa1d6	0.049470745
203	0x3dc62f5d	0.096770026
204	0xbca78b13	-0.020452058
205	0x3d5a33cd	0.053272057
206	0x3e08aec6	0.13347921
207	0x3de37bbb	0.11107584
208	0xbda052f4	-0.07828322
209	0x3e3e2177	0.18567453
210	0x3d4da0ac	0.050202057
211	0x3dac7ed5	0.08422629
212	0x3e1d6114	0.15369064
213	0x3dd14b6a	0.10219462
214	0xbcca8776	-0.024722796
215	0xbda41552	-0.08011879
216	0x3d9a1f75	0.07525531
217	0x3e000d0d	0.12504978
218	0x3d3ead0e	0.046551757
219	0x3dfae7ac	0.12251219
220	0x3d84104c	0.06448421
221	0x3db86f4f	0.090056054
222	0x3d9b2399	0.07575149
223	0x3d81f823	0.063461564
224	0x3c4bf6b8	0.012448959
225	0x3d5f6966	0.054543875
226	0x3d00d9d3	0.031457733
227	0x3da82daa	0.08211835
228	0xbd7735b7	-0.06035396
229	0xbc89075e	-0.016727146
230	0xbd747eb6	-0.059691153
231	0x3d7f6882	0.062355526
232	0x3d486a27	0.04892936
233	0xbd3274c8	-0.043568403
234	0x3d01aa52	0.03165657
235	0xbd95741f	-0.07297539
236	0x3ddc5065	0.107575215
237	0x3dd9f90d	0.10643206
238	0x3d9e1df5	0.077205576
239	0xbd0e8bda	-0.03480134
240	0x3d05064e	0.032476716
241	0x3e1f96ad	0.15584822
242	0x3d7e2c56	0.062054
243	0x3e2515d3	0.16121607
244	0x3e3b1492	0.18269566
245	0x3e088ec5	0.13335712
246	0x3d2c81ed	0.042116094
247	0x3b96033b	0.004578022
248	0xbd995348	-0.07486588
249	0xbcab2a22	-0.020894114
250	0x3dae8a4e	0.08522473
251	0xbd2e452d	-0.04254644
252	0xbb8dc23f	-0.0043261345
253	0x3c450d9f	0.012027173
254	0x3cf90d8a	0.030401964
255	0x3cc8d2b2	0.02451453

sequential/dense/BiasAdd/ReadVariableOp f4 [9]
0	0xbc990e8a	-0.01868369
1	0xba1ab38e	-0.00059013895
2	0x3cd1e88c	0.025623582
3	0xbaa47741	-0.0012547747
4	0x3c31d332	0.010853576
5	0x3c4b3b3b	0.012404258
6	0x3cef76ab	0.02923139
7	0xbd06df94	-0.032928064
8	0xbd70f2e8	-0.058825403

sequential/dense/MatMul f4 [9, 6272]
0	0xbd215707	-0.039389636
1	0xbd0e288c	-0.034706637
2	0x3d5da52f	0.05411261
3	0xbd4ae412	-0.04953391
4	0xbd78c6b3	-0.06073637
5	0x3d815d50	0.06316626
6	0xbcf43d0b	-0.029814264
7	0xbc6f6bac	-0.014613073
8	0xbcfc3348	-0.030786172
9	0x3b0a9b15	0.0021149565
10	0xbcd43415	-0.02590374
11	0x3ca36690	0.019946367
12	0xbc575622	-0.013143094
13	0x3cbcf3b4	0.023065425
14	0xbca4667f	-0.020068405
15	0x3d24af79	0.040206406
16	0xbd040e4c	-0.032240197
17	0xbccee23f	-0.025254367
18	0xbd11ce5f	-0.0355972
19	0x3c8e2933	0.01735363
20	0x3ca95a91	0.020673068
21	0xbd033639	-0.032034133
22	0x3da0e283	0.07855704
23	0x3d9cd05b	0.07656928
24	0xbc93fe59	-0.018065618
25	0x3e04d4d4	0.12971812
26	0xbd1e8295	-0.03869875
27	0xbc9e838e	-0.01934984
28	0xbd28daa4	-0.041224137
29	0xbd888cba	-0.066674665
30	0xbd6946df	-0.056952354
31	0xbcb49b6e	-0.02204677
32	0xbc96e362	-0.018418971
33	0xbc987baa	-0.018613655
34	0x3d67b74f	0.0565713
35	0xbcc1790e	-0.023617294
36	0xbc81e5d2	-0.015856657
37	0x3dea431b	0.114385806
38	0xbc0db1db	-0.008648361
39	0x3a6b0cdd	0.00089664554
40	0xbce006e8	-0.027347043
41	0xbc9b3598	-0.018946454
42	0xbd38224c	-0.044954583
43	0xbc857caf	-0.016294805
44	0x3ca0d84b	0.019634387
45	0x3ca534b5	0.020166734
46	0xbd17d406	-0.037067436
47	0x3c5659c9	0.01308293
48	0x3c5548ae	0.0130178165
49	0xbd5269be	-0.051370375
50	0xbd295fd5	-0.04135116
51	0x397cfc7a	0.00024126648
52	0xbbc5068b	-0.006012743
53	0xbc65a338	-0.014015965
54	0x3db70306	0.089361235
55	0x3dd09636	0.101849005
56	0xbc30484a	-0.010759423
57	0x3de549ba	0.11195703
58	0xbc0f7659	-0.008756244
59	0xbb9dee68	-0.00481968
60	0xbd092a88	-0.033487827
61	0xbd48600d	-0.048919726
62	0x3bd7e1a4	0.0065881778
63	0xbbd57d61	-0.0065151905
64	0x3b01a51b	0.0019782248
65	0x3d4172b9	0.04722855
66	0x3c4eb2d0	0.012615874
67	0x3c06d0d3	0.0082284985
68	0xbc681cf8	-0.014167063
69	0x3dd64c8d	0.1046382
70	0xbd564b6a	-0.052318014
71	0xbd02f3e7	-0.031970885
72	0xbc44ba3d	-0.012007293
73	0x3d093edb	0.03350721
74	0x3c51a940	0.0127967
75	0xbbf72489	-0.007542197
76	0x3d2f280d	0.042762805
77	0x3ca354e5	0.019937942
78	0x3cf9d858	0.030498669
79	0xbc45f1ae	-0.012081547
80	0x3c4a72e0	0.01235649
81	0xbb8e229e	-0.004337623
82	0xbd2e1ac8	-0.04250601
83	0xb8c7486e	-9.5025505e-05
84	0xbc8f7c7a	-0.01751541
85	0xbc797f96	-0.015228173
86	0x3d9664b3	0.073434256
87	0x3df6c10b	0.12048539
88	0x3c0d67de	0.008630721
89	0x3d9ecf5f	0.07754397
90	0x3d187455	0.037220318
91	0xbc045484	-0.008076791
92	0x3c671273	0.01410352
93	0xbd8a830a	-0.06763275
94	0xbbb0883f	-0.0053873356
95	0xbca89cb0	-0.020582527
96	0x3a6f0dfc	0.00091192103
97	0x3cce34d1	0.02517167
98	0x3d788d90	0.06068188
99	0x3d552f2d	0.052046943
100	0x3b8dc214	0.0043261144
101	0x3d26fe77	0.04077002
102	0x3bf215c5	0.007387849
103	0x3c3397d4	0.010961492
104	0xbd0282c4	-0.03186299
105	0xbbacd8e0	-0.005274877
106	0xbc1c04c2	-0.009522619
107	0xbb2b7261	-0.0026160704
108	0x3c2bcc73	0.010485756
109	0xbcd2a35d	-0.025712663
110	0xbb98b692	-0.004660436
111	0x3c9e7b8c	0.019346021
112	0xbb905eb4	-0.0044058207
113	0xbc342fbe	-0.010997711
114	0x3b851703	0.004061581
115	0x3c73c3cf	0.014878227
116	0xbbefe074	-0.007320458
117	0xbc7b2021	-0.015327484
118	0x3d178fc8	0.037002355
119	0x3d91ed24	0.07125309
120	0x3c32308c	0.010875832
121	0x3d56a133	0.052399825
122	0x3d34c4b1	0.044132892
123	0x3b5d1a10	0.0033737458
124	0xbc83c4ed	-0.016085112
125	0xbd7c85e5	-0.06165113
126	0xbd041a7d	-0.032251824
127	0x3d036a97	0.032084074
128	0x3c8f8df5	0.017523745
129	0xbbf0ef64	-0.0073527563
130	0x3cb11590	0.021616727
131	0x3d1899d4	0.037256077
132	0xbc1a4521	-0.009415896
133	0x3d260201	0.040529255
134	0x3cfac624	0.030612059
135	0xbd69b397	-0.057056036
136	0xbcd6dd48	-0.026228562
137	0x3d447ed0	0.0479725
138	0xbcc2c97a	-0.023777712
139	0x3d14b846	0.03630855
140	0x3c901132	0.017586324
141	0xbbf1ff7d	-0.007385193
142	0x3a833634	0.0010010661
143	0x3c7a3f2a	0.015273849
144	0xbbcd2065	-0.0062599652
145	0x3c557073	0.013027298
146	0xbcd57b4b	-0.026059767
147	0xbcb92ac4	-0.0226034
148	0x3bad1def	0.0052831094
149	0x3b83ec3d	0.0040259645
150	0x3d344d72	0.04401917
151	0x3cf1f682	0.02953649
152	0x3aaca3ca	0.0013171372
153	0x3d1f6b36	0.038920604
154	0x3ab19b09	0.0013550232
155	0x3cbef9e2	0.023312513
156	0x3d1173db	0.03551088
157	0xbd87d283	-0.06631949
158	0x3ced644f	0.028978495
159	0x3c57263a	0.0131316725
160	0xbcfa5cd2	-0.030561838
161	0xbcae1ab3	-0.021252966
162	0x3adccb6f	0.0016845296
163	0x3cb810cf	0.022468952
164	0xbc23deef	-0.010001882
165	0xbcb5e371	-0.02220318
166	0x3cb0f2cb	0.021600148
167	0x3bbca2f5	0.0057567307
168	0xbc48504d	-0.012226176
169	0x3bd84db9	0.006601062
170	0x3c85e2da	0.016343523
171	0xba74c3a8	-0.00093370164
172	0x3c92f51c	0.017939143
173	0x3ca91ffa	0.02064513
174	0x3ca0d2a0	0.019631684
175	0xbd299914	-0.041405752
176	0x3d19d7d9	0.037559364
177	0x3d741acf	0.05959588
178	0xbd0d2bd0	-0.03446561
179	0x3ca8b3b7	0.020593507
180	0x3d49428f	0.04913574
181	0x3d036a95	0.032084066
182	0xbbda8f55	-0.0066699185
183	0x3be271c0	0.0069105327
184	0xbb9acb6b	-0.0047239563
185	0xbccfc1c4	-0.02536095
186	0x3c94cff7	0.018165572
187	0x3cc64965	0.02420492
188	0x3d11eff1	0.035629217
189	0xbd84d5dc	-0.06486103
190	0x3cb5424c	0.02212634
191	0xbb6a6c96	-0.0035770289
192	0x3d18d066	0.03730812
193	0x3d04e26d	0.0324425
194	0x3d77f344	0.06053473
195	0x3d3ff2ee	0.046862535
196	0x3c197696	0.009366652
197	0xbc20257a	-0.00977456
198	0x3c8c63bb	0.017137399
199	0xbcc65d33	-0.024214363
200	0x3ce7a96e	0.028279033
201	0xbcb06fe6	-0.021537732
202	0x3c3715a4	0.011174593
203	0x3c1d8360	0.009613842
204	0x3ce282ae	0.027650204
205	0x3d338b67	0.043834116
206	0xbd13cc75	-0.036083657
207	0xbdff65d2	-0.124705926
208	0x3d4fd322	0.05073846
209	0x3c9b2692	0.01893929
210	0x3ceb5185	0.028725395
211	0xbc55e8d2	-0.013055997
212	0x3ce07c9a	0.027403165
213	0xbcaf9339	-0.021432506
214	0xbd223560	-0.039601684
215	0xbca687f5	-0.020328501
216	0xbc943e4f	-0.018096117
217	0xbd9d0013	-0.0766603
218	0xbc77efba	-0.015132839
219	0x3cef6d8d	0.029227043
220	0x3ccd16df	0.02503532
221	0xbd915155	-0.07095591
222	0x3d64d54f	0.05586749
223	0xbd4fbea7	-0.05071893
224	0x3d0db32a	0.034594692
225	0x3b81d835	0.0039625415
226	0x3cbfedd1	0.02342883
227	0x3d0af891	0.033928458
228	0xbb87b9c7	-0.0041420194
229	0xbd113de4	-0.035459414
230	0x3cf6e1b9	0.03013693
231	0xbce3d433	-0.027811145
232	0x3d08ff1d	0.03344642
233	0xbcc584d6	-0.024111193
234	0x3c71699c	0.014734652
235	0x3c8b4feb	0.017005881
236	0x3d02d7d2	0.031944104
237	0x3d1fdebe	0.039030783
238	0xbcde1e11	-0.027113946
239	0xbdf77824	-0.12083462
240	0x3ce1fb10	0.027585536
241	0x3d06c3e1	0.03290165
242	0x3d0598cf	0.032616433
243	0x3bdf0f72	0.006807261
244	0x3d309a13	0.043115687
245	0x3c17331d	0.009228495
246	0xbd92993a	-0.07158132
247	0x3aa4ac44	0.0012563546
248	0x3c8e37fc	0.01736068
249	0xbdca00ee	-0.098634586
250	0xbc50d8f2	-0.012747036
251	0xbce4522d	-0.027871216
252	0x3cd6371c	0.026149325
253	0xbd1faea5	-0.038984913
254	0x3d6ab7b5	0.057304103
255	0xbc663886	-0.014051562
