object_recognition.tflite (tflite, 998168 bytes, 6 tensors)

sequential/conv2d/BiasAdd/ReadVariableOp f4 [16]
0	0xbbeb7b75	-0.007186348
1	0xbbbc45c6	-0.0057456223
2	0x3c366aef	0.011133893
3	0xbbafe36f	-0.0053676884
4	0xbc07a5d5	-0.0082792835
5	0x3c6edbe3	0.014578792
6	0xbbd7f2c4	-0.006590219
7	0xb7b92493	-2.207075e-05
8	0xbc2158c0	-0.00984782
9	0x3c4d28de	0.0125219505
10	0x3a80b418	0.0009819297
11	0x3c2baff5	0.010478963
12	0x3c20145e	0.009770481
13	0x3c606152	0.013695078
14	0x3c304b5a	0.010760153
15	0xbbe16065	-0.006877946

sequential/conv2d_1/BiasAdd/ReadVariableOp f4 [16]
0	0xbc5c1f3f	-0.013435184
1	0xbb38dac8	-0.0028206576
2	0xbc56f9eb	-0.0131211085
3	0xbb9959ea	-0.004679908
4	0xbab9478a	-0.00141357
5	0xbc355ae2	-0.011069031
6	0xbbfea979	-0.0077716676
7	0xbc630019	-0.013855004
8	0xbc75a22d	-0.014992279
9	0x3a8b0188	0.0010605315
10	0xbbc590d1	-0.0060292264
11	0x3b83e0f4	0.0040246192
12	0xbc1b0e8c	-0.009463917
13	0xbbc4ed66	-0.0060097454
14	0xbbadd40a	-0.005304818
15	0xbb683b95	-0.0035435904

sequential/conv2d/Conv2D f4 [16, 3, 3, 3]
0	0xbda1c614	-0.078991085
1	0xbdfe52a6	-0.12418108
2	0x3defe828	0.11714202
3	0xbd405968	-0.046960264
4	0x3e1b37ee	0.15158054
5	0x3c073192	0.008251565
6	0x3e39249e	0.18080375
7	0xbd5c09e2	-0.053720362
8	0x3dcb0db9	0.09914727
9	0x3cb3e50d	0.021959806
10	0xbe34f10c	-0.17670077
11	0x3d47c094	0.04876764
12	0x3d9180b6	0.07104628
13	0xbcb48ad4	-0.022038855
14	0x3e2203c5	0.1582175
15	0xbdd5f68f	-0.10447418
16	0x3cbaa546	0.022783887
17	0x3cbdbb87	0.023160709
18	0xbe10a4e9	-0.14125408
19	0xbdfcd68d	-0.1234561
20	0xbdafedee	-0.08590303
21	0xbe25c6ac	-0.16189069
22	0xbe160095	-0.1464866
23	0xbdfcbcd2	-0.12340702
24	0xbd3a906c	-0.045547888
25	0xbd4eebfd	-0.050518025
26	0xbd41ca30	-0.04731196
27	0x3e35c058	0.17749155
28	0x3de6b9e5	0.11265925
29	0xbd727e88	-0.0592027
30	0xbd1e8cda	-0.038708545
31	0xbe04c56b	-0.12965934
32	0x3e33c837	0.17556845
33	0x3d405a54	0.046961144
34	0xbbd947b2	-0.006630861
35	0xbc674fe7	-0.014118171
36	0x3e2d9ae8	0.16953623
37	0x3e034c5f	0.12822102
38	0xbe0dee5a	-0.13860455
39	0x3d20d761	0.0392679
40	0x3e003620	0.12520647
41	0x3df514e4	0.11966875
42	0xbd862f33	-0.06551971
43	0x3dd88daa	0.10573895
44	0x3dcc8755	0.0998675
45	0x3d09120e	0.033464484
46	0x3de930b5	0.11386243
47	0xbd4d1a2e	-0.050073795
48	0x3e0543cf	0.13014148
49	0xbe2de35c	-0.16981262
50	0xbd3cae19	-0.04606447
51	0xbbb7f204	-0.0056135673
52	0x3e3031c2	0.17206481
53	0xbe2bccdb	-0.16777365
54	0x3dd28415	0.10279099
55	0xbd5e433f	-0.05426335
56	0xbd39d096	-0.04536494
57	0xbd820f23	-0.06350543
58	0xbe29cb47	-0.1658145
59	0xbe394e89	-0.18096365
60	0xbde52023	-0.1118777
61	0xbd238cd3	-0.039929222
62	0x3e0a26c2	0.13491347
63	0x3da3e23c	0.08002135
64	0x3e2a0f9a	0.16607514
65	0xbd75601e	-0.059906118
66	0xbdd04ab2	-0.10170497
67	0xbdc61705	-0.096723594
68	0x3d960acb	0.07326277
69	0xbe37eb80	-0.1796093
70	0x3d26dbf3	0.040737104
71	0xbe018bf2	-0.12651041
72	0x3c509fe6	0.012733435
73	0xbe29cb4e	-0.16581461
74	0x3ca23aa8	0.01980336
75	0x3e0ac59e	0.13551947
76	0xbe1098c1	-0.14120771
77	0xbde7f442	-0.11325885
78	0xbdb7df62	-0.08978154
79	0x3e07ac81	0.13249399
80	0x3ddb9f52	0.10723747
81	0x3dcd6296	0.100285694
82	0x3e155941	0.14584829
83	0x3e0daf1f	0.13836335
84	0x3cd9fd7f	0.026610134
85	0x3e0ab04f	0.13543819
86	0x3e20511d	0.15655942
87	0xbe2ffb02	-0.17185596
88	0x3d1c67ed	0.03818505
89	0x3da2c336	0.0794739
90	0xbd3ff4b7	-0.046864238
91	0xbcc7a4de	-0.024370607
92	0x3de6494d	0.1124445
93	0xbdebc342	-0.11511852
94	0x3e28f432	0.16499403
95	0xbd02d306	-0.03193953
96	0xbdfb97c8	-0.12284809
97	0x3c7e4770	0.015519962
98	0xbc1c93d4	-0.009556729
99	0xbdfd0af1	-0.123556025
100	0xbe182942	-0.14859489
101	0xbe2c613e	-0.1683397
102	0xbe151757	-0.14559685
103	0xbe33b2dc	-0.17548698
104	0x3e08cce0	0.13359404
105	0xbd6e2295	-0.05813845
106	0xbe23d969	-0.16000904
107	0xbd4b87aa	-0.049689926
108	0xbe204ab2	-0.15653494
109	0xbe021fa7	-0.12707387
110	0xbdf1ccbd	-0.11806629
111	0xbe1bf0dc	-0.152286
112	0xbdacb337	-0.0843262
113	0xbe1367f8	-0.1439513
114	0xbda584d1	-0.08081973
115	0xbdc2f2a4	-0.09518936
116	0xbe1c7122	-0.15277532
117	0x3e0cb27d	0.13739963
118	0x3e08bce3	0.13353305
119	0x3dd334ed	0.10312829
120	0xbde1d708	-0.11027342
121	0x3df89083	0.121369384
122	0xbdedb302	-0.11606409
123	0x3dd10096	0.1020519
124	0x3d914629	0.0709346
125	0x3d7ded16	0.06199368
126	0x3e304d71	0.17217042
127	0xbd8400de	-0.06445478
128	0xbddf5043	-0.109039806
129	0xbd86681e	-0.065628275
130	0xbdf6469e	-0.12025188
131	0xbe2eb2ed	-0.17060442
132	0x3dcc1c5d	0.09966347
133	0x3d90dc84	0.0707331
134	0xbe243b60	-0.16038275
135	0xbb786eec	-0.0037907911
136	0xbe41e4cf	-0.1893494
137	0xbe004784	-0.12527281
138	0xba7af3d3	-0.0009573076
139	0xbd406cf4	-0.046978906
140	0xbdc26600	-0.09492111
141	0xbd6a7d4d	-0.057248402
142	0xbdd89e67	-0.10577088
143	0xbe3a7050	-0.18206906
144	0xbe498874	-0.19680959
145	0x3e1b2200	0.15149689
146	0xbd1be5b1	-0.038060848
147	0x3cdb67de	0.026782926
148	0x3e09ee08	0.13469708
149	0x3d46e3cd	0.04855709
150	0x3bbf3595	0.005835245
151	0xbd915d13	-0.070978306
152	0x3d804601	0.06263352
153	0x3e214702	0.15749744
154	0x3df9303f	0.12167405
155	0xbdb85a8f	-0.09001648
156	0x3dd710c9	0.105012484
157	0xbbdc577a	-0.006724295
158	0xbe494834	-0.1965645
159	0xbe289d20	-0.16466188
160	0xbd3988ef	-0.045296606
161	0x3dea5f24	0.11443928
162	0x3ded646c	0.115914196
163	0x3cde175b	0.027110746
164	0xbda8f936	-0.08250658
165	0x3d07fc0d	0.03319936
166	0xbe343105	-0.17596824
167	0xbe207531	-0.15669705
168	0x3cbd8e5c	0.023139171
169	0x3d0b7925	0.03405108
170	0x3d48cca3	0.04902328
171	0xbd809009	-0.062774725
172	0xbdbdfb76	-0.09276478
173	0xbbafbc4c	-0.005363023
174	0xbe097944	-0.13425165
175	0xbe368c6f	-0.17827009
176	0xbdc711ad	-0.09720168
177	0xbd60ffdc	-0.054931507
178	0xbe367da2	-0.17821363
179	0x3dc5a2a8	0.09650165
180	0x3dccd92e	0.10002361
181	0xbdf9d3c2	-0.12198593
182	0x3d9cac73	0.076500796
183	0x3c765ed2	0.015037255
184	0x3c4917da	0.012273753
185	0x3d8fceba	0.07021852
186	0x3ca6cd22	0.020361487
187	0xbde6e218	-0.11273593
188	0xbe350637	-0.17678152
189	0x3cb058ef	0.021526782
190	0xbe28c875	-0.16482718
191	0xbe398fa2	-0.18121198
192	0xbe2f0fa1	-0.17095806
193	0x3d8d8dbe	0.06911801
194	0xbd496fbe	-0.04917883
195	0x3e21aabc	0.15787786
196	0xbe2f304a	-0.17108265
197	0xbe067e13	-0.13134031
198	0x3b60805e	0.00342562
199	0xbe03d83f	-0.1287546
200	0x3e0e2f94	0.13885337
201	0xbe3a12b8	-0.18171203
202	0xbb5fe9c2	-0.003416643
203	0x3dbb1041	0.091339596
204	0xbda021a9	-0.0781892
205	0xbdcea2cb	-0.10089644
206	0x3d897a7f	0.067128174
207	0xbd2db902	-0.042412765
208	0xbe27c87a	-0.1638507
209	0xbd56b61a	-0.05241976
210	0xbe179fd6	-0.14807066
211	0xbd217a99	-0.03942356
212	0xbdb839df	-0.08995413
213	0x3deeff79	0.11669821
214	0x3c2402d8	0.010010444
215	0xbe1ac6ab	-0.15114848
216	0x3e14df88	0.14538395
217	0xbe3a6556	-0.18202719
218	0x3e1af830	0.15133739
219	0xbdccf863	-0.100083135
220	0x3e197481	0.14985849
221	0xbdca56f4	-0.09879866
222	0xbde9f266	-0.11423187
223	0xbd37397b	-0.044732552
224	0x3dd69140	0.10476923
225	0x3dd6a57d	0.10480783
226	0xbd0bcb51	-0.034129445
227	0x3d80b52f	0.06284558
228	0xbd379441	-0.04481912
229	0xbdee0b0a	-0.11623199
230	0xbdcd7b0c	-0.10033235
231	0x3d3438fd	0.04399966
232	0xbca2b26b	-0.019860467
233	0xbe0ccac9	-0.13749231
234	0xbd87fd24	-0.066400796
235	0xbe04d87e	-0.1297321
236	0x3e2d10e6	0.16900977
237	0xbdc4148c	-0.095742315
238	0x3cc6e4fe	0.024279114
239	0x3c28b751	0.010297612
240	0xbde148f5	-0.110002436
241	0x3ce59b88	0.028028265
242	0xbdf29d23	-0.11846378
243	0xbd98222f	-0.07428395
244	0xbe139e18	-0.14415777
245	0x3e473928	0.19455397
246	0x3dabb7bd	0.08384655
247	0xbe0b7864	-0.13620144
248	0x3de4cb8f	0.11171638
249	0xbe0ffb89	-0.14060797
250	0x3e1c908a	0.15289512
251	0xbd4480e3	-0.04797448
252	0x3e070b60	0.13187933
253	0x3e057bc1	0.1303549
254	0x3dcf8060	0.101319075
255	0xbd0aafd8	-0.033859104

sequential/conv2d_1/Conv2D f4 [16, 3, 3, 16]
0	0x3ac6513e	0.0015130413
1	0xbdc3e872	-0.0956582
2	0x3e05a503	0.13051228
3	0xbe15828d	-0.14600582
4	0x3d046aa0	0.032328248
5	0xbd4aa0ab	-0.04946963
6	0x3d0bede8	0.034162432
7	0x3de48a99	0.11159248
8	0x3cc4e768	0.024036124
9	0xbab81098	-0.0014043031
10	0xbe1a67f5	-0.15078719
11	0xbda40a3f	-0.08009767
12	0x3cd21932	0.02564678
13	0xbe169932	-0.14706877
14	0xbe1081d2	-0.14112023
15	0xbe168460	-0.14698935
16	0xbdc7481b	-0.0973055
17	0x3dc3a1c6	0.0955234
18	0x3ced434d	0.028962756
19	0xbdbd0f91	-0.09231485
20	0x3d93de25	0.07220105
21	0xbda7b294	-0.08188358
22	0x3cd03b58	0.025418922
23	0xbdcc6605	-0.09980396
24	0xbe055402	-0.13020328
25	0xbdce845f	-0.100838415
26	0xbd00cf87	-0.031447913
27	0xbaa9e15c	-0.0012960839
28	0xbd32a6f8	-0.043616265
29	0x3db37e3c	0.08764312
30	0x3de29e11	0.11065305
31	0x3da0fd4f	0.07860815
32	0x3c8673a2	0.01641256
33	0xbd8edd12	-0.069757596
34	0xbdda4bdf	-0.106590025
35	0xbe131983	-0.143652
36	0x3cf01e72	0.029311392
37	0x3d67838d	0.05652194
38	0xbde5f593	-0.1122848
39	0xbe1783cd	-0.14796372
40	0x3d0f8529	0.0350391
41	0xbcd58037	-0.026062114
42	0x3d745016	0.05964669
43	0xbdae07b7	-0.08497565
44	0xbe18650c	-0.14882296
45	0xbcf5177e	-0.029918429
46	0x3cccb90c	0.024990581
47	0xbcb21a10	-0.021740943
48	0x3deaab35	0.114584364
49	0xbe09487e	-0.1340656
50	0xbd2f0e23	-0.04273809
51	0x3c88f5fd	0.016718859
52	0xbe00b997	-0.12570797
53	0x3cd44b96	0.025914948
54	0x3d54452c	0.05182378
55	0x3d623f9f	0.055236455
56	0xbdfb8d98	-0.12282866
57	0xbd25d2c6	-0.040484212
58	0xbd34d3c6	-0.044147275
59	0x3d90447e	0.07044314
60	0xbd875a0b	-0.06608971
61	0xbdd819f6	-0.10551827
62	0xbdfb6b43	-0.12276318
63	0x3d5ecb91	0.054393355
64	0xbd615fa0	-0.055022836
65	0x3de4cf00	0.111722946
66	0x3ddaf395	0.10690991
67	0x3d957391	0.07297433
68	0x3d82524b	0.063633524
69	0xbdd2f420	-0.103004694
70	0x3d552e13	0.052045893
71	0xbcbba08c	-0.022903703
72	0xbd5906d1	-0.052985016
73	0x3cdf43b6	0.027253967
74	0x3dd59938	0.10429615
75	0xbda0dffe	-0.07855223
76	0x3ded0cd8	0.115747154
77	0xbd9e3e84	-0.07726768
78	0x3c80d165	0.015724847
79	0x3e0c93fd	0.13728328
80	0xbdd58672	-0.10426034
81	0xbc86b3aa	-0.016443092
82	0x3c27e0a2	0.010246428
83	0xb8927d89	-6.985205e-05
84	0x3ac9a0db	0.0015383022
85	0xbc27610a	-0.010216007
86	0x3d56d2ea	0.052447237
87	0xbd51d142	-0.051224954
88	0x3cd9d183	0.02658916
89	0x3d689b7b	0.056788903
90	0xbdfbae1d	-0.12289069
91	0x3df27cb9	0.11840195
92	0xbd5b72b7	-0.053576197
93	0x3d26e5b2	0.0407464
94	0x3dd98b94	0.106223255
95	0xbd1598b9	-0.0365226
96	0xbcf1cb81	-0.029515984
97	0xbd3de929	-0.046364937
98	0x3dfb9e4f	0.12286054
99	0x3ddace88	0.10683924
100	0xbdaf5903	-0.085618995
101	0x3d4dc483	0.050236236
102	0x3dc47004	0.09591678
103	0x3d32fe66	0.043699645
104	0x3de70400	0.1128006
105	0x3dc8cc35	0.098045744
106	0x3ccc95be	0.024973746
107	0x3db3cd22	0.0877936
108	0x3c064c7f	0.008196949
109	0xbc77a461	-0.015114875
110	0x3e018119	0.12646903
111	0x3dd42983	0.1035948
112	0xbc871861	-0.016491117
113	0x3d1f5058	0.03889498
114	0xbd5d9a47	-0.05410221
115	0x3d75eca2	0.060040124
116	0x3d9e4eb3	0.077298544
117	0xbde59fc5	-0.11212114
118	0xbcb1e995	-0.021717826
119	0xbd7f1b2f	-0.062281784
120	0x3e060481	0.13087656
121	0xbde5f578	-0.1122846
122	0x3d279b8e	0.040919833
123	0x3c019ea9	0.007911363
124	0x3d671918	0.056420416
125	0xbd9d39ce	-0.07677041
126	0xbcbd4024	-0.023101874
127	0xbcea3e15	-0.028594056
128	0x3ccbda85	0.024884472
129	0x3d4c0857	0.04981264
130	0x3d929088	0.071564734
131	0x3de354bd	0.11100147
132	0xbe0fe982	-0.1405392
133	0x3dd4c4bb	0.10389086
134	0x3dcf6cb6	0.10128157
135	0x3dd9435f	0.10608553
136	0x3c7c2a78	0.015390985
137	0xbdc593a2	-0.09647299
138	0x3dd65b57	0.104666404
139	0xbc7ddd7d	-0.015494701
140	0xbe0b96c6	-0.13631734
141	0xbca02d13	-0.019552743
142	0xbe0ad966	-0.13559493
143	0xbd950108	-0.07275587
144	0xbd2a365a	-0.04155574
145	0x3d0ae1aa	0.033906616
146	0xbd96ec87	-0.07369333
147	0x3e0d583e	0.13803193
148	0xbe013de6	-0.12621269
149	0x3d28b443	0.041187536
150	0xbd42638d	-0.04745822
151	0xbd52c9ad	-0.051461864
152	0x3e1e6359	0.15467586
153	0xbdf4f111	-0.11960042
154	0xbdb98ee9	-0.09060461
155	0xbd2d35b6	-0.04228755
156	0xbd639dee	-0.055570535
157	0x3d7ef7b9	0.062247965
158	0xbd80ac80	-0.06282902
159	0x3db144b4	0.08655682
160	0x3cb2b02f	0.021812527
161	0xbdf4ac74	-0.11946955
162	0xbd68be3a	-0.05682204
163	0x3ce231f9	0.02761172
164	0xbc21de0b	-0.009879599
165	0x3d87401f	0.06604027
166	0xbdf984d0	-0.12183535
167	0xbdb4ebf9	-0.08834071
168	0x3db1978b	0.08671483
169	0xbdb81793	-0.089888714
170	0x3e0b1d9c	0.13585514
171	0xbdfcfd04	-0.123529464
172	0x3db9b8b0	0.090684295
173	0x3d29ec90	0.04148537
174	0xbdac797f	-0.08421611
175	0x3e056b88	0.13029301
176	0x3dace89b	0.084428035
177	0xbd4a945f	-0.049457904
178	0xbdbb2937	-0.091387205
179	0x3d0df37b	0.03465603
180	0x3db58d7a	0.08864875
181	0x3ce30552	0.027712498
182	0x3d6852bb	0.056719523
183	0xbdb48dfe	-0.08816145
184	0xbda1cd95	-0.0790054
185	0x3dc43753	0.09580865
186	0xbce35239	-0.027749168
187	0xbe00cae8	-0.12577403
188	0x3caa58bc	0.020794265
189	0xbdcc8bf1	-0.09987629
190	0xbe1045b7	-0.14089094
191	0x3d939d98	0.07207793
192	0xbcdb4373	-0.02676556
193	0x3cd1dd66	0.025618266
194	0xbdc197de	-0.094527945
195	0xbc559984	-0.013037089
196	0x3d820fd7	0.063506775
197	0xbd345e56	-0.04403528
198	0x3d5423d3	0.051791977
199	0x3dd7cc26	0.10536985
200	0x3da7a36c	0.08185467
201	0x3de4dcb7	0.111749105
202	0x3ccbcbbe	0.024877425
203	0xbe05d7b8	-0.13070571
204	0x3e1a36d3	0.15059976
205	0x3c873ae8	0.01650758
206	0x3d59d6ec	0.05318348
207	0x3d5d3efe	0.054015152
208	0xbc3eda3c	-0.011648711
209	0x3da9d329	0.08292229
210	0x3d604dc4	0.054761663
211	0x3dc1a325	0.094549455
212	0x3dbbecc1	0.091760166
213	0xbd139427	-0.03602996
214	0x3c2dc01f	0.010604887
215	0xbe04ca01	-0.12967683
216	0x3db267ca	0.087112024
217	0x3d861584	0.065470725
218	0x3d12bcf3	0.035824727
219	0x3dd96258	0.10614461
220	0x3d6b693f	0.057473417
221	0xbddd4502	-0.10804178
222	0xbd722c3b	-0.059124213
223	0xbd5fb6e4	-0.054617777
224	0xbdf6d38a	-0.120520666
225	0x3d16d40b	0.036823314
226	0xb981823b	-0.00024701827
227	0x3d5df08f	0.054184493
228	0xbe07b5e8	-0.13252985
229	0xbdfc80b7	-0.12329238
230	0xbceab2e6	-0.028649759
231	0x3d990cb1	0.07473124
232	0xbcddd2a8	-0.027077988
233	0xbc61b12d	-0.013775152
234	0x3bfd7796	0.007735203
235	0xbe1a2285	-0.1505223
236	0x3d3dd1c7	0.046342637
237	0xbdfa9606	-0.12235646
238	0xbe10055f	-0.14064549
239	0xbcdbc6aa	-0.026828129
240	0xbc9936f4	-0.018702962
241	0xbd0e06b8	-0.034674376
242	0xbdf627db	-0.120193206
243	0xbcc08d74	-0.02350495
244	0x3d7451f5	0.059648473
245	0x3cedcc73	0.029028153
246	0xbe023d77	-0.1271876
247	0x3ddc08e5	0.10743884
248	0xbd186310	-0.03720385
249	0x3c82832b	0.015931686
250	0x3d976400	0.0739212
251	0xbd474d7e	-0.048657887
252	0xbd155a01	-0.036462788
253	0xbb4fe669	-0.0031723029
254	0xbdf3a852	-0.11897339
255	0xbc7aacc3	-0.015299979

sequential/dense/BiasAdd/ReadVariableOp f4 [4]
0	0x3c10ebc0	0.00884527
1	0x3a97aacc	0.0011571287
2	0xba872d85	-0.0010313248
3	0x39135b81	0.000140531

sequential/dense/MatMul f4 [4, 61504]
0	0x3c142a72	0.009043323
1	0xbbc57384	-0.0060257334
2	0xbb2a63d4	-0.0025999444
3	0x3c6d116d	0.014469487
4	0xbb957825	-0.0045614415
5	0x3c3909b2	0.011293815
6	0x3aa0ae33	0.0012258947
7	0x3bfa916c	0.00764673
8	0xbb02883b	-0.0019917625
9	0xbcbd9c23	-0.02314574
10	0x3c1a8a54	0.009432394
11	0x3b956e6a	0.0045602815
12	0xbc3f5f31	-0.01168041
13	0x3bd0f601	0.006376982
14	0xbb8569d6	-0.0040714545
15	0xbb938480	-0.004501879
16	0x399fe71e	0.0003049904
17	0xbc53807d	-0.012909052
18	0x3c4b3588	0.0124029
19	0x3c1c45e9	0.009538152
20	0x3c475829	0.012167015
21	0x3c13e238	0.009026103
22	0x3be45a51	0.0069687744
23	0x3ca81edd	0.02052253
24	0x3c2ec3ea	0.010666827
25	0xbb2d0d67	-0.0026405693
26	0x3b198e8f	0.0023430919
27	0x3b5ae6a0	0.0033401623
28	0xbbd9bd00	-0.006644845
29	0x3b7972bb	0.003806277
30	0x3bfdac69	0.0077415
31	0xbb5d3ec9	-0.0033759347
32	0x3c0e63c9	0.008690783
33	0xbbefa7d7	-0.0073137092
34	0x3b0e545c	0.0021717763
35	0x3c21adbf	0.009868084
36	0x3b311b92	0.002702449
37	0x3c885833	0.01664362
38	0x38c25002	9.2655435e-05
39	0x3c89eb5c	0.01683586
40	0x3c814f50	0.01578489
41	0xba6cf7c7	-0.0009039607
42	0xb556ef96	-8.0069856e-07
43	0x3a92d471	0.0011202228
44	0xbc1d29e3	-0.009592506
45	0x3b19aaa5	0.002344766
46	0x3bebc356	0.0071949167
47	0x3af07047	0.0018344008
48	0xbc2bdf9e	-0.010490326
49	0xbb5ed5ef	-0.0034002026
50	0xbc99c7d1	-0.018772038
51	0x3c39e8bb	0.011346991
52	0xbabe2023	-0.0014505427
53	0x3c617596	0.013760945
54	0xbb2ab0ca	-0.0026045316
55	0x3c82984a	0.015941758
56	0x3c1bbf42	0.009506049
57	0xbc1ed9ee	-0.009695513
58	0x3c5e776f	0.01357828
59	0xbbdf9e81	-0.006824315
60	0xbc4c275c	-0.012460556
61	0xba0a5e1c	-0.00052783056
62	0x3c2a08df	0.010378092
63	0x3b77fc5c	0.0037839627
64	0x3bfa5a3c	0.0076401513
65	0xbc7f0e15	-0.015567322
66	0x3c181135	0.009281446
67	0x3c4e08f3	0.012575376
68	0xbc3610da	-0.011112416
69	0x3b9b7a61	0.0047448133
70	0x3a72d092	0.0009262647
71	0x3c3ccef7	0.011523954
72	0x3c36fb50	0.011168316
73	0x3abdeb60	0.0014489703
74	0x3beb7a5c	0.0071862172
75	0xbc697a73	-0.014250386
76	0xbb6d8a64	-0.0036245817
77	0xbb411166	-0.0029459833
78	0x3b538974	0.0032277973
79	0x3bc83ddc	0.00611089
80	0xbb2733d0	-0.002551306
81	0xbbb150a8	-0.0054112263
82	0x3ad75385	0.0016428089
83	0xbc3ad170	-0.011402473
84	0xbbaa97d1	-0.005206086
85	0x3bd16e95	0.0063913562
86	0x3c014900	0.00789094
87	0x3b00dc55	0.0019662578
88	0x3c81ed4f	0.015860228
89	0x3b1915b6	0.0023358888
90	0x3c4bb4a9	0.012433209
91	0xbbea9e02	-0.0071599493
92	0xbc52dfcd	-0.012870741
93	0x39a12f21	0.00030743427
94	0x3bedee6b	0.0072610877
95	0x3baa441f	0.005196109
96	0xbc234fe2	-0.009967776
97	0xbb52cb58	-0.003216466
98	0xbbcfca1d	-0.0063412325
99	0xbb831e1b	-0.0040013916
100	0xbbdd48d2	-0.0067530656
101	0x3c7292cc	0.014805507
102	0x39bb3ca9	0.00035712615
103	0x3c8c382e	0.017116632
104	0x3c589c3e	0.013220845
105	0xbbdc630b	-0.006725674
106	0x3c2cd2ff	0.010548352
107	0xbc3553a1	-0.011067302
108	0xbc491fbc	-0.0122756325
109	0x3b8c833c	0.0042881053
110	0x3c255db6	0.010093143
111	0x3b6e9b16	0.0036408356
112	0x3b3e1c63	0.002900862
113	0x3af6a97d	0.0018818822
114	0x3c738284	0.01486266
115	0x3cb38dbc	0.02191817
116	0xbbadbb36	-0.0053018583
117	0x3c2548c0	0.010088146
118	0x3bbffff0	0.0058593675
119	0x3c6a8b1c	0.014315393
120	0x3c95ff91	0.01831034
121	0x3c502bd4	0.012705762
122	0x3c74ae71	0.014934168
123	0x3ca0ff20	0.019652903
124	0x3b968df8	0.0045945607
125	0x3c884bcb	0.016637703
126	0xbbf3340f	-0.0074219774
127	0x3c15706d	0.009121043
128	0xbca994a9	-0.02070077
129	0x3ad26783	0.0016052577
130	0x3b84701f	0.004041686
131	0xbc15c9b9	-0.009142333
132	0x3bad0ba4	0.0052809287
133	0x3c21d1d1	0.009876684
134	0x3c052537	0.0081265485
135	0x3c3dde42	0.011588635
136	0x3c99df5f	0.01878327
137	0x3bb22b6c	0.005437305
138	0x3b30f8d6	0.0027003787
139	0xbb2185d0	-0.002464641
140	0x3a856c1e	0.0010179316
141	0x3c5ee556	0.013604483
142	0xbb9d860e	-0.0048072403
143	0xbc4b32e0	-0.012402266
144	0xbc070ed8	-0.008243285
145	0xbc2bfef7	-0.0104978
146	0xbb37f971	-0.0028072263
147	0xbc5e5840	-0.013570845
148	0x3b38c8ea	0.0028195926
149	0x3b80942f	0.003923915
150	0xbb9c8b87	-0.004777375
151	0x3c1ee136	0.009697249
152	0x3ce8d0b0	0.028419822
153	0x3c7a5746	0.015279597
154	0x3bda61b9	0.0066644815
155	0xbc08dd4d	-0.0083535435
156	0xbb8b17cb	-0.0042447797
157	0x3c34e324	0.011040483
158	0x3b5523f9	0.0032522662
159	0xbc278c24	-0.010226283
160	0x3b844bdf	0.004037365
161	0x3a709807	0.0009177927
162	0x3acdd612	0.0015704057
163	0x3b0aa9b0	0.002115827
164	0xba760bfe	-0.0009385942
165	0x3c1cd0bd	0.009571251
166	0x3c20b4bc	0.009808715
167	0x3bb9523f	0.0056555565
168	0x3c83aa50	0.016072422
169	0x3c084537	0.008317283
170	0x3c968303	0.018373018
171	0xbcb154c5	-0.021646867
172	0xbc84568b	-0.016154548
173	0x3cb20bfd	0.021734232
174	0x3beb3639	0.0071780947
175	0x3c460dba	0.012088234
176	0xbb3b40a6	-0.002857247
177	0x3b8d6e55	0.004316131
178	0x3ba7f395	0.005125473
179	0xbbbce9f0	-0.005765192
180	0xbb30f350	-0.0027000494
181	0x3c1407a4	0.009035025
182	0x3c3d5c92	0.011557715
183	0x3a2967ea	0.0006462323
184	0x3c465b90	0.012106791
185	0x3cade1e3	0.021225875
186	0x3c47c0a5	0.012191926
187	0xbb34ccdd	-0.0027587928
188	0x3aa773a8	0.0012775557
189	0x3cb1aa8c	0.021687768
190	0x3bb60911	0.00555528
191	0x3c7b1bd7	0.015326462
192	0x3bdcbe1c	0.00673653
193	0xbc65d31d	-0.014027384
194	0xbbdfde0b	-0.0068318895
195	0xbb4465c7	-0.002996789
196	0x3c53f7a5	0.012937461
197	0x3c5d3e70	0.013503656
198	0x3b55e5fe	0.0032638307
199	0x3be0daf6	0.0068620397
200	0x3cbb9bb5	0.022901395
201	0x3cea736a	0.028619487
202	0x3caa6bb1	0.020803304
203	0xbc130753	-0.008973914
204	0x3b56d2ec	0.0032779528
205	0x3c6eb471	0.014569388
206	0x3c3a101c	0.01135638
207	0x3becf00c	0.0072307643
208	0x3ad3c5b8	0.0016156947
209	0xb91cdef2	-0.00014960373
210	0x3b0f8dbc	0.0021904549
211	0x3b31fdee	0.002715941
212	0x3be2e554	0.0069243107
213	0x3c63cebb	0.013904269
214	0xba24bd61	-0.0006284323
215	0x3ca5f2eb	0.020257434
216	0x3cd74734	0.02627907
217	0x3ca04fee	0.019569363
218	0x3c61632d	0.0137565555
219	0x3b8ed118	0.004358422
220	0x3c685646	0.014180725
221	0x3cbb84a1	0.02289039
222	0x3b9cf655	0.0047901073
223	0x3c998be5	0.018743465
224	0xbc31ad05	-0.010844474
225	0xbcd8603c	-0.026413076
226	0xba18fd90	-0.00058361236
227	0xba323c51	-0.0006799149
228	0x3c54ccbf	0.012988268
229	0x3bb32ede	0.0054682335
230	0xbbcaf931	-0.0061942567
231	0x3abaf20a	0.0014262807
232	0x3ca5f81e	0.020259913
233	0x3c14041e	0.009034185
234	0xbb6ee4a3	-0.0036452196
235	0xbcbdac89	-0.02315356
236	0x3c2cd358	0.010548435
237	0x3c88a49f	0.01668006
238	0xbc4dfdbf	-0.012572705
239	0x3c28aa84	0.01029456
240	0xbb8fafd2	-0.004384973
241	0xba0b351c	-0.0005310343
242	0xbb5d4cca	-0.0033767694
243	0x3c0104f9	0.007874721
244	0xb8f7d964	-0.0001181837
245	0x3c7ebcad	0.0155479135
246	0x3c187aae	0.009306593
247	0x3bc74973	0.006081754
248	0x3cfa795d	0.030575449
249	0x3c02fd63	0.007994982
250	0x3c2724c2	0.010201635
251	0x3c95c2f7	0.018281443
252	0x3c61c6d9	0.013780319
253	0x3c46f9b7	0.012144498
254	0x3c1da953	0.00962289
255	0x37cc0bc8	2.4324181e-05
