object_recognition_fruit_v5.tflite (tflite, 269404 bytes, 6 tensors)

sequential/conv2d/BiasAdd/ReadVariableOp f4 [32]
00000000: 521a 04bd cbf1 6dba 5c89 07bc 9f04 4c3d
00000010: b4e0 49bd b708 46b9 5fb5 9cbb bb54 29bc
00000020: 984f 953d 5de9 e6bc a865 69bc 3362 50bc
00000030: f4a3 7f3d 5e77 143c 176d 0bbd 0fc0 1c3d
00000040: 2660 133d 3508 1abd ec9c 863d 6058 15bd
00000050: a8e5 e03b d356 1fbc db37 e2bb 9479 e0bc
00000060: 4759 6bbd 407e 093d ec3c c2ba 6366 c33c
00000070: 85a4 083d 00df ce3d 5d75 673a c0b2 dd3d
-0.032251664 -0.00090768625 -0.008272495 0.049809095 -0.04928656 -0.00018885998 -0.0047823633 -0.010335143
0.07290572 -0.028187448 -0.014245428 -0.012718725 0.062412217 0.0090616625 -0.034039583 0.0382691
0.035980366 -0.037605483 0.06572899 -0.036461234 0.0068633147 -0.00972529 -0.006903631 -0.027401723
-0.05745819 0.033567667 -0.0014819182 0.023852533 0.033360023 0.101011276 0.0008829439 0.108251095

sequential/conv2d_1/BiasAdd/ReadVariableOp f4 [32]
00000000: bae8 21bc d506 843d 69b0 683d a888 c6bb
00000010: a85a 893c 5d24 a13c 9437 013b 67a6 943c
00000020: 565b f9bb 2a7d 223d 084a d13c d77c 6a3d
00000030: 5630 743d 5ff6 b8bc 4ae7 a8bb a2e8 2d3d
00000040: cbc7 923c 3b16 fabb eee0 54bb a432 303b
00000050: 8e72 bc3b 6b2b 1dbc c6cc a6bb 875b ea3c
00000060: adac cd3c d769 25bc ef67 abbc 0ad3 4b3d
00000070: f9ae d9bc c94e 6d3d 2bb2 493d 18f8 0bbd
-0.0098821465 0.064466156 0.056808863 -0.006058771 0.016766861 0.01967066 0.0019716965 0.018145753
-0.007609765 0.039670147 0.025547996 0.057247963 0.05961641 -0.022578416 -0.005154525 0.042458184
0.017917534 -0.0076320446 -0.0032482701 0.0026885653 0.0057509607 -0.009592871 -0.005090329 0.028608097
0.025106752 -0.010096035 -0.020923583 0.04976181 -0.026572691 0.057936464 0.04924218 -0.034172148

sequential/conv2d/Conv2D f4 [32, 3, 3, 3]
00000000: 235a 68bd 67ac f43c 8fea 52bc b3c9 f43d
00000010: 7d1e b0bd 2ba3 1ebd 6b33 bd3c 67df ba3d
00000020: eaab 7fbc e2ea e53d cbd9 8ebd 2205 8bbd
00000030: 8643 043e f7be d9bd 29da 0dbe 76ef cd3c
00000040: 9bae d43d 63b3 11be 01a8 bf3d 315c e6bd
00000050: 053b 9cbd 5957 053e 6b53 debd 942b 453d
00000060: 1613 2f3d 5f9a b1bd a950 0cbe 890a 0c3e
00000070: 9413 9bbc 76f9 dd3d 5ee1 e83d badd dcbb
00000080: d4f6 7bbc 71d1 d23c 1854 c8bd a028 b53d
00000090: 4db0 ae3d 7eb6 ccbd a161 d2bc 8a92 b03d
000000a0: caca 10be 218d debd 4888 bebd 0f6a 17be
000000b0: 0a9e c3bc fb4e c23d bff7 fbbd c0d2 763c
000000c0: bc21 123e f77e 123d d6f2 b6bc 8b4e 053e
000000d0: 6f24 9bbd 333b 063d 5b69 ef3d edee 013c
000000e0: 388c a7bd 8709 623d b78a d63d d7da 183e
000000f0: 9049 d33d 61a8 873d 4450 b73d b3df 03be
00000100: d57f 2cbe 4c4c 103e 72ff 863d 0948 15be
00000110: c178 063d 5589 09be bc42 133c 5cf4 dd3d
00000120: e749 b23d ac75 d3bd 2f57 153d 1993 ebbc
00000130: 4aa8 b5bd 9b39 6bbd 806d 00be 243e db3c
00000140: 245c cf3d fb88 f5bd 9649 f93b 8698 25ba
00000150: 552e 14be d640 4b3d 8e08 1d3d dc80 e6bd
00000160: 94b4 a2bd 13b0 f3bd 0a70 4e3d 9402 843d
00000170: 0f3d af3d 1a64 adbc 0f50 debd 3fe8 d4bd
00000180: f0a7 b1bd 29e2 913c 33f6 b6bd 7b63 70bc
00000190: 2e77 b63d 89fd 123e 22d5 013e 3d16 423d
000001a0: 503c 0b3e 95dd c33d 69e9 cf3d c1a5 bcbd
000001b0: 3719 fabc 449d c33d 922a 30be 9adc 00be
000001c0: 3442 bc3d ff60 17be a217 c9bd a237 24bd
000001d0: 9fa0 3b3d 5dcf d83d 9039 fc3d cf56 973d
000001e0: 854d bc3d c210 feb9 9ee5 b4bd 84a5 f63d
000001f0: a31f 5fbc 3f5f 6b3d b1e9 79bd 3b4e ca3d
00000200: bde5 483d e95f 8b3d 9c20 50bd 42b5 233c
00000210: 4c45 5f3d 0a63 afbd 0006 32be 3d84 8f3d
00000220: b234 6bbc 0d4a d0bc 2906 01be f48a 9ebd
00000230: 4649 a33d e4bd 083c 611b b3bd 3245 a6bd
00000240: bc63 053e 8a80 abbc 628d 053e df85 d5bd
00000250: 7d1b d8ba 7efe 1e3e b99e 353d fa08 2ebd
00000260: da0e ac3c 416d dc3d cc48 eb3d 2890 103e
00000270: 2c51 9d3d 0187 ebbd bcdf 68bd f9fc c73d
00000280: 17c9 cf3c d11d 043e 03a8 e23d 260c 90bc
00000290: 609e ef3c 32c3 78bd 027b 5f3d 790b 2d3e
000002a0: 4fc2 a83d 6787 2dbe e75c b4bc 624c babb
000002b0: 6c35 9bbc 625c 633d 9c63 c6bd c032 c13c
000002c0: b9ee 22bc d081 c93d ead3 7fbd 16af dbbd
000002d0: 74ad fa3a 1d89 d6bd f3c9 903d c19e 703d
000002e0: ac14 02be 25d9 f3bd bd4c 853d 0d0b 563d
000002f0: ec5e cdbc e13d dc3c c55b ae3c 631d c0bd
00000300: ad89 773d 9abc eb3c 92fe c03c 4c20 c53c
00000310: 7f28 083e 1c50 e8bb dfda 9f3d cd77 153e
00000320: 72a4 483d 4718 93bd fbd4 013e 3066 093e
00000330: 0256 c73d 190e 9bbd ca08 083e 4ae6 ccbc
00000340: 798b 5d3c f615 093e 14cb dbbc 8a31 ea3c
00000350: c016 563d 4d09 c73d 5b71 5cbd dc15 8abd
00000360: cda9 55bd 1777 05be aff2 b7bb 6cc5 f5bd
00000370: cd02 12be c1ea 19bd 7aa1 03bd 1d60 fc3d
00000380: 8ea2 e8ba 913f 173e de30 aebc 0a7f 433d
00000390: 9153 bebd 9fa1 473c 19cb 603d 4567 573d
000003a0: 7003 f0bd 4fc9 0ebc 08db 24bd 5161 c33d
000003b0: 8215 113d 6622 d93d 7b1c bd3c b732 dcbc
000003c0: 586f d13d 47cb cbbb 7bdf 88bd 2fa2 fbbd
000003d0: 72ba 56bd b363 d23d 6b59 d9bc 3862 4b3d
000003e0: f59e a8bd 8b28 853d b6fd 953d cd08 e23d
000003f0: 04fd 21bd ff85 f73d c849 2ebd 335a a5bd
-0.056726586 0.029867364 -0.012873306 0.119525336 -0.08599565 -0.038729828 0.023095807 0.09124642
-0.015604952 0.11226441 -0.069751345 -0.067880884 0.12916383 -0.10632127 -0.13852753 0.025138598
0.10384866 -0.14228587 0.09358216 -0.11248053 -0.076284446 0.13021602 -0.108557545 0.048137262
0.04274281 -0.08672022 -0.13702644 0.13675894 -0.018930234 0.108385965 0.113711104 -0.006740299
-0.015378673 0.025734635 -0.097816646 0.08845639 0.085297205 -0.09995745 -0.025681319 0.086217
-0.14139858 -0.10866762 -0.09303337 -0.14786552 -0.02387907 0.094877206 -0.12303113 0.015064895
0.14270681 0.035765614 -0.02233259 0.13018243 -0.075753085 0.0327713 0.11690017 0.0079304995
-0.081810415 0.055184867 0.104756765 0.14927231 0.10316765 0.066239126 0.08950856 -0.12878303
-0.16845639 0.14091605 0.06591691 -0.1457826 0.032830004 -0.13431294 0.008988079 0.108376235
0.08705502 -0.103251785 0.036460098 -0.028756665 -0.08869989 -0.057427984 -0.12541771 0.02676303
0.10124996 -0.119890176 0.007607649 -0.0006316978 -0.144708 0.04962238 0.038338237 -0.11255047
-0.07944599 -0.11898818 0.050399818 0.06445804 0.08556568 -0.021165896 -0.10855114 -0.1039586
-0.0867461 0.017808037 -0.089336775 -0.0146721555 0.089094505 0.14354528 0.1267896 0.04738449
0.13597226 0.09563748 0.10151941 -0.092113025 -0.030529601 0.095514804 -0.1720374 -0.12584153
0.09192315 -0.14783095 -0.09818961 -0.040092118 0.045807477 0.105864264 0.12315667 0.07389604
0.09194473 -0.0004845914 -0.088328585 0.12043288 -0.013618383 0.05746388 -0.06101388 0.098782025
0.04904722 0.06805403 -0.05081235 0.009991946 0.054509446 -0.08563812 -0.17385101 0.07007644
-0.014355825 -0.025425935 -0.12600006 -0.07741347 0.0797296 0.008346055 -0.087454565 -0.08118667
0.13026327 -0.020935316 0.13042215 -0.104259245 -0.0016487684 0.15526769 0.044340823 -0.04248903
0.021003176 0.10763026 0.11488494 0.14117491 0.07681498 -0.11500359 -0.056853995 0.097650476
0.025364442 0.12901999 0.11067202 -0.017583918 0.029250324 -0.060733028 0.05456067 0.16898908
0.082401864 -0.16946183 -0.022016956 -0.005685375 -0.018946372 0.055508025 -0.09686968 0.02358377
-0.009944611 0.09839213 -0.062457956 -0.10726754 0.0019125179 -0.10475371 0.07069769 0.05874515
-0.12703198 -0.119066514 0.06508777 0.052256633 -0.025069676 0.026884975 0.021283993 -0.09380605
0.060434032 0.028776456 0.023558889 0.024063252 0.13296698 -0.007089628 0.07805418 0.14596482
0.048984952 -0.07182365 0.12678902 0.13417888 0.097332016 -0.07571048 0.13284603 -0.025012154
0.013522022 0.13387284 -0.026830234 0.028588075 0.05226779 0.09718571 -0.05381904 -0.067424506
-0.052163888 -0.1303371 -0.005613647 -0.12000546 -0.14258881 -0.037577394 -0.032136418 0.1232302
-0.001774864 0.14770342 -0.021263536 0.047728576 -0.09293283 0.01218453 0.05488119 0.05258872
-0.11719406 -0.008714988 -0.040247947 0.09540046 0.035420902 0.10602264 0.02308487 -0.026879651
0.10226315 -0.006219301 -0.066832505 -0.122867934 -0.0524239 0.10272922 -0.026531896 0.049654216
-0.08233444 0.065018736 0.07323782 0.11036835 -0.039547935 0.120861046 -0.042550832 -0.08073845

sequential/conv2d_1/Conv2D f4 [32, 3, 3, 32]
00000000: 68f0 64bd 1d51 ba3d e962 a43b 1b33 f1bd
00000010: e63e 5c3c 10b8 5a3d 7e91 6ebc 8729 8b3d
00000020: 6be0 52be 3b52 5dbd 4881 4dbc 0f82 c43d
00000030: f6bd 0f3e b638 613d d738 a0bb e579 833c
00000040: 6041 90bd 7caf c83c d6fa 14bd 337c 403d
00000050: 91dc 813d fcbc 253d c176 dd3c 7e54 b6bd
00000060: dbb1 263d f945 2a3b fc81 0fbe a7c5 f73c
00000070: a9b4 65bd ea32 0dbe 265d 723d 0390 15be
00000080: c268 33be 0045 953d 7af7 a23d 9826 d0bb
00000090: ffd0 ac3b 5ab2 113d 5664 08bd b20f 9d3d
000000a0: 8ada 46be 0db6 7ebd 120d 7a3c b5d9 a23d
000000b0: 45e9 89bd 647d d93d b156 cebd 34b8 9bbd
000000c0: bba8 923c cfc3 3ebe 7934 5cbd 3c4c 7dbd
000000d0: c9d7 323d ffe4 06be bd1d be3d 0679 913d
000000e0: db83 94bc 6d8d 78bd 57a2 023c 3cad 1ebe
000000f0: d194 b0bd 5ad8 27bb b5b5 bf3c 0b9b a6bc
00000100: 07c3 09be 0381 ef3a beeb 693d d11d a03c
00000110: 5340 8cbd 9099 a33d b85f edbc 4730 ce3d
00000120: faf4 7ebd 17ec ff3c f4b7 19be 8c2e cebc
00000130: 70e2 153d ae95 b9bd 325d 9a3d 111a 823d
00000140: 68cb 623b df7e 24be 0da6 eabd 896c 72bd
00000150: c270 c8bd df86 b8bd c4c3 a13d 38d0 403d
00000160: 1c7e 6b3d f6b1 ca3d bac5 8abd 1c5f 74bd
00000170: 3817 15bd d323 c7bd 7eb4 943d 725d 89bd
00000180: 6cb0 393c f90e 93bc e11d 5c3d 1ff4 24be
00000190: 84c9 e1bc a3ba 90bd 4e55 e8bd 758e e23c
000001a0: 2dc9 1a3b 2db8 8dbd a0ee eebd a2be e53b
000001b0: a39e 8c3d 1696 40bd 34b8 a2bc 6022 00bd
000001c0: d7f3 eb3d 7785 9abd 8cbb 14bc 661b 9a3b
000001d0: 9f9d f1bd 0601 943a b33f e93c 7e2b ab3d
000001e0: 8ea1 40bc ca6a e2bb 4aa1 83bd d116 89bd
000001f0: fc7c 073c e919 9b3c 3950 37bc c2be 89bd
00000200: 7ff4 c5bd 0a2e 433d cf5c a0bd 81c5 d7bd
00000210: e3f8 4a3d c78b abbd d67e 4c3d ada7 fabc
00000220: 6532 2fbe 4545 e8bd 39f4 9ebc 6f8f 5a3c
00000230: cef2 30bd e60f d83d e3c5 b63d f90d 493c
00000240: a019 853c 4001 cbbd d755 b1bd 6c47 b3bd
00000250: 2469 a63d d914 0a3e e792 8dbc 8336 fc3c
00000260: ed16 393d 11d4 5a3d 777d e2bc e2e5 adbd
00000270: 5863 873d 7c80 413a 4b28 c63d 5284 d5bd
00000280: 9fcb 58bd 0bd3 19bd 4f97 2b3d f2c2 f1bd
00000290: 7884 a1bd e9af 893d a5a1 ac3d d393 8c3d
000002a0: c931 cd3a 26ff 10be 39d9 d0bd 65af 96bd
000002b0: 7c92 8c3d a60b 79bc 9410 913d 8ad3 58bd
000002c0: fb31 5f3b e96f 9ebd 7e2a c43b eb94 b03c
000002d0: 2cd6 df3d ba7f 59bd 3878 c8bc 6c1e 603d
000002e0: 8081 343d db0e 7b3d 48b8 18be 1728 b7bd
000002f0: 5379 5dbd 0377 a5bd 0920 853d 9f99 9fbd
00000300: 97f3 f63c f8f5 49bd b2a9 913d b364 c5bc
00000310: a60a 31bd d78c 8c3d bbfe 43bc a805 503d
00000320: 32fa 23be d6bb 41bd bc81 adbd 6741 babb
00000330: d349 593d 4ea6 bfbd 4ec0 29bd e2e5 183c
00000340: d34e 633c 10ba 30bd c47b 0c3d d224 a5bd
00000350: d5f5 f83c 5f08 233d 39fe 62bc 8295 6a3d
00000360: 5c5d 3d3d dce1 b63d 7862 bfbc acbb 5bbd
00000370: 4ece 47bd f0d3 a13d e4a4 af3d 7baa a5bd
00000380: 85e3 0dbd 44cb bc3d 7819 00bd 8bfc 18be
00000390: d52e bebc dbfe c13c 13cd 92bd b316 c63d
000003a0: 0f8c cbbd d3a4 07bd 430d 62bd ffef 2f3d
000003b0: 9a78 aa3d c03a 81bc d6ce aabd 5a66 793d
000003c0: a84d f4bc 5d90 553d 87fc b0bc 76bd a13d
000003d0: d509 17bd c023 0abe c7d6 9f3d eb60 193d
000003e0: 1e8d 6ebc 6acf 29bd 9bc7 5e3d 8bb7 9c3d
000003f0: 4c2a e4bc b3aa f3bd 45d5 50bd 50c2 f7bc
-0.05589333 0.090975024 0.005016674 -0.11777326 0.0134427305 0.053398192 -0.014561055 0.0679503
-0.20593421 -0.0540335 -0.01254303 0.09595119 0.14037308 0.054985724 -0.0048895883 0.016049335
-0.07043719 0.02449774 -0.03637203 0.046993446 0.06340898 0.040463433 0.027034165 -0.08902834
0.04069696 0.0025981648 -0.14014429 0.030245615 -0.056080494 -0.13788953 0.059170865 -0.14605717
-0.1752043 0.07288551 0.07957359 -0.006352257 0.0052739377 0.03557048 -0.033298813 0.07669009
-0.19419304 -0.062185336 0.015261905 0.079516806 -0.06733946 0.106196195 -0.10075129 -0.07603493
0.017902723 -0.18629383 -0.05376098 -0.06184028 0.04366282 -0.13173293 0.09283016 0.071031615
-0.01812928 -0.06068175 0.007973275 -0.15495771 -0.086221345 -0.0025611133 0.023402074 -0.020337602
-0.13453303 0.0018272701 0.057109587 0.019545468 -0.06848206 0.07988274 -0.028976306 0.10067802
-0.062245347 0.031240506 -0.15011579 -0.02516868 0.0365929 -0.09061752 0.07537307 0.06352628
0.0034606103 -0.16064022 -0.11457453 -0.05918554 -0.09787132 -0.090100996 0.078986675 0.047073573
0.057493314 0.098972246 -0.067759946 -0.059661016 -0.036399096 -0.0972363 0.07260989 -0.067072764
0.011333566 -0.017951475 0.053739432 -0.1610875 -0.02756191 -0.07066848 -0.113443956 0.02765582
0.0023618445 -0.06919894 -0.11666608 0.0070112506 0.06866195 -0.047018133 -0.019863226 -0.031282783
0.11521118 -0.07544988 -0.009077918 0.004702973 -0.11797642 0.0011291809 0.028472757 0.08357905
-0.011757268 -0.006909703 -0.06427248 -0.06693805 0.008269545 0.018933253 -0.01118856 -0.06725837
-0.096657746 0.04765133 -0.07830202 -0.10535718 0.049553763 -0.0837627 0.049925648 -0.030597532
-0.17109068 -0.11341337 -0.019403564 0.013339861 -0.043200307 0.105499074 0.08924463 0.012271398
0.01624757 -0.09912348 -0.08658951 -0.08753857 0.08125523 0.13484515 -0.017281963 0.030787712
0.04518788 0.0534249 -0.027647717 -0.08491112 0.06610745 0.00073815114 0.09675654 -0.10425629
-0.052928563 -0.037554782 0.041892346 -0.11804761 -0.078865945 0.06723005 0.08429269 0.06864133
0.0015655096 -0.14159831 -0.10197682 -0.073576726 0.06863877 -0.015200531 0.0708324 -0.052936114
0.003405689 -0.07736189 0.005986511 0.021555385 0.10929522 -0.053100325 -0.024471387 0.054716513
0.044068813 0.061293464 -0.14914048 -0.089431934 -0.054070782 -0.0807934 0.06500251 -0.07792973
0.03014545 -0.04930684 0.07112445 -0.024095869 -0.043223046 0.068628006 -0.011962588 0.050786644
-0.1601341 -0.047298275 -0.084720105 -0.005684066 0.05304892 -0.09357892 -0.04144316 0.009332152
0.013873774 -0.043146193 0.03429772 -0.080636635 0.03039066 0.039802905 -0.013854557 0.057271488
0.046231613 0.08929798 -0.023362383 -0.053645775 -0.04878073 0.07901752 0.08576372 -0.08089157
-0.034640808 0.09218457 -0.03127429 -0.14940087 -0.02321569 0.023681095 -0.07168021 0.09672298
-0.099388234 -0.033116173 -0.05518843 0.042953487 0.08323784 -0.015775084 -0.08340232 0.060888626
-0.029822186 0.05213963 -0.02160479 0.07897465 -0.03687461 -0.134902 0.078046374 0.037445944
-0.014560012 -0.04145757 0.054389577 0.076521955 -0.0278522 -0.11897793 -0.05098464 -0.030244023

sequential/dense/BiasAdd/ReadVariableOp f4 [9]
00000000: 9657 0cbc c2fb 5aba d805 883b 04cf 513d
00000010: 1ff3 0ebb 5774 c1bb b2cd 3a3c 295e e4bc
00000020: c253 20bd
-0.008565804 -0.0008353555 0.0041510873 0.051222816 -0.0021812392 -0.0059037614 0.011401581 -0.02787693
-0.039142378

sequential/dense/MatMul f4 [9, 6272]
00000000: 6f71 873b 0cbf 4d3d 445a 10bd 34dd f0bb
00000010: 12dc 14bd 647c f03c ae63 1bbd 67bc 933c
00000020: a702 313c 11f4 e4bb 7d70 fbbc ea85 583d
00000030: f08e 663d dfa8 d9bc 0167 653c ea55 90bd
00000040: 1ac1 14bd b5d5 203d fe8f dcbc a769 fa3c
00000050: 9945 a4bc d629 febc 429d 9f3d 70a2 79bc
00000060: 653b 193b b099 613c b888 20bd 521c 093e
00000070: eeff c2bb 94a6 b73c 9654 edbc 9bd2 4ebd
00000080: 3481 173d 26da b83d 5bf0 68bd 4dba 1dbb
00000090: 4672 8fbd f2d6 273d 364b 003c ae77 4a3d
000000a0: 45fd 573c f710 e53c 4e31 fdbc 56b9 863d
000000b0: 9260 a13d e399 6a3c c3ee cc3c dee8 a73b
000000c0: 292c c1bc fe2d 4a3d f26a 32bd dc2f a2bc
000000d0: 45c2 15bc 5a95 273c 9ec6 913d 370d e0bb
000000e0: e6c8 083b c49b 2b3b 13c0 f1bc ec54 093e
000000f0: 7971 4cbc 749b b6bb fad5 7dbc b7bf ce3b
00000100: 1108 d2bc 0922 df3c 48ac 38bd 3d79 5abb
00000110: 4bd7 633c eff1 f0bb 6383 ba3c c159 343d
00000120: 91f7 583c 3e9f b63c 42f8 55bd 968b 31bb
00000130: 82d6 723d 36ed 4c3b 5320 86bc 8b38 ebba
00000140: 43b9 b0bc 9cdd a23d 15a2 03bd 1c8e 40bc
00000150: 2a1b 773b 8361 64bb 1389 7b3d 8036 84bc
00000160: 6ca8 413d cb0b 1e3c a420 7fbc 8351 0c3e
00000170: 2ab0 01bc aa7d 973c deb3 f2bc 5314 e53c
00000180: 0b38 863c 3f4d 1c3d d630 ea3a 1c1f ac3b
00000190: 8e02 173d 2aaa 1d3d 555f d53c 6d92 603d
000001a0: 9f92 f3bb 5fa4 bb3b 1aae d4bc 7a38 00bc
000001b0: fdc3 88bb 070d 6b3b 147b 913c 9a4f c8bb
000001c0: 3d60 aabb 267f 9d3d 34c7 fe3a 7b9d aa3c
000001d0: bdfc 4cbb 5de4 3ebc fdc6 25bb 3a8c 6f3a
000001e0: 0b5d 1e3d bd32 dcba f1cf b5bb 6bf2 e23d
000001f0: 8f97 b7ba f441 2ebd f6e8 03bd 27cd d53c
00000200: 6e85 903c 8dfc b4bc 8ba8 573c c32a e73c
00000210: 2661 183c 2dc3 1c3d 8172 d53b 431b 583d
00000220: 625f f83c 89fa 133d 89dd ddbc acd0 a1bc
00000230: 8ec3 333c a198 ecbc 9224 163c aa59 8a3b
00000240: b556 7a3b 8a87 b23c 481a a3bb 019b 273d
00000250: 18f8 a43c 535a b43c e9a8 9dbc ef92 503c
00000260: 89a1 dbbc 8da7 4bbc e8ca a03b 02f2 d73b
00000270: 96fe 4eba a31f c5bc 0e46 b13c 2e44 73bc
00000280: d55d 473d 8356 9cbc 0219 19bd c797 e53c
00000290: a54c 173d 130c 253d c54e 0f3d 4958 2c3d
000002a0: 88dd 7abc 7694 283d 38a8 2dbd 856f acbb
000002b0: a50f 45bd 180a 773c e158 82bb f892 1abd
000002c0: 890b 70bc 2038 f53c f43b 2f3c 6eb3 b9bb
000002d0: d3c7 82bb 860f ed3c b1c2 46bd 91ae 91bc
000002e0: 169f 023d 11fd e83b a60a d53b c067 de3c
000002f0: 383f 00bb 2124 5dbd 8dfd 143d 343f 9a3a
00000300: bd81 fa3c b4bc 1abd bb5e 8bbb 5eef 533d
00000310: 0b8d 863d 5144 ec3c 523e c43c 4510 8b3c
00000320: 642d ab3b 20c3 e83c 7084 edba eab7 8d39
00000330: 6477 f7bc e070 34bc 2e16 233a 303c bbbc
00000340: f477 b03c 7d5d 843c f3c3 843c 5035 253d
00000350: 160a 153d 3968 d8bb 5ae0 02bd 09d8 11bc
00000360: d6c3 003c bd1b e93c f7c8 0ebd c0ef 73bd
00000370: 1c72 bebc a089 47bd ce27 d93c f008 993c
00000380: fc1e 7d3b 2189 e0bc b604 3cbd a419 8739
00000390: 1f53 913c ae57 c5bb 0607 ae3a 0280 a63c
000003a0: 0c67 c2bc dec4 483a 95f7 1fbd 60c6 433b
000003b0: 8e11 8abd 63ef 8b3c eca4 61bc 6991 24bd
000003c0: af1b 73bc 78db 773c 3a38 eb3c 59c4 46bc
000003d0: a02a a4bb 7819 c3bc 97f7 4ebd 413b 91bc
000003e0: bfbc 9c3c 01d6 d33c dfea 753c 9c1a 4abd
000003f0: 022f 183c d410 08bd a8e2 683c 0b2f 273a
0.0041333954 0.050231025 -0.035242334 -0.007350588 -0.036342688 0.02935619 -0.03793686 0.018034173
0.010803855 -0.006987103 -0.030693287 0.052862085 0.05628866 -0.026569782 0.014001609 -0.07047637
-0.03631697 0.039266307 -0.02692413 0.030567957 -0.020052718 -0.031025808 0.077936664 -0.015236482
0.002338135 0.013769552 -0.039192885 0.1338971 -0.0059509194 0.022418298 -0.028970998 -0.050493818
0.036988452 0.090259835 -0.056869846 -0.0024067343 -0.07004218 0.040976472 0.007830432 0.04943054
0.013182943 0.027962191 -0.0309073 0.06578319 0.078797475 0.014318916 0.025016194 0.0051241955
-0.023580628 0.049360268 -0.043559022 -0.019798212 -0.009140556 0.010228479 0.07117961 -0.006837513
0.0020871698 0.0026185373 -0.029510533 0.13411301 -0.012478226 -0.0055727307 -0.0154929105 0.0063094753
-0.025638612 0.027237909 -0.045086175 -0.0033336424 0.01390631 -0.0073530595 0.022767728 0.04403091
0.013242618 0.02229273 -0.05223871 -0.0027091256 0.0592866 0.0031269318 -0.016372835 -0.0017945928
-0.021572715 0.07952425 -0.032136995 -0.0117526315 0.00377054 -0.003484816 0.06141002 -0.016139269
0.04727976 0.009646366 -0.015571747 0.13702969 -0.007915536 0.018492538 -0.029626783 0.027963793
0.016384145 0.038159605 0.0017867337 0.005252732 0.03686767 0.03849236 0.026046434 0.054827143
-0.00743325 0.0057263817 -0.025961924 -0.007825965 -0.0041737542 0.003586592 0.017758884 -0.006113005
-0.005199461 0.07690267 0.0019438029 0.020827046 -0.0031278573 -0.011651126 -0.0025295608 0.0009138022
0.03866295 -0.0016799789 -0.00554847 0.11081394 -0.001400696 -0.042543367 -0.03220459 0.0260988
0.01764175 -0.022093082 0.013162742 0.028218633 0.009300506 0.03827207 0.006513894 0.052760374
0.03031892 0.0361276 -0.027083175 -0.019752823 0.010971917 -0.028881373 0.0091639925 0.0042221146
0.0038198654 0.021793146 -0.004977498 0.040919308 0.020137832 0.022015726 -0.019245582 0.012730344
-0.026810424 -0.012430084 0.004907001 0.006590129 -0.00078962126 -0.024062937 0.02163985 -0.014847798
0.04867347 -0.01908422 -0.037377365 0.028026475 0.03693833 0.040294718 0.03498723 0.042076383
-0.015311606 0.04115721 -0.042396754 -0.0052623176 -0.048110623 0.01507809 -0.0039778803 -0.037737817
-0.014651188 0.029933989 0.010695446 -0.0056671416 -0.003991106 0.028938066 -0.048525516 -0.017783435
0.031889997 0.007110246 0.0065015135 0.027149081 -0.0019568931 -0.053989533 0.036374617 0.0011768104
0.030579442 -0.037777618 -0.004253236 0.05174195 0.065698706 0.02884117 0.023955498 0.016975531
0.005223917 0.028413355 -0.0018121134 0.00027030642 -0.030208297 -0.01101324 0.00062212616 -0.022855848
0.021541573 0.01615786 0.016206717 0.040334046 0.03638657 -0.006604221 -0.03195224 -0.008901604
0.007859191 0.02845561 -0.034859624 -0.059554815 -0.023247771 -0.048715234 0.026508238 0.01868102
0.0038623204 -0.027409138 -0.04590293 0.0002576831 0.01773983 -0.006022415 0.001327724 0.02032471
-0.023730777 0.000765873 -0.039054472 0.002987288 -0.067416295 0.017081922 -0.013772231 -0.040177736
-0.014838143 0.015128009 0.028713334 -0.012131774 -0.005009964 -0.023815855 -0.05052909 -0.01772845
0.01913297 0.025858881 0.015009611 -0.049341783 0.009288551 -0.033219174 0.014214195 0.00063775544
