object_recognition_fruit_v3.tflite (tflite, 269404 bytes, 6 tensors)

sequential/conv2d/BiasAdd/ReadVariableOp f4 [32]
000000 8f a2 4b bd 16 39 a2 bd 02 8c b3 3d 96 29 47 3d
       -0.049715575 -0.079210445 0.08766939 0.048623644
000010 55 cf 00 3e 7d 3e 1e bc a1 0c c1 bc 3a ef c3 3d
       0.12579091 -0.009658453 -0.023565592 0.09567113
000020 23 38 86 3c 61 c2 68 bd 53 f6 e5 3c fd 6c 42 3d
       0.01638419 -0.056826 0.028071558 0.04746722
000030 d3 f5 00 ba ab 5f 6e bd 5c 70 38 bd 4d fa 80 bd
       -0.0004919443 -0.058196705 -0.04502903 -0.06297741
000040 de d2 bb 3d b3 60 86 bc 8d a6 17 3d de db a8 3e
       0.09171079 -0.016403532 0.03702407 0.32980245
000050 6f 41 c3 3c 67 8c 32 3d 65 f0 e3 3b a3 3d a1 3d
       0.023834912 0.04359093 0.0069561475 0.078730844
000060 0e ba 86 bd 30 b3 39 3d 1c ee fb 3c e3 c4 c7 bc
       -0.06578456 0.045336902 0.030753188 -0.024385875
000070 c7 4b 0c 3e a0 ab 5e 3d ca cf b6 bd 86 33 81 3d
       0.13700782 0.054362893 -0.08926351 0.063086554

sequential/conv2d_1/BiasAdd/ReadVariableOp f4 [32]
000000 aa b4 64 bc 47 31 23 3d 0c 30 8f bd 4b 62 48 3d
       -0.013959089 0.039841916 -0.06991586 0.048921864
000010 0e ec f4 bc 31 7e 1b bd 0a cf e4 bc ac 07 26 3d
       -0.029897716 -0.037962142 -0.027930755 0.04053466
000020 67 5e db 3c 26 c2 06 bd b2 e3 4f 3c 90 4a 5e bd
       0.026778413 -0.032899998 0.012688564 -0.054270327
000030 35 a5 18 3d 0b a0 1a 3d 22 94 f9 bc 9f 3e c5 3c
       0.03726693 0.037750285 -0.030466143 0.024077712
000040 0c 55 68 bc aa fc c8 bd d2 1b 9a bc 61 8e 1c 3d
       -0.014180433 -0.09813817 -0.018812094 0.03822172
000050 fa e5 16 3d 1e d0 6f bb 10 f0 2b bc 3c a8 2f bd
       0.036840416 -0.0036592553 -0.010494247 -0.04288505
000060 e1 df 29 bc d5 d6 5e bc 9a d4 c1 bc 36 66 54 bc
       -0.010368318 -0.013601025 -0.023660947 -0.012963822
000070 55 4a 4f 3b 1e 72 99 bd 43 38 a7 3d d3 78 62 3d
       0.0031629999 -0.07492469 0.08165028 0.05529101

sequential/conv2d/Conv2D f4 [32, 3, 3, 3]
000000 fe b6 37 3e 01 8b 6d bd 90 e8 13 be 75 2e 21 3e
       0.179409 -0.057993893 -0.14444184 0.15740378
000010 4e 2d 72 bc 2d cf 28 be bf 5a ac bd ea 66 c5 3d
       -0.014781309 -0.16485281 -0.08415746 0.0963877
000020 32 d4 9c 3b d4 e6 e9 3d cf ee 50 bc 8b e2 7b bd
       0.004786038 0.1142098 -0.012752249 -0.061495345
000030 ff fe 59 3d f4 4e e9 3d 83 8a 27 be c5 76 03 3e
       0.0532217 0.11392012 -0.16361432 0.12838276
000040 d9 fa 00 3d 77 f0 c2 bd 91 c6 b1 3b 2e f5 48 3c
       0.031489227 -0.09518521 0.0054252823 0.012265487
000050 e0 ed 37 be be c6 8e 3d a3 b1 03 bc 43 88 57 3d
       -0.17961836 0.06971501 -0.008037957 0.052620184
000060 49 46 c8 bc 36 4d ef bd 04 69 66 bd 41 c7 89 bd
       -0.024447577 -0.11684649 -0.056252494 -0.06727458
000070 9b 9b a1 bd d9 74 09 bc 0a b5 17 bd f6 a4 4f 3d
       -0.078910075 -0.008389675 -0.037037887 0.05069443
000080 4a 91 dd bd db 9e 8d bc 55 93 00 3e b1 b1 89 3d
       -0.10818727 -0.017287662 0.12556203 0.06723345
000090 e3 b4 f6 3d aa 28 03 3c af 35 ba bd 4e 8b 46 bd
       0.1204622 0.008005301 -0.090922706 -0.048472695
0000a0 f0 05 3b 3d 9e 13 a1 bd 12 4a 44 bd 77 00 08 3e
       0.04565996 -0.0786507 -0.0479222 0.13281427
0000b0 64 50 1e be 1e 51 db 3d c9 55 e3 3d d5 98 97 bd
       -0.15460354 0.10708831 0.111003466 -0.07402197
0000c0 f9 2b cc 3a e4 13 85 3c 8f 67 9b 3d eb d1 09 3e
       0.001557707 0.016244836 0.075881116 0.13458984
0000d0 c8 dd 5d bd fc c2 e7 bb 47 a7 96 bd 6b d3 1d be
       -0.054166585 -0.0070728045 -0.07356124 -0.15412681
0000e0 9d 47 c3 3d d9 c4 a3 3d 84 2f a8 bc 38 a4 f2 3d
       0.095351435 0.0799653 -0.02053047 0.118477285
0000f0 62 d2 fd 3c bf 0b 64 39 ed 01 6f 3e 28 29 76 3d
       0.030984107 0.0002174815 0.23340578 0.060097843
000100 6e 98 71 be c6 12 c6 3d 5d af 1b 3e dc af 22 be
       -0.23593304 0.096715495 0.15203615 -0.15887398
000110 77 d3 89 bd 7e b3 85 3d 74 73 af 3d d7 bc ec 3c
       -0.06729787 0.06528376 0.08566943 0.02889864
000120 93 59 11 bd 50 a6 85 be 9a ae c8 3c 2c c4 f9 bd
       -0.035485815 -0.2610345 0.024497319 -0.1219562
000130 c0 a7 71 bd b5 0e 98 bd 3a 9b 09 3d bd 3a 44 bc
       -0.05899787 -0.0742468 0.0335953 -0.011976895
000140 ae 76 25 3d 5d f3 0c be 15 15 61 3e 2f 6c 58 be
       0.040396385 -0.1376471 0.21980698 -0.21135019
000150 07 21 19 bd 48 6a 75 3e cf 28 ab bd 11 c8 c4 3d
       -0.037385013 0.23966324 -0.08357393 0.09608472
000160 38 94 87 3e be a0 66 be c5 37 cb bd cf e6 ed bc
       0.2648027 -0.22522256 -0.099227466 -0.029040722
000170 54 bd 18 bd 3f 61 58 3d 31 7b 34 bd 09 a7 5d bd
       -0.037289932 0.052827116 -0.044062797 -0.054114375
000180 88 1f f1 3a d3 ca 84 3d 6f 56 86 be a4 f6 42 bd
       0.0018396238 0.06483998 -0.2623782 -0.047598496
000190 f6 95 31 3d 23 f7 1f 3e 98 8d 58 bd a4 b3 7e bb
       0.043355905 0.15621619 -0.05286941 -0.0038864398
0001a0 49 68 3b be 9a 90 3d be a5 79 ed bb c7 6e 17 bd
       -0.183015 -0.18512192 -0.007247167 -0.03697088
0001b0 89 5f 83 bd 5d d7 68 bb 94 c2 44 be 11 e0 9f 3b
       -0.06414706 -0.0035528757 -0.1921485 0.0048790057
0001c0 6e 0b 2a 3e fc b4 38 be ba b9 30 be 1d 79 9f 3c
       0.16605923 -0.1803779 -0.17258349 0.019466931
0001d0 17 8b 6b be 0d 67 f9 bd 11 9c 07 3e 44 7e 6a be
       -0.23002277 -0.121778585 0.13243128 -0.22899729
0001e0 12 02 e6 bd 99 ac 99 3e 93 16 5b be c0 7b 27 bc
       -0.11230864 0.30014494 -0.2139533 -0.010222375
0001f0 f7 32 04 bc 31 7c 01 be 0f da 34 be 28 a6 87 bd
       -0.008068792 -0.12645032 -0.17661308 -0.06623489
000200 8f c8 32 ba 44 3a f9 bc ce 85 67 3e ff 70 c7 bd
       -0.00068200467 -0.030423291 0.22609636 -0.09738349
000210 86 31 6a be bb 17 21 3d 1b 91 82 be 1a 11 a3 bd
       -0.22870454 0.03932927 -0.25501332 -0.07962246
000220 14 75 16 be 2f 84 aa 3d d6 e4 0b 3e f5 6e 2b 3d
       -0.146931 0.08325993 0.13661513 0.041853864
000230 75 72 e5 b8 45 64 44 3d ba 3d c9 bc 99 35 92 3c
       -0.0001094089 0.047947187 -0.024565566 0.017847823
000240 d9 56 88 3d 72 81 02 be 1e d2 7e bd 12 7e 2e 3e
       0.0665719 -0.12744692 -0.062212102 0.1704028
000250 40 fb c7 bd 9b 26 32 be 7f ab 0f 3d fa 57 4d 3c
       -0.09764719 -0.1739754 0.03507566 0.012533182
000260 95 0f 2a bd 40 95 1c 3e df c9 28 3d ac dc f3 bd
       -0.041518766 0.1529131 0.041208144 -0.11907324
000270 a6 44 2a bd 55 ef e5 bd 33 e2 6f 3d 16 ec 05 3d
       -0.041569375 -0.112272896 0.05856533 0.032695852
000280 23 83 d3 bd 83 74 2c 3e 0f 8a 20 be 5c 65 fe bd
       -0.10327747 0.1684132 -0.15677665 -0.124216765
000290 1e b3 31 be 0a 3d 93 bd 03 8b ce 3d 9d 7f 5b be
       -0.17353484 -0.07189377 0.10085108 -0.214354
0002a0 9f e7 e6 3d 71 14 ca 3d 21 60 6d bd d9 c6 9b bd
       0.11274647 0.0986718 -0.057953004 -0.076062866
0002b0 86 cf 14 3d 75 95 d6 bd 30 a5 1c 3b 3b 6c 38 3e
       0.036330722 -0.104777254 0.002390217 0.18010037
0002c0 30 0a d0 bd a3 04 0d 3e 28 36 29 3e fa 69 a2 bd
       -0.10158193 0.137713 0.16524565 -0.0793037
0002d0 ee 65 8d 3d 67 73 96 bd d0 7d 3f be 90 b2 1c 3e
       0.06904207 -0.0734623 -0.18700337 0.15302491
0002e0 22 94 3c 3e c9 e0 c1 3d b1 8c 24 3e 08 75 11 bd
       0.18415883 0.094667025 0.16069295 -0.035512
0002f0 38 c1 e8 bc 1f d4 61 3d 95 d1 95 3d 15 6a f1 3d
       -0.028412446 0.055133935 0.07315365 0.11787812
000300 97 0f f8 bd a4 78 1c bc 6f fe 9c bd db 27 53 bd
       -0.121123485 -0.009550247 -0.07665717 -0.05155168
000310 3a 17 2e be 79 a0 13 3e c2 fc 82 3c 49 bb 01 3c
       -0.17001048 0.14416684 0.015989665 0.007918187
000320 a1 b6 64 3e 98 07 0c 3d 46 95 fe bd 82 63 76 3c
       0.22335292 0.03418693 -0.124308154 0.015038373
000330 2d 24 65 bd 78 4b 95 bd 3f b3 12 bc c8 d6 f5 bd
       -0.055942703 -0.07289785 -0.008953868 -0.12003857
000340 45 95 12 be 88 67 ad 3d 80 8b cf 3d b0 ee 0b be
       -0.14314754 0.08467013 0.101340294 -0.13665271
000350 3d 9d 1b 3e 85 2a c0 3b 02 02 26 ba f4 2c f5 3c
       0.151967 0.0058644437 -0.00063326966 0.029928662
000360 70 53 da 3d 73 5a 3c 3e 6f 3b f1 3d 00 60 cf 3d
       0.10660446 0.18393879 0.11778914 0.101257324
000370 7f db 3f 3e 73 83 fa 3d 16 b5 0d 3d 4a 5b 79 3c
       0.18736075 0.12232103 0.034596525 0.015219519
000380 d4 f3 76 3e 8c 92 fd 3d 83 75 10 bc 0d 15 9d 3d
       0.2411645 0.12381467 -0.0088170795 0.07670031
000390 a6 c3 2c bd b0 2a 33 be 0f d1 49 be be 73 4d bd
       -0.042178772 -0.17496753 -0.19708656 -0.05015921
0003a0 28 28 b7 3d c2 1b 21 3e 00 24 1b 3c ad 57 17 be
       0.08943206 0.15733245 0.009469032 -0.1477954
0003b0 81 03 7f be 1c 15 0a be d4 3d a3 bc f9 1d ce bd
       -0.2490368 -0.13484615 -0.019926943 -0.100643106
0003c0 cc ee 46 be 70 da b8 bc 51 d3 61 be d1 c4 c7 3d
       -0.19427031 -0.022565097 -0.22053267 0.097543366
0003d0 ac 12 b6 3d 63 2d 41 bd d9 8c 92 3d e2 a4 c4 3d
       0.0889028 -0.047162425 0.07155771 0.096017614
0003e0 80 5e 33 be ad 20 d8 3c 7b 36 9a 3d fe a1 85 3c
       -0.17516518 0.026382769 0.075299226 0.016312595
0003f0 dc 0f 9d 3c 7c df c4 bd 41 d1 27 be c6 89 b4 3d
       0.019172601 -0.09612939 -0.16388418 0.08815341

sequential/conv2d_1/Conv2D f4 [32, 3, 3, 32]
000000 4e c8 ad 3d e1 57 bc 3c f5 42 e2 3d d3 1e 36 3d
       0.08485471 0.022991123 0.11047927 0.04446299
000010 42 94 a5 bd c9 f0 8b 3c 51 e0 e6 bd 07 28 9d bd
       -0.080849186 0.017082589 -0.11273254 -0.0767365
000020 e1 0a c8 bc 7d 72 77 bd 97 14 1e 3c 6e e6 87 bd
       -0.02441925 -0.06041192 0.009648464 -0.06635748
000030 6c 7a ba bc b5 af 50 3c 6a bc b4 3d 1a 44 e1 bc
       -0.022763453 0.012737204 0.08825 -0.027498294
000040 a7 e4 17 be 05 7b 18 bd c0 b0 81 bd 6a 6e eb 3c
       -0.14833318 -0.037226696 -0.063325405 0.028739173
000050 cf bd 4e bd d3 f4 67 bd 92 c4 32 bd 38 5d 04 be
       -0.050473984 -0.056629967 -0.043644495 -0.12926185
000060 5e 23 5a 3d 1d 89 a6 3d e9 9e 9b bd f2 f7 ea bb
       0.053256385 0.08131621 -0.07598669 -0.0071706707
000070 dc bb 92 bd ef d5 e8 3c 30 1f 1f bd 98 fc 8e bd
       -0.071647376 0.028422324 -0.038848102 -0.06981772
000080 f5 c4 88 3d 0f 24 d0 bd a3 34 62 3d 76 ee 90 3d
       0.066781916 -0.10163128 0.05522598 0.07076733
000090 53 06 c8 bd 13 0d 53 3d a5 be 4a 3d e1 08 6e 3c
       -0.09766831 0.05152614 0.04949822 0.014528484
0000a0 48 5a 94 bc b3 cf 7a 3d 55 b1 70 bd 6e ff df bd
       -0.018109456 0.061233234 -0.058762867 -0.10937391
0000b0 4e e6 9a 3d 98 e2 a3 bd 63 17 6f 3d d8 4a f7 3c
       0.075634584 -0.08002204 0.058371913 0.030187055
0000c0 e5 96 e3 3b 2d 73 9c bd 0e 7b d4 bd 36 30 f6 bd
       0.0069454783 -0.076391555 -0.10375033 -0.12020914
0000d0 e4 36 6b 3d 6b b7 fd 3c a2 c1 8d bd fd 86 f7 bc
       0.057425395 0.03097125 -0.06921698 -0.030215735
0000e0 c4 4d ab 3d b5 4d 81 3c 71 dd a6 bc 32 fd 88 3c
       0.08364442 0.015784124 -0.020369263 0.016722295
0000f0 5a aa 09 3d 8b 4a 59 bc 72 e1 ac 3d 9f b7 b6 3c
       0.033609726 -0.013262401 0.08441438 0.022304354
000100 83 e6 e5 bc 9f 79 dd bd 3f 8d b4 ba 89 d2 93 3d
       -0.028064018 -0.10814213 -0.0013775005 0.07217891
000110 27 cf 97 bd fe ca 10 3d 2c 9f e2 bd 65 6b ab bc
       -0.07412558 0.03534984 -0.11065516 -0.020925233
000120 f2 a4 83 bd 47 a6 df bd 45 a5 25 bd 7b 9c d9 bd
       -0.06427945 -0.10920387 -0.040440816 -0.106255494
000130 72 25 fd bb de 72 7d bd 6a a5 dd bb b0 f5 ba bd
       -0.007725411 -0.061877124 -0.0067641037 -0.091288924
000140 78 94 d5 bc 3e a5 e2 bd a5 40 49 bd 70 3d 42 bd
       -0.026071772 -0.11066674 -0.049133915 -0.047421873
000150 51 33 a5 bd 8d c5 c6 bd 8a 23 6e bd 5e 11 08 be
       -0.080664285 -0.097056486 -0.05813936 -0.13287875
000160 29 8e 82 3d 1c f3 10 bd 8e aa ea bc ad 19 2e 3c
       0.06374771 -0.035388097 -0.02864578 0.010626239
000170 bf 68 86 3c 43 e1 09 be a6 ae 50 3c b9 45 22 3d
       0.016407369 -0.13464837 0.012736952 0.039617274
000180 00 80 10 3d d0 38 52 3a 2b 95 51 bd 7c f4 18 bd
       0.03527832 0.000801933 -0.05116765 -0.037342533
000190 d3 b0 b1 3c f3 ba 51 bd 73 69 55 bd b2 b9 fa 3b
       0.021690762 -0.05120368 -0.052102517 0.007651531
0001a0 db 7a b0 bd 32 0d 9e 3d ee b8 83 3d 10 4c a2 bd
       -0.08617183 0.077173606 0.06431757 -0.07924664
0001b0 12 08 46 bd 7c 6c 66 bc d5 e0 96 3a e9 12 c5 3d
       -0.04834754 -0.014063951 0.0011511097 0.096227475
0001c0 c3 57 95 bd f2 c3 55 bd a1 95 5d 3c 3f 70 7c ba
       -0.0729213 -0.05218882 0.013524444 -0.0009629763
0001d0 b2 72 eb bc 03 6a 70 bc 42 57 38 bc 83 ae dc bd
       -0.028741214 -0.014673713 -0.011251273 -0.10775473
0001e0 f3 d9 9f 3a 9e e6 e1 bd 83 61 1a bd af cf 81 3d
       0.0012195691 -0.11030315 -0.03769065 0.063384406
0001f0 ad 32 ba bd 14 66 a7 bd d4 83 b2 bb 21 f6 85 bd
       -0.09091697 -0.08173767 -0.005447844 -0.06541086
000200 1b 00 60 3c 95 25 03 3d ba 14 b2 3c c1 04 23 bc
       0.0136719 0.032018263 0.021738399 -0.009949864
000210 25 12 ee bd be a6 91 bd 5a b7 91 bd 5c 6f c1 bd
       -0.116245545 -0.07111882 -0.0711505 -0.09445068
000220 3f 52 92 bc 01 c5 56 3d c8 94 84 3d a2 70 05 3d
       -0.017861484 0.05243397 0.0647369 0.03257812
000230 ae 7b 23 bd 34 28 20 bd 4e de 7b 3d 47 59 33 3c
       -0.039912872 -0.03910084 0.061491303 0.010946578
000240 c3 63 fc bb 00 f0 ae bc 93 e9 9d 3d 9a 53 ee bb
       -0.007702322 -0.021354675 0.07710566 -0.0072731497
000250 ab 3a f0 bc 0b a9 d8 bc c7 3c 73 3d d1 4b c5 3b
       -0.02932485 -0.026447793 0.059384134 0.006021001
000260 b4 66 69 3c 8c fd b3 3c 1e 98 95 3d b3 7d 1b 3d
       0.014245678 0.021971487 0.07304405 0.037961673
000270 47 a5 f1 ba da ce b7 3c 4d 4f 61 3c f7 0a 75 bd
       -0.0018436097 0.022437502 0.013751817 -0.05982491
000280 be 22 2c bd e7 7f a7 3d c7 d8 f4 3c 89 e9 73 3d
       -0.04202532 0.08178692 0.029888524 0.05954889
000290 6f d1 a0 bd eb 2f f2 3c 01 2d 87 3d 66 1c e1 bd
       -0.07852446 0.029563865 0.06600381 -0.10991745
0002a0 cd 47 a2 3c 0b 45 b6 bd 28 7f be bd d2 06 dd bd
       0.019809628 -0.08899888 -0.09301597 -0.107923165
0002b0 d9 00 9b bd e5 c2 a6 3d 1f 1c a7 bb 80 b3 9c bd
       -0.07568521 0.08142642 -0.005099788 -0.076514244
0002c0 45 1a 24 3d 70 01 3e 3d 6a e3 28 bc 4f b9 11 be
       0.040064115 0.04638809 -0.010308126 -0.14230846
0002d0 9d e0 3e bc fa 25 3b 3d aa da 7e bd 75 9b 00 3d
       -0.011650232 0.045690514 -0.062220253 0.031398255
0002e0 f3 b8 14 bd 86 8b fd bc bc ec 70 bc 83 5d 0f bd
       -0.036309194 -0.030950319 -0.014704879 -0.03500129
0002f0 7d 23 1f be 8f e8 32 3c bf e1 75 3c a4 b5 04 3d
       -0.15540881 0.010919704 0.015007435 0.03239979
000300 d1 36 c7 bd e4 cd 95 bd b8 01 f9 bc b4 8c 8c 3d
       -0.09727252 -0.07314661 -0.030396327 0.068627745
000310 85 8c e6 3d ba fb 04 bd 7c 6d 1c bd 1f fa 10 3c
       0.11257271 -0.032466628 -0.03819035 0.008848696
000320 a4 3c 93 3d 4c b3 78 bd 78 ae 09 be d9 d2 ab bc
       0.07189301 -0.060717866 -0.13445461 -0.020974563
000330 ad c3 94 bd 4d 9e a5 3d c1 ff 4f bd ed 6f a0 3d
       -0.07263885 0.08086834 -0.050781015 0.07833848
000340 0a 5d 4b bd 25 f0 f1 3c 19 cf d3 3c 28 3b ef 3d
       -0.049649276 0.029533455 0.025855588 0.11681205
000350 2d 01 80 3d d7 81 75 bd c8 ae 80 bc 9a 84 ed bc
       0.06250224 -0.059938278 -0.015708342 -0.028993893
000360 c5 0e e3 bc 21 ae c1 bd de d9 b8 3c 4d d0 93 bd
       -0.027717004 -0.094570406 0.022564825 -0.072174646
000370 09 6c e3 3d 71 f8 d2 bd cf 33 93 bd c5 6b bd 3d
       0.111045904 -0.10301293 -0.07187616 0.09249071
000380 74 10 22 bd ea a8 12 3d a1 ae 0e bc 2f 69 c1 3b
       -0.039566472 0.03580562 -0.008708627 0.0059024314
000390 58 9a b2 3d 6e 1f d6 bd f0 55 56 3d 03 45 d1 bd
       0.08720845 -0.104552135 0.05232805 -0.10218241
0003a0 35 4e 1d 3d ad c6 b3 3a 6b 65 6d 3d 0b 69 38 bc
       0.038404662 0.0013715826 0.057958048 -0.011255513
0003b0 70 b7 3c 3d c4 19 0c 3d 95 9c 87 bd 79 b8 99 bd
       0.046073377 0.03420426 -0.066216625 -0.075058885
0003c0 14 43 88 3c eb 88 22 3d d1 59 96 bd d1 5d 06 3c
       0.016633548 0.039681356 -0.0734135 0.0082010785
0003d0 66 21 7d 3c 05 d2 cf 3c a6 28 70 bd b6 2c 9b 3d
       0.015449857 0.0253687 -0.058632515 0.07576887
0003e0 85 e6 21 3d 9c 80 8f bd 4e cd 80 3d ee c9 48 bc
       0.03952648 -0.07006952 0.06289159 -0.012255175
0003f0 31 bb cf 3d b2 9f 0f be 2c 98 77 bc 1f 86 98 bc
       0.10143126 -0.14025763 -0.015111964 -0.018618641

sequential/dense/BiasAdd/ReadVariableOp f4 [9]
000000 57 74 51 bc 80 4f 00 3d f2 dd 6a bd 53 92 bc 3d
       -0.012784085 0.031325817 -0.05734057 0.09207597
000010 32 6f 14 bd 45 da 6e bd 1c 85 65 3d e7 d4 e2 bc
       -0.036238857 -0.058313627 0.056035146 -0.02768941
000020 7a fa d6 bb
       -0.006560621

sequential/dense/MatMul f4 [9, 6272]
000000 d0 31 8f 3c b7 6f cd 3b 07 5f bf 3c 0b 9a 01 bc
       0.017479807 0.006269421 0.023360742 -0.007910262
000010 c8 40 72 bd 81 ec 91 bd 41 2d 94 bd bc b0 d2 bd
       -0.05914381 -0.07125188 -0.07235194 -0.10287616
000020 35 9d 71 bc de 2c 98 bc 15 f4 c9 bc f5 80 6b bd
       -0.014746954 -0.018576082 -0.02465252 -0.05749603
000030 79 80 04 3e 06 1a b2 bd 8e 8d a7 3d 0e b3 bc bd
       0.12939633 -0.0869637 0.08181296 -0.092138395
000040 c8 f9 15 bd bb 35 dd bd 95 5a da 3c f4 4c 64 bd
       -0.036615163 -0.10801264 0.026654521 -0.05573745
000050 ae b3 10 3d 0e 11 cd bb 9e cb 02 be e8 7a c7 3a
       0.035327606 -0.0062581366 -0.12772986 0.0015219124
000060 c3 43 b5 bb 0e 47 10 3d 75 f9 4c be a6 69 9b 3c
       -0.0055317595 0.035224013 -0.20017035 0.018971276
000070 eb f2 9d 3b 53 7f c1 bc ed db c0 3d c5 a9 17 bd
       0.004820218 -0.023620283 0.094169475 -0.03702714
000080 81 af f0 3c da 3f 3e bd bd 44 fe 3b 96 33 49 bd
       0.029380562 -0.046447612 0.007759659 -0.04912146
000090 92 6f bd bc aa 65 05 bd 46 01 99 bb ff 37 9f bd
       -0.02312449 -0.032567658 -0.0046693413 -0.07774352
0000a0 06 9d 9c bc 1e 12 33 3c ad 0d 97 3d 73 9f ff bb
       -0.019117843 0.010929612 0.07375655 -0.0078009902
0000b0 e2 8f 07 3e aa a3 75 bc 75 54 f7 3d 1b 75 a5 bd
       0.1323848 -0.014992634 0.12076656 -0.08078977
0000c0 47 38 c0 3c d5 c1 ce bd 74 51 d2 3c 41 ee 7b bd
       0.023464335 -0.10095564 0.025673606 -0.061506514
0000d0 c9 3e ba 3c 18 45 89 3d 77 9e 89 bd e8 40 21 bd
       0.022735016 0.06702632 -0.06719678 -0.03936854
0000e0 59 ca 93 3c fc 65 43 3b 15 04 cf bd 20 04 dc 3c
       0.018040823 0.0029815426 -0.101082005 0.026857436
0000f0 63 5d 0e 3c dd 56 bd bc 1e 2f ef 3d 1c 3c 49 bd
       0.008689257 -0.023112709 0.11678909 -0.04912959
000100 c1 6a 82 ba f9 a2 0d bd 7b 71 84 bb 35 71 cf 3c
       -0.0009950028 -0.03457925 -0.0040418482 0.025322536
000110 39 59 cd 3c 1d 3b 6e 3c d4 8b e5 3c ad 3b 24 bd
       0.025066959 0.014540461 0.028020777 -0.040095974
000120 b4 25 a2 3c b1 f8 fd 3c f8 9a bd 3d 87 55 81 3c
       0.019793369 0.031002374 0.092580736 0.015787853
000130 e4 9f ac 3d 52 10 b7 3d 72 8b 78 3d 65 06 51 bd
       0.08428934 0.0893866 0.06067986 -0.05103149
000140 ac 01 26 3d 78 70 45 bd cc 10 e4 bc 2e 2a ea bd
       0.04052894 -0.04820296 -0.02784004 -0.114338264
000150 2b 6c 60 3d 9b 84 53 3d 28 59 3b bd b9 59 c6 3a
       0.054790657 0.051640134 -0.045739323 0.0015132941
000160 09 60 c8 bc 1a 1b 41 bc 49 7e 25 bd 68 f1 52 3c
       -0.024459856 -0.011786247 -0.040403638 0.012874939
000170 66 52 91 bb 7e 5f b0 3c 0b 92 06 3e 5d 6a 2f bd
       -0.0044348715 0.02152991 0.13141648 -0.042826045
000180 23 58 09 bc 4a f8 8c bc 76 3c 3d 3c 8e a3 bc 3d
       -0.00838283 -0.017208237 0.01155006 0.09210883
000190 c8 2b 80 3c d8 bf c8 bc 83 2a 7a 3d e5 dd 83 3c
       0.015645877 -0.02450554 0.0610757 0.016097018
0001a0 3c aa f9 3c 35 bb eb 3c 91 b6 76 3d 3b 8c fd bc
       0.030476682 0.02877579 0.060232703 -0.030950656
0001b0 3d c8 0d 3d 08 fa 06 3e 13 1e 76 3c 98 af 5d bb
       0.03461479 0.13181317 0.015021819 -0.0033826586
0001c0 20 39 87 3d de 0b 16 bd 92 fb 43 3c 30 01 29 bd
       0.066026926 -0.03663241 0.0119618345 -0.041260898
0001d0 12 2a 04 3d b2 8c 9d 3d 73 53 12 bc b0 9b 3f 3c
       0.032266684 0.07692851 -0.008931029 0.011694834
0001e0 5c c7 a6 3c 79 4f 0f 3d d5 02 32 bc 32 d1 95 3c
       0.020358734 0.0349879 -0.010864933 0.018288229
0001f0 0b fa 3d 3d 6e 51 86 3d d3 2e 88 3d 82 1d 98 3c
       0.046381038 0.065585 0.06649556 0.018568758
000200 ef 39 7b bb 5b fa be 3c b5 0d 30 bb b5 fe be 3d
       -0.0038334092 0.023312738 -0.0026863639 0.09325925
000210 60 7e c3 3c f4 c9 e9 3c 18 6a 83 3c 7d d0 c4 3b
       0.023863971 0.028538682 0.0160418 0.006006299
000220 9d 2b 8a 3d d4 9c 26 3d 8f 2a ed 3d 8b a5 cd 3b
       0.067466 0.040676907 0.11580383 0.006275838
000230 1c 4d 0e 3d 7f 55 01 3e 67 e2 61 bd c1 b5 75 3b
       0.034741506 0.1263027 -0.055147555 0.0037492367
000240 5a d5 15 3d fd 26 e3 bc 62 53 e4 3c 53 fc 8d 3c
       0.03658042 -0.027728552 0.027871791 0.017332232
000250 db 8a 60 3d e3 c2 a0 3c 3f e3 07 3d 3a 30 89 3c
       0.054819923 0.01962418 0.033175703 0.016746629
000260 6d 88 9e bc 1e 34 f8 3c ab 70 34 3c 1a 98 10 bd
       -0.019352162 0.030298289 0.01101319 -0.035301305
000270 57 b2 f5 3b ee a1 45 3d e2 4f ab 3d 46 d6 8d 3c
       0.0074980664 0.04825013 0.08364846 0.017314088
000280 3a 35 e8 bc 27 6b ab bc 62 eb f2 3c 6f c8 06 3e
       -0.028345693 -0.020925118 0.029653255 0.13162397
000290 3f c0 ec 3c d7 52 12 3d f0 62 81 3c c6 28 7e 3d
       0.028900264 0.035723533 0.015794247 0.062050603
0002a0 2f ae da 3c e7 23 61 3c 1f 00 8c 3d 60 7c 61 3c
       0.026694385 0.01374147 0.068359606 0.0137625635
0002b0 11 2e fb 3c 60 7f 04 3e fa 3e 80 bd ed db ca 3b
       0.030661615 0.12939215 -0.06262012 0.006190768
0002c0 d2 70 af 3d ed 27 7c bd 43 1c 8e bb 35 11 09 3d
       0.08566441 -0.061561514 -0.004336865 0.033463676
0002d0 cd 14 8c 3d bb 1e 05 3e b2 14 12 bc ac 11 0c bd
       0.06839905 0.13000004 -0.008916067 -0.03419654
0002e0 66 33 ca 3c ba 6b 3c 3d 8e 08 1f 3d 8a 31 c6 3a
       0.024682712 0.046001174 0.038826518 0.0015120965
0002f0 c6 f0 5a bd f5 a4 12 3d f5 22 69 3d 96 7e 16 3d
       -0.053452276 0.035801847 0.056918103 0.036741816
000300 ad 25 bd 3c 58 d4 37 bd d8 46 84 3c cb b7 04 3e
       0.023089254 -0.04488024 0.016147062 0.12960736
000310 bd 8e 0f bd ec 3b 31 3d c6 90 3a bb d2 16 47 3d
       -0.035048235 0.043270037 -0.002846764 0.048605748
000320 91 0b 35 3d 5b 0f ed bb 5a 46 3d 3d 78 6a 1c 3d
       0.044200484 -0.0072344965 0.04620967 0.038187474
000330 c7 8b 39 bc ce 33 cf 3c 1e c7 9b bd 6c 9d 10 3d
       -0.011324829 0.025293257 -0.07606338 0.03530638
000340 3d 3e a4 3b 29 f3 d9 bd ee a9 0a bc 85 01 b1 3d
       0.005012302 -0.10642082 -0.008463366 0.08642868
000350 5a d7 47 3d 3d 30 86 3d 1b 8e 04 be e6 6e 37 bd
       0.04878936 0.065521695 -0.12944834 -0.044783495
000360 2e 10 c8 3b e1 f3 d3 3b 3f 77 c5 3d 92 d8 a1 3c
       0.0061054444 0.0064682816 0.09641885 0.01975659
000370 80 47 4a bd 02 e8 46 3d 94 20 b1 bb 5f 53 57 3c
       -0.049384594 0.048561104 -0.005405495 0.013142436
000380 ad 75 4d bb 3d 03 68 bc 20 f6 f0 bb c4 7e 02 3e
       -0.0031350658 -0.014160928 -0.007353559 0.1274367
000390 25 8f e3 3b af e0 ae 3c d6 f7 32 3d 71 eb 53 3d
       0.0069445544 0.021347372 0.043693386 0.051738206
0003a0 e3 5f 40 3d ca 5d 1e 3c 4c ec 5c 3d 37 bf fb 3c
       0.046966445 0.009665916 0.053936288 0.030730827
0003b0 5b ae 61 bc 8e 3c 03 3d b5 de b5 bd ed c3 12 3d
       -0.01377448 0.03204017 -0.088803686 0.03583138
0003c0 5f ac 58 3d d4 ef fb bd af 78 1e 3c ae 91 a0 3d
       0.05289876 -0.12301603 0.009672328 0.07840286
0003d0 cc 4a bc 3d 01 8e be 3d d1 98 c7 bd 3a 90 14 bb
       0.09193954 0.09304429 -0.09745944 -0.0022668974
0003e0 d0 67 88 bc ed 6c 3a 3c 0b 79 f7 3d e7 cc f0 bc
       -0.016651064 0.011378509 0.12083634 -0.02939458
0003f0 2d 3a 53 bd 1e 70 14 3d f5 b7 68 3c a8 b4 2e ba
       -0.051569153 0.036239736 0.014204015 -0.0006664493
