object_recognition_fruit_v2.tflite (tflite, 269404 bytes, 6 tensors)

sequential/conv2d/BiasAdd/ReadVariableOp f4 [32]
000000 32 21 8a bc 23 fc 68 bd d7 45 8c bb 69 17 71 3d
       -0.016861532 -0.05688108 -0.0042807865 0.058860216
000010 4e f2 e4 3c 0e d3 77 3d 2b c6 12 3d 95 da 72 bc
       0.027947571 0.06050401 0.03583352 -0.014822622
000020 bb 05 8b bc 74 a1 28 bd 1f 90 8b 3d 35 fc 77 3d
       -0.016970506 -0.0411696 0.06814598 0.060543258
000030 af 44 8c 3c 6b be 3a bc f1 21 8a 3c 1b 42 40 bb
       0.017122595 -0.011397938 0.016861888 -0.0029336277
000040 f1 88 30 3d 40 15 c0 bc e3 16 49 bd 51 b7 ea 3d
       0.043099348 -0.023447633 -0.049094092 0.11460746
000050 9d 70 71 3d d5 a3 0c bd f5 e0 59 bd 6e d3 0f 3d
       0.058945287 -0.03433593 -0.05319305 0.035113744
000060 c9 8d b6 3d bb c8 80 3a c1 46 87 bd ec e5 87 3b
       0.08913762 0.0009825447 -0.06605292 0.004147282
000070 ba 38 f5 ba d6 de a2 bd 1e 64 1b 3d d7 89 be 3c
       -0.0018708922 -0.07952659 0.037937276 0.023259087

sequential/conv2d_1/BiasAdd/ReadVariableOp f4 [32]
000000 1c 27 2c 3d 5c 21 aa bc 84 ef 31 bc f3 c8 18 bc
       0.042029485 -0.02076786 -0.010860328 -0.009325254
000010 b4 88 f3 3a 89 71 be bb 7e 1e a7 bb 71 0a e9 bc
       0.0018580169 -0.0058118743 -0.0051000705 -0.028447362
000020 57 ae e0 3c 89 86 a1 3d 7f 38 2c 3d a0 a0 d9 3c
       0.027426882 0.07886989 0.042046066 0.02656585
000030 9b 10 b3 3d dc 4f 20 3a 35 05 17 3e 83 36 30 3c
       0.087434016 0.00061154156 0.1474808 0.010755184
000040 c0 10 53 3c cd 5d 25 bc c0 96 57 bd bb a4 41 bd
       0.0128824115 -0.010093165 -0.052634 -0.04727624
000050 fb cc 6a 3d 50 fe a5 3c ba 70 ce bc 82 ca a5 bb
       0.05732439 0.020262867 -0.025200237 -0.005059541
000060 46 13 bf bc 0a 7c 77 bb 4c 7c 5d bd 0d f4 53 3d
       -0.02332462 -0.0037763142 -0.054073617 0.051746417
000070 5b c2 49 3d 13 8a 8e 3d c3 1a 7f 3a db eb c5 3c
       0.049257617 0.06959929 0.0009731466 0.024160316

sequential/conv2d/Conv2D f4 [32, 3, 3, 3]
000000 5d bc 11 3e 84 84 0c bd 54 8e 0a 3e c0 e0 f3 3d
       0.14232011 -0.034306064 0.13530856 0.11908102
000010 ae 97 e0 3c 3d 5e 77 bc 60 bd 0b 3c dd 9a 43 3d
       0.027416077 -0.015098152 0.008529037 0.04775511
000020 0c fd 89 3d f7 3d 8b bd 4c 5f 74 bd 1d e2 19 3e
       0.06737718 -0.06798928 -0.059661195 0.15027662
000030 27 a0 16 3d 46 20 71 3d ce 7c 22 be fd 62 bd 3d
       0.036773827 0.05886867 -0.15867922 0.09247396
000040 a8 6c 00 3c 97 0a 08 be d5 ca fc 3d 73 fc 2c be
       0.007838406 -0.1328529 0.12343375 -0.16893177
000050 6c 4f 67 bd 54 0d 58 3d 4d 7e 19 be 8d b3 c4 bc
       -0.056472227 0.052747086 -0.14989586 -0.024011398
000060 83 f8 c6 3d 94 7b 10 be 86 40 38 be c0 f9 8e 3c
       0.097153686 -0.14109641 -0.17993364 0.017453074
000070 12 11 e8 bd 94 33 fc 3c 6e 15 17 bd e7 8e e4 3b
       -0.11331381 0.030786313 -0.03688567 0.006975043
000080 20 5b a8 bd 60 2a 89 3d c1 0e bf bd 1d 1b dc bd
       -0.08220506 0.066975355 -0.09328986 -0.10747359
000090 71 2c 21 3e b8 50 d6 3d 69 3b a0 3d 21 11 20 3e
       0.1573961 0.10464615 0.078238316 0.15631534
0000a0 ef b9 97 3d ab 1e 01 3e 87 89 18 3e df 21 ec bc
       0.07408511 0.12609355 0.14896213 -0.028824745
0000b0 ee e3 58 bb 67 40 c9 3d c8 17 0b be 34 f3 01 3e
       -0.003309484 0.09826737 -0.1358329 0.12690431
0000c0 37 ec 67 3d 84 8d 5d 3a d3 05 80 bd 8e ad 17 bd
       0.056621756 0.00084515684 -0.06251111 -0.03703075
0000d0 49 41 0a 3a 79 e2 1b 3c 6c 4a 0d 3d 06 10 00 3e
       0.00052740105 0.0095144445 0.034494802 0.12506112
0000e0 4d 21 9e 3d f1 11 60 bd 92 00 7c 3d a8 6a 25 bc
       0.07721195 -0.05470461 0.06152398 -0.01009623
0000f0 aa 40 a3 3d 9d 9b 3e 3e da 8d 7d 3d df fd 51 3d
       0.07971318 0.1861405 0.06190286 0.0512675
000100 cf a6 47 3d a6 4b ff 3c 79 1a ae 3d 24 75 96 3d
       0.048743065 0.031164002 0.08501143 0.073465616
000110 81 0a b8 3d 05 25 9b 3c f2 f2 9f bd d9 f3 14 be
       0.089863785 0.01893855 -0.0781001 -0.14546145
000120 74 b2 c9 bb 5b d7 1f 3d 06 30 38 be 77 a0 2f be
       -0.0061553065 0.03902374 -0.1798707 -0.17151056
000130 62 49 b5 bd dc 48 1c be 21 29 cf bc a8 3e bc bd
       -0.08851887 -0.15262169 -0.025288166 -0.09191638
000140 e4 be 47 be 6b 88 3b bd 91 41 02 3e 6e e4 d2 bd
       -0.19506413 -0.045784395 0.12720324 -0.10297476
000150 f8 72 a8 3c bf a8 85 bd f9 61 92 3d 24 34 2f be
       0.020562634 -0.065263264 0.07147593 -0.17109734
000160 de 30 8d bd 65 df 8c bd 20 a0 ab 3d 49 ee fc bc
       -0.06894086 -0.068785466 0.08380151 -0.030875342
000170 58 d2 17 bd 23 f3 0d 3d d8 b3 8d 3b 25 5e ed bd
       -0.037065834 0.0346557 0.0043244176 -0.11590222
000180 00 24 18 be 2d ec 0a be 0d fe 20 be d7 4e 50 3d
       -0.14857483 -0.13566656 -0.15721913 0.050856438
000190 ec 8b 8f bb b1 4d f3 3d 8e be 48 3d f5 c4 23 3d
       -0.0043806937 0.11880053 0.049009852 0.039982755
0001a0 20 7c 3e 3e aa 9b 99 3c 72 7b a2 3d 34 82 30 3e
       0.18602037 0.018750984 0.079337016 0.17237169
0001b0 33 58 31 3b c8 8f 13 3e 09 a9 ef 3d e6 0b 77 bd
       0.0027060627 0.14410317 0.11702163 -0.06031408
0001c0 67 1e 15 3e 24 4f b8 bc f4 c0 94 bb 1e e0 0d 3e
       0.14562379 -0.022498675 -0.0045396034 0.13855025
0001d0 be e4 b6 3d eb 46 94 bd 66 9f a7 3c ba f4 77 bd
       0.08930348 -0.07240089 0.02046175 -0.060536124
0001e0 c8 f3 4e 3d 9b b5 f6 bc d3 6a 69 3d 2e 4e 32 be
       0.050525457 -0.030115893 0.05698664 -0.17412636
0001f0 1f 96 cc bc fb 47 b8 3d b2 6e 22 be f5 0d 3c 3e
       -0.024973927 0.08998104 -0.1586254 0.18364699
000200 7e c8 d5 bd 69 3f 2e be d0 ba cf 3d ea 4a ae 3c
       -0.104386315 -0.17016377 0.101430535 0.021275956
000210 7c 93 d7 bd dc b7 b5 3c c5 3f 1f 3e 6c 9f 1a bc
       -0.10526177 0.022182398 0.1555167 -0.009437423
000220 56 2f 88 3a 20 91 8d 3d 9c 53 be bc 3c 9a 6a bd
       0.0010390084 0.06912446 -0.023233227 -0.057275996
000230 87 24 f2 3d 8c 5e a6 bd 2d e8 03 bd 21 e2 0f be
       0.11823373 -0.08123502 -0.032203842 -0.14051105
000240 59 43 30 3d 63 86 02 3e 88 4e e9 3c 9d 30 f6 3d
       0.043032978 0.12746577 0.02847983 0.12020991
000250 2a f5 52 3d da 14 12 3c fb de af bd af d3 03 be
       0.051503338 0.008916104 -0.08587452 -0.1287372
000260 e9 eb b0 bc 41 5c fe 3d 5b b6 0b 3e a2 5c fc bc
       -0.021596866 0.1241994 0.13643782 -0.03080589
000270 f4 f4 9b bd 0e 78 fe bd 25 ef 83 3d 7b 2e 09 be
       -0.076150805 -0.12425242 0.064420976 -0.13396637
000280 34 76 24 bd ed 1e 1f 3c 8e 33 ed 3d 24 8c 4f 3d
       -0.04015179 0.009711963 0.11582099 0.050670758
000290 d1 8a 8c 3c 60 13 d5 bd 8c 9d 63 3d 50 75 b6 3d
       0.017156037 -0.10404086 0.05557017 0.08909094
0002a0 4f 0e 03 be b9 c8 b0 3d de 3a 98 bc 95 1b fa bd
       -0.12798427 0.08632035 -0.018582758 -0.12212292
0002b0 e2 b3 32 3e 06 0d 6c 3d b3 5c 04 3e 0f b0 1a 3e
       0.17451432 0.057629608 0.12925987 0.15106224
0002c0 bc 25 db bd 5f 0f a9 bb 5f 72 b5 bd d1 63 19 be
       -0.10700557 -0.005159303 -0.08859705 -0.14979483
0002d0 69 98 84 bd b8 63 ca 3d e9 82 cf bd 6c af a2 bd
       -0.064743824 0.09882301 -0.10132391 -0.07943615
0002e0 b6 71 4b 3c 1a 27 0f be 8a be 3e bd 75 48 65 3b
       0.0124172475 -0.1397976 -0.04656843 0.0034985815
0002f0 89 34 b8 3c 81 cb 15 3e 86 c0 20 3e bf 7c 06 bd
       0.022485988 0.14628412 0.15698442 -0.03283381
000300 e4 ca fc bc 2d fa 8c 3d 8c 1a c7 bd 58 28 af bd
       -0.030858465 0.06883655 -0.0972186 -0.08552617
000310 45 55 85 bb 23 58 18 3c ab 13 9e bd d5 bd 89 3d
       -0.004069003 0.009298357 -0.07718595 0.06725661
000320 1c 6d db bd 61 e1 eb bd c8 47 91 3d 66 93 76 bd
       -0.1071417 -0.11517597 0.07093769 -0.060199164
000330 fe 06 bc bd e3 5c de 3d 32 da 8f 3d f9 f1 89 3d
       -0.09181021 0.108575605 0.07024039 0.06735606
000340 70 42 83 3d 1c 29 01 be ac 7f 20 3e bc 68 1b 3e
       0.06409156 -0.12613338 0.15673703 0.15176672
000350 88 04 a7 bd 1f 1a 8e 3d ea bf 27 3e c1 be 2e be
       -0.08155161 0.06938576 0.16381803 -0.17064954
000360 40 db 15 3d 72 d2 ed bd 1d 29 f7 3d ca f8 07 be
       0.036586046 -0.11612405 0.120683886 -0.13278499
000370 b5 7f 69 bd 6f 65 35 3e 86 be 44 3d ac 19 07 be
       -0.057006557 0.17714475 0.04803326 -0.13193387
000380 9f dd cd 3d 99 f3 0b be 5f 8a 8c bd 36 ec 20 3e
       0.100520365 -0.13667144 -0.0686233 0.15715107
000390 f0 be c7 bd 58 8c a2 3d ca b8 17 3e cc ab 23 3d
       -0.09753215 0.07936925 0.14816585 0.03995876
0003a0 8d 11 f1 3d dc f9 09 3d bf a8 a8 3d a6 c9 79 bc
       0.11770926 0.03368555 0.08235311 -0.015245831
0003b0 96 d0 86 bc b5 f4 17 bb 0c f5 ac 3d 49 35 10 3e
       -0.016456883 -0.0023186628 0.084451765 0.14082827
0003c0 13 a2 13 be d5 89 c0 bc 54 1c 35 3e 26 4d ce bd
       -0.14417295 -0.023503223 0.17686588 -0.10073309
0003d0 31 22 58 bd 4b 71 66 3c 3d 39 e0 3a 74 91 44 3c
       -0.052766982 0.014065097 0.0017106902 0.011997569
0003e0 3d f6 81 3d da 78 b0 3d d6 f1 45 b8 a2 1c b7 bd
       0.06345794 0.086168006 -4.7193687e-05 -0.08941008
0003f0 b2 55 1b 3e 34 ba f2 bd e7 15 fc 3c 58 2c cf 3d
       0.15169409 -0.11851922 0.030772163 0.1011588

sequential/conv2d_1/Conv2D f4 [32, 3, 3, 32]
000000 78 ec 2f bd 64 02 bb bc 62 1a 19 bc 57 87 87 bd
       -0.042950124 -0.022828288 -0.009344669 -0.06617611
000010 56 94 a3 bd 7b c2 b1 3d df 45 ac bd f8 c7 74 ba
       -0.07987277 0.08679672 -0.08411764 -0.0009337659
000020 3f fd 50 bd 63 8f 9f 3c 2b 06 6f 3b f5 7e 28 bd
       -0.051022764 0.019477552 0.0036472182 -0.0411367
000030 fc 2a 57 3c bb 64 ff 3a 42 99 aa bd 1a 7e 20 be
       0.013132807 0.0019484976 -0.08330013 -0.15673104
000040 5a 52 e1 bd 7e 08 a7 3d 64 6b f3 3b 12 f4 50 be
       -0.110020354 0.08155917 0.0074285734 -0.20405605
000050 4e 5a 32 bc 12 35 30 bd fa f5 a4 3c d6 1f 59 3d
       -0.010885788 -0.04301936 0.020136822 0.053008877
000060 14 6a ad 3b 10 0a 30 bd 5a 56 a6 bc 91 35 f5 3d
       0.0052921865 -0.042978346 -0.020304848 0.119731076
000070 ce 27 b7 bc a9 2d ec 3d 22 48 65 bd dc 3a 38 bd
       -0.022357848 0.115321465 -0.055976994 -0.044978008
000080 08 7d cd 3d 31 a3 e3 3d 14 45 23 3e 6c 20 50 bc
       0.100336134 0.11115111 0.1594432 -0.0127030425
000090 82 4a cf bd ca e7 2a 3e a6 14 e3 bc b3 2d 41 bd
       -0.10121633 0.16689983 -0.027719807 -0.047162723
0000a0 98 16 a6 bd 37 62 2c 3b d4 ee a0 3d 42 29 25 3e
       -0.08109778 0.0026303658 0.07858053 0.1612902
0000b0 f1 c2 e9 bd 33 6e 6c 3d dc 34 7d be 98 49 11 be
       -0.11414135 0.05772228 -0.24727196 -0.1418823
0000c0 28 a5 55 be 08 bb 2a 3b 95 bf 65 3a 34 11 f9 bd
       -0.20863783 0.002605142 0.00087642047 -0.12161484
0000d0 8f 62 18 3e 3a 3c 2f be de 07 fa 3c 78 f4 83 3d
       0.14881347 -0.17112818 0.03052133 0.06443113
0000e0 10 b4 a7 3c 18 69 7a bd 04 e6 b8 3d 09 ac 93 3d
       0.020471603 -0.06113538 0.09028247 0.072105475
0000f0 87 62 ad 3d 4a dc a9 3d a5 d4 41 bd b2 f8 1d 3d
       0.08466058 0.0829397 -0.047321934 0.038567252
000100 90 aa b3 37 36 de 94 bd a0 e7 75 3d fa 08 27 be
       2.1417887e-05 -0.07268946 0.060035348 -0.16312018
000110 b5 79 14 3b 9d c7 5b 3b 57 b4 06 be 2d 6b 03 bd
       0.002265555 0.0033535727 -0.13154732 -0.032084633
000120 33 db 97 bc 5e 0b 95 bd aa 93 8e 3d b8 d1 aa bd
       -0.01853714 -0.07277559 0.069617584 -0.08340782
000130 a7 ec 58 3c ff 2a 9f 3d 16 82 7e be 9d ac ce bd
       0.013240016 0.07771873 -0.24854311 -0.10091517
000140 d6 41 0a be 0b 8e 9d bd eb 14 60 bd ed d3 9c bd
       -0.13501677 -0.07693108 -0.05470745 -0.07657609
000150 ef 32 08 3e af f0 2c be 57 ac 5f bc db 26 83 ba
       0.1330068 -0.16888689 -0.013651929 -0.0010006087
000160 cd d4 46 3c cd bf 9e 3d 2f 72 d9 3d bf e2 95 bd
       0.012135697 0.07751427 0.10617482 -0.07318639
000170 ff 8f 9c 3d 73 cf ba 3d 7d 73 37 3d 37 63 17 3c
       0.076446526 0.09121599 0.044787873 0.009239963
000180 1b 9b fc 3d f8 35 2b bc 8e 0d bf 3d 00 30 19 3d
       0.123342715 -0.010449879 0.09328757 0.037399292
000190 d9 7d 87 bd ab 1a 34 3e d4 fd 08 bd 61 5c 98 3a
       -0.066158004 0.17588298 -0.033445194 0.0011624211
0001a0 7c 2c 04 be ba a2 7c 3d 14 51 1d 3e fe da 1c 3d
       -0.12907594 0.061678626 0.1536296 0.038294785
0001b0 d4 11 20 be 4c de 12 3d b2 f1 7a be b6 80 15 be
       -0.15631801 0.03585653 -0.24506262 -0.1459988
0001c0 c8 9e 00 be 81 37 0b 3e b7 5d 5b 3d e1 ac c0 bd
       -0.1256057 0.13595392 0.05355617 -0.09407974
0001d0 78 5b 25 3e 38 6b 1f be cc 13 40 3d 0d 7a c9 bc
       0.16148174 -0.15568244 0.04689388 -0.024594331
0001e0 25 9a 8d 3d 66 e0 d0 bd 2c c8 dc bc cb ec c4 3d
       0.06914166 -0.101990506 -0.026950918 0.09615477
0001f0 1b 27 a3 bd b0 c7 46 bd 83 bf 83 3d 84 55 9f bd
       -0.07966443 -0.04853028 0.06433012 -0.07779983
000200 ea e5 d7 bc 8b c4 e5 3c 0a 0d f4 3c 10 b1 b5 3d
       -0.026354749 0.02804782 0.029791374 0.088716626
000210 6c 7a 01 be 54 6b 2b 3e 74 ca a5 bd da 04 fc 3b
       -0.12644356 0.16740161 -0.080952555 0.007691008
000220 0b 87 98 bd 3c 35 6b bd 42 68 9e 3d ba 97 eb 3d
       -0.074476324 -0.057423815 0.07734729 0.11503549
000230 50 16 42 bc e2 f7 41 bd 57 43 3b be fe 90 58 bd
       -0.01184614 -0.04735554 -0.18287407 -0.05287265
000240 3d 84 88 bd dd a8 df bc 18 9a 6e 3d eb f0 02 be
       -0.066658475 -0.0273022 0.058252424 -0.12787215
000250 5e 64 43 3e ba 29 01 bc ec ae 66 bd 50 47 dd 3d
       0.19081256 -0.007883484 -0.056319162 0.108046174
000260 0e 39 3a bd b1 76 a6 3c 85 94 39 3c 48 f0 f8 bc
       -0.045464568 0.020320268 0.011326914 -0.030388013
000270 8b 52 10 bb f8 e8 32 3d 6e 89 87 bc 10 ce 42 3c
       -0.0022021856 0.043679208 -0.016545024 0.011889949
000280 fb fb b2 3d e6 f2 66 bb ad 01 b2 3d eb b1 aa bc
       0.08739468 -0.0035239994 0.08691726 -0.020836791
000290 16 1a ed bd 66 78 6f 3c d7 a6 71 bd 1a d0 a2 3d
       -0.11577241 0.014616108 -0.058997 0.079498485
0002a0 17 26 bb bd e9 eb 88 bd 04 6a 99 3b 84 b3 3b bc
       -0.091381244 -0.06685621 0.0046818275 -0.011456374
0002b0 6e 59 2d be 35 d9 87 3d ef 5d 2b be e4 77 76 ba
       -0.16928646 0.06633226 -0.16735052 -0.00094020204
0002c0 f1 87 bd bd ef 3f 2e 3d fa 8f 30 3c ab 8c c5 bd
       -0.092544444 0.04254144 0.010776514 -0.09645971
0002d0 19 81 1c 3e 03 d5 2c be 50 99 b8 bd 26 7f 3f 3b
       0.15283622 -0.16878133 -0.09013617 0.0029220073
0002e0 26 52 e5 bd ce 17 0d bd da 54 83 3d 2f d9 cb 3d
       -0.11197309 -0.03444653 0.064126685 0.09953534
0002f0 90 96 b5 3d 75 3c 5b bd af 25 00 3e 52 d7 b0 bd
       0.08866608 -0.053524453 0.12514375 -0.08634819
000300 52 a5 2c bd f0 1a fb bc e1 48 55 3c cd 29 49 3d
       -0.04214985 -0.030652493 0.013017864 0.04911213
000310 4c 42 19 be 28 5e 02 3e 28 58 b6 3a 9d 7e c6 bc
       -0.14966697 0.1273123 0.0013911771 -0.024230296
000320 4b ae 2c be a3 d9 b3 bc db 46 4f 3d cc 84 0d 3e
       -0.16863362 -0.021954363 0.050604682 0.13820189
000330 0d 83 d9 3c f9 58 ae 3d 73 9c fb bd 69 da 0d be
       0.026551748 0.08513064 -0.122857 -0.13852848
000340 13 3a de bd 37 18 02 3d 9b f8 07 bd 78 57 54 be
       -0.108509205 0.031761374 -0.033196073 -0.20736492
000350 3c ee c4 3d ce a8 a8 bd 12 fc d8 bc 44 5f 02 3e
       0.09615752 -0.08235322 -0.026487384 0.12731653
000360 a3 41 cc bd c0 44 7f 3d 07 de ad 3d d1 f7 4d bc
       -0.09973457 0.062321424 0.08489614 -0.012571291
000370 ab 5c 3d 3d 6e 13 bb 3d a5 38 18 3d f7 4b 23 bb
       0.046230953 0.09134565 0.037163395 -0.0024917105
000380 95 96 32 3d 33 f6 be 3c 04 81 56 bd 8f bf 6f 3e
       0.043600637 0.023310756 -0.052369133 0.23412918
000390 3d c3 8a bd db 5b eb 3d 32 0b 89 3a d7 4c d6 bd
       -0.0677552 0.114921294 0.0010455607 -0.10463875
0003a0 1e 96 0c be 92 88 d2 3d 4f 17 cb 3d b4 95 b5 3d
       -0.1372914 0.10279955 0.09916555 0.08866444
0003b0 0d 06 54 bc e6 b4 57 3d df a3 82 bd 48 f3 a3 bd
       -0.012940896 0.052662753 -0.06378912 -0.080053866
0003c0 9d 62 95 bd a1 da f8 3c ab c1 9a 3d 12 70 bd 3a
       -0.072941996 0.030377688 0.075564705 0.0014452955
0003d0 93 db af 3d 86 56 89 bd 63 3f 25 3d 74 e2 50 3d
       0.08586802 -0.06705956 0.040343653 0.050997213
0003e0 97 24 cd bd 08 00 a5 3c 10 2e ac bd 6c c9 89 bd
       -0.100167446 0.020141616 -0.08407223 -0.06727871
0003f0 12 16 ad 3d fa cc 40 bd 91 35 70 3d 34 17 7f 3c
       0.08451475 -0.04707048 0.058644835 0.015569497

sequential/dense/BiasAdd/ReadVariableOp f4 [9]
000000 9b e0 16 3c 9e 43 09 3c 5d 50 84 bc 35 04 28 3d
       0.009208824 0.008377938 -0.016151601 0.041019637
000010 43 b2 19 bc b6 e7 be bb 8c f0 57 3c 8a 00 85 bc
       -0.00938088 -0.005825962 0.013179909 -0.016235609
000020 13 2b e1 bc
       -0.02748636

sequential/dense/MatMul f4 [9, 6272]
000000 1a 80 b5 bc 65 9d eb 3b d0 cf 55 3c 2d 77 b5 bb
       -0.02215581 0.0071903937 0.013050035 -0.0055378885
000010 fa 93 da bc 01 d3 cd bc b9 a4 b8 3c 71 c5 97 bd
       -0.026681889 -0.025125029 0.022539483 -0.07410706
000020 87 0e e5 3c 77 ef b0 bd a5 3d 3d bd 83 a9 55 bd
       0.027961029 -0.08639424 -0.046201367 -0.052163612
000030 af 44 98 bb 6f 13 19 bd 6d ad 0b 3e ec d1 cf bc
       -0.0046468596 -0.03737205 0.13640375 -0.025368653
000040 c1 a4 b2 bd 15 cc 7d 3c 41 75 c5 3c 9d 87 ad b9
       -0.087228306 0.0154905515 0.024103763 -0.0003309817
000050 91 5d 35 3d db 89 f2 bd 32 d8 bd b8 65 d3 02 bd
       0.044278685 -0.118427 -9.052492e-05 -0.031939883
000060 bc f2 84 bc 82 7d c2 bd ed 74 2c 3b 5b a5 e8 bd
       -0.016229026 -0.09496595 0.002631481 -0.11359664
000070 38 b2 05 bd 01 d2 d9 3d c5 f3 a0 bc 11 2e 00 bd
       -0.032640666 0.10635758 -0.019647488 -0.031293932
000080 c2 f3 bf 3c ac f7 1d 3d b4 c2 53 3d d2 94 eb 3c
       0.023431662 0.038566276 0.051699355 0.028757486
000090 26 8a 71 bc 81 d4 18 bc c4 de 12 3d 95 dd 27 bd
       -0.01474241 -0.009328009 0.035856977 -0.0409828
0000a0 b6 b8 e5 bb 03 a3 8d bd e0 8b fe bc 46 8d d1 3a
       -0.0070105447 -0.06915858 -0.031072557 0.0015987537
0000b0 3a b9 d0 3c 75 e7 d4 3c aa 14 0c 3e d0 15 62 bc
       0.025478948 0.025989274 0.13679758 -0.013799146
0000c0 ca 49 3b bd 49 3c 55 3c 2d 77 1a 3d 18 86 41 bc
       -0.045724668 0.013014861 0.03771131 -0.011811756
0000d0 31 a6 54 3d 52 44 99 3b 45 66 a2 bc 6b bc 6a 3c
       0.051916305 0.004677334 -0.019824157 0.014327149
0000e0 fa 44 15 bd 59 a6 45 bd 71 70 c1 bc 79 cb 19 bd
       -0.036442734 -0.048254345 -0.023613187 -0.037547562
0000f0 4b cf 0e bd 6c 3f 0f 3e e7 8f 9a 3c 20 06 09 3d
       -0.03486566 0.13989037 0.018867446 0.033453107
000100 69 e7 18 3d 36 27 4b 3d 2b fa 9e 3d f5 05 3d 3d
       0.037330065 0.04959794 0.077625595 0.04614826
000110 fc 1d b7 bc fb fa e2 3b 24 5c 82 3c 98 fc cc bc
       -0.022353165 0.006926892 0.015913077 -0.02502279
000120 74 7b 97 3c 0c 1a 8c bd d9 d8 e0 bc 00 bb 8b 3a
       0.018491484 -0.068409055 -0.027447151 0.0010660589
000130 5d 78 ea 3c 9d 2b 00 3d 78 40 c2 3d 46 ab fd 3c
       0.028621847 0.031291593 0.09484953 0.030965459
000140 0b 45 ab bd 47 3f fc bc 6d e6 f4 3c 2b da 34 3c
       -0.08362778 -0.030791892 0.029895032 0.011038343
000150 a8 f2 5b 3d 32 c1 c1 bc 14 35 2a bd 94 f1 9b 3a
       0.053698212 -0.023651693 -0.041554525 0.0011897557
000160 c6 28 a2 bc 05 95 f4 bc 9d e2 d7 bb ef 24 45 bd
       -0.019794833 -0.029856214 -0.0065882937 -0.048130926
000170 53 96 0e 3d 57 c7 06 3e bc 9b 21 3d 62 fa 8a bc
       0.03481133 0.1316198 0.03945516 -0.016965095
000180 e5 f9 44 bb 81 37 a5 bc 3c f8 12 3d c9 7a cd 3c
       -0.0030056175 -0.020168068 0.035881266 0.025082963
000190 8f 87 0d 3d cd 61 1b 3d c0 d7 bc ba 4a 03 0e bd
       0.034553107 0.037935067 -0.001440756 -0.034671105
0001a0 8a 6a 87 bc 23 be 01 bd 47 b4 ce bc 11 9f 3a bc
       -0.016530294 -0.03167547 -0.025232447 -0.011390463
0001b0 cd 0b 31 3b 51 05 2a 3c 10 a2 e2 3d 1c 33 9e bc
       0.002701509 0.010377244 0.11066067 -0.01931148
0001c0 3f 59 4b bd a7 e8 80 bc 33 94 ae 3d bc 54 a0 3c
       -0.04964566 -0.015735937 0.085243605 0.019571654
0001d0 f0 b5 04 3d 1c 34 38 3c 0a d0 a9 bc 0d e1 d2 3c
       0.03240007 0.011242893 -0.020729084 0.025742078
0001e0 30 49 7d bb c0 33 ee 3a c9 fa d9 3c aa 0d 26 bd
       -0.003864836 0.0018173382 0.026608841 -0.040540375
0001f0 8a 41 f9 39 0d ae c0 3d 6a fb be 3c 7f 4c 18 3d
       0.0004754181 0.094081976 0.023313243 0.037182327
000200 1c 00 c9 3c 31 80 1a bd db 11 4e 3d 64 1b 30 3d
       0.024536185 -0.03771991 0.050309997 0.04299487
000210 bc a3 ca 3c 54 c3 ff 3a 80 f1 67 3b 36 27 fa 3a
       0.024736278 0.0019513168 0.0035391748 0.0019085172
000220 8e c1 26 3c 90 11 ba bc 28 29 09 3c d7 17 8f bc
       0.010177983 -0.022713453 0.008371629 -0.017467422
000230 13 2b 49 bd 02 6f 91 3c f7 25 4d 3d fe 54 43 3c
       -0.049113344 0.017753128 0.050085034 0.011922119
000240 4c eb 9e bd e1 0e c2 bb 2e 30 62 3d 76 ff d3 ba
       -0.07759723 -0.005922184 0.05522173 -0.0016174156
000250 88 40 8a 3c 53 3e f9 bc ef 5c 62 bc d5 f5 e2 3c
       0.016876474 -0.030425226 -0.013816102 0.027705112
000260 00 e0 3e bd 86 47 a4 3b 13 52 99 3c 1c e1 35 bd
       -0.04660034 0.005013409 0.018715894 -0.044404134
000270 42 ed a9 bc 96 3e 4e 3d 03 b3 f1 3c 55 73 96 bc
       -0.020743016 0.050352655 0.029504305 -0.018365541
000280 35 6a dd 3c 13 a9 e3 bd 5a ab f8 3b 13 1b 7a 3d
       0.027028183 -0.11116233 0.007588786 0.061060976
000290 19 d9 3e 3c 59 8b 72 bc 60 3a 5d 3c bc 89 df bc
       0.01164844 -0.014803731 0.013502687 -0.027287357
0002a0 fd 15 c8 3c 2f ae e0 ba d3 bc a3 3c 1c 16 99 3c
       0.024424547 -0.0017141755 0.0199875 0.0186873
0002b0 89 e8 e2 bd c0 5c c6 3b 10 50 b1 bb 85 b2 bf bb
       -0.11079509 0.006053537 -0.0054111555 -0.0058501386
0002c0 2a 9d 01 bd 7b 1f 29 bd 48 d8 80 3d 58 c6 33 3b
       -0.031644024 -0.041289788 0.062912524 0.0027431455
0002d0 c4 f7 c5 3c 3a 62 96 b9 5c 68 47 bd c9 5d 21 3d
       0.024165995 -0.00028683414 -0.04868351 0.03939608
0002e0 b2 8f 44 3a 48 ab f1 3c 17 73 cd 3c d5 78 d5 bc
       0.0007498219 0.029500619 0.025079293 -0.026058594
0002f0 35 8d 86 bd f5 70 80 bd e1 26 af bc 0f 45 26 ba
       -0.06569902 -0.06271545 -0.021380844 -0.0006342688
000300 c0 08 6a 3d 4d 91 ca bd 6f 01 f8 3c 9e e7 b6 3c
       0.05713725 -0.09890995 0.030274121 0.02232724
000310 1d 4d b0 bc db f4 38 bc 43 48 fa bc e7 04 b4 3c
       -0.021521145 -0.011288847 -0.030552035 0.021974994
000320 d4 5b a3 3c 40 67 0d bc 30 bf aa 3c dd 78 38 3d
       0.019941248 -0.008630574 0.020843118 0.04503714
000330 70 61 0f be a9 58 af 3c 37 89 94 3b 6b 77 02 3d
       -0.14002013 0.021404581 0.004532959 0.031852167
000340 86 21 1a bc 92 6d 8d bc 80 f8 0e 3d f1 61 20 3d
       -0.009407407 -0.017264161 0.034904957 0.039155904
000350 98 f0 05 bc a6 9f 8a 3d 01 45 1c bd 28 84 73 3d
       -0.008175038 0.06768732 -0.038151745 0.059452206
000360 39 ff 9c bc c6 95 0b 3d 07 72 57 3c 3a 89 9f 3c
       -0.019164668 0.034078382 0.013149745 0.019474614
000370 3e cc 94 bd 85 85 a8 bd 2a de 03 bd 89 be 9e 3b
       -0.072655186 -0.08228592 -0.032194294 0.004844491
000380 f0 ed 1c 3b 08 84 94 bd da db c2 bb 10 cd a7 3d
       0.0023945533 -0.072517455 -0.0059466185 0.081934094
000390 7d b0 89 bc a9 9e 4b bd 5e 62 a9 3c cd d9 1a 3d
       -0.016807789 -0.049711857 0.020676788 0.037805367
0003a0 5a 58 1a bc 50 d0 0a bd c4 76 ff 3c 4a 6e 89 bb
       -0.009420479 -0.03389007 0.031184562 -0.0041940557
0003b0 c4 9c 2c be a0 37 19 3c 02 6b f2 bc 7a c9 c1 ba
       -0.16856676 0.009351641 -0.02959204 -0.0014784776
0003c0 de 0e 5d bc 13 0e 16 bd af d3 53 3d 0f 4d 43 3d
       -0.013492314 -0.036634516 0.05171555 0.04768091
0003d0 8a 56 3d bb aa e9 21 3d b5 85 f5 bc ec ce c3 3d
       -0.0028890693 0.03952948 -0.029970983 0.095609516
0003e0 26 fc 9a 3a 70 a3 2b 3d 1c 1e 85 3c 04 c8 0c 3d
       0.0011824414 0.041903913 0.016249709 0.034370437
0003f0 ff c0 a5 bd d0 be 0b be cd 38 4a 3c 4c b4 96 bc
       -0.08093452 -0.13647008 0.012342644 -0.01839652
