object_recognition_fruit.tflite (tflite, 269404 bytes, 6 tensors)

sequential/conv2d/BiasAdd/ReadVariableOp f4 [32]
000000 bb 25 ac bc 51 a1 e5 bb a9 f4 bd 3c 68 96 01 3d
       -0.021014085 -0.007007756 0.023187952 0.03163758
000010 30 57 84 3e d0 62 3d bb e3 13 7e bd f3 ce 21 bc
       0.2584777 -0.0028898008 -0.062030684 -0.009876001
000020 59 4b f8 bc d4 74 28 bc 80 dd c4 bd 25 64 78 3d
       -0.030309366 -0.01028176 -0.0961256 0.06064238
000030 eb 6b 26 3d f5 90 88 bd c3 59 03 bd 8d ee d1 bc
       0.040630262 -0.06668273 -0.032068025 -0.025626445
000040 40 ac c5 bb bf 77 3f 3d 0e f0 e1 3c ec 8d fd 3c
       -0.0060324967 0.04674506 0.027580287 0.030951463
000050 07 62 94 3d c9 ae 65 3d 39 e4 83 ba 16 60 3f 3d
       0.0724526 0.05607489 -0.0010062522 0.046722494
000060 6c 1f 02 3c a9 8f a9 bd c0 07 eb bc b0 a0 b4 3d
       0.007942062 -0.08279354 -0.028690219 0.08819711
000070 1d d9 52 3d 68 ee 3c 3d 40 a0 84 bc 3b 38 90 3c
       0.051476587 0.0461258 -0.016189694 0.017604938

sequential/conv2d_1/BiasAdd/ReadVariableOp f4 [32]
000000 f2 0f 57 3d 27 71 89 b9 93 ce d3 bc 91 da 11 3b
       0.05250544 -0.0002621498 -0.025855338 0.002225552
000010 44 6c a1 3b 4b 33 3e bc 05 54 8d 3d 27 dd 3b bc
       0.0049262363 -0.011608909 0.06900791 -0.011466301
000020 af bc c1 bb 9b 38 41 bd b3 2f 58 3d 81 ca 1e bd
       -0.0059123854 -0.047173124 0.052779865 -0.03876734
000030 19 93 0f 3d d2 36 b3 bb e7 d2 4d bc 55 af a4 3c
       0.035052393 -0.0054691816 -0.01256249 0.020103136
000040 28 78 8d 3b b2 d5 88 bc 64 83 91 3c 07 ad 2c bc
       0.0043173023 -0.01670346 0.017762847 -0.0105393
000050 35 bc 19 3b 5a a6 e4 3c f3 96 6f 3d cf c4 fb 3c
       0.0023458127 0.027911354 0.058493566 0.030733494
000060 5b 6b 88 3c c1 c6 45 bd 13 ec 6f bd 57 ff e6 3d
       0.016652754 -0.04828525 -0.058574747 0.11279171
000070 ff 00 07 bd ad 2d 98 3d c2 6b 94 3b 5e 62 fa bc
       -0.032959934 0.07430587 0.0045294473 -0.030564483

sequential/conv2d/Conv2D f4 [32, 3, 3, 3]
000000 c4 35 c8 3c 6d 5c 20 3e 0c 22 1c be 4e c4 80 3d
       0.0244397 0.15660258 -0.15247363 0.06287442
000010 76 3e 91 3d 1c 5b 26 be 81 5e a7 bd 5c f7 f2 3d
       0.070919916 -0.16245693 -0.08172322 0.11863586
000020 2b 9e 1e be 36 49 10 3e 20 18 0d 3d d6 a7 29 be
       -0.15490024 0.14090428 0.034446836 -0.1656793
000030 cf e2 46 bc 5d 48 28 3e 59 a5 36 bd a8 40 0b 3e
       -0.012139036 0.16433854 -0.04459128 0.13598883
000040 b8 6c a1 3d 7d 03 25 be cc c8 03 be a2 fa d6 bd
       0.078820646 -0.16114612 -0.12869567 -0.10497023
000050 e5 fa 78 3d b0 68 d1 3d 98 fb 1a 3e 14 c2 13 be
       0.060786147 0.10225046 0.15135038 -0.14429504
000060 c1 2f 6a bd ea be a8 3d 9f 48 55 bd 9e fd 53 bd
       -0.057174448 0.08239539 -0.05207121 -0.05175554
000070 af 4f c0 bc 92 0c b7 3c 57 ab 66 3d df 09 27 3d
       -0.023475496 0.022344861 0.056315746 0.0407809
000080 d9 55 38 3d 6f 4c 20 3e 99 e3 6b be 10 9c 5b be
       0.045003746 0.15654157 -0.2303604 -0.21446252
000090 ab c4 d3 3d 44 a3 ae bd a4 78 7c bc 76 0d f4 3c
       0.10340246 -0.08527234 -0.015409622 0.029791575
0000a0 c4 c8 a2 bd 3d 20 0d be 5a a0 ac 3d ca 80 00 be
       -0.07948449 -0.13781829 0.08429022 -0.12549129
0000b0 40 02 d1 bc ad 00 a8 3d bf 3e 25 be 87 1e a9 bd
       -0.025513768 0.08203254 -0.16137217 -0.08257776
0000c0 fe 44 de 3b 38 01 11 be c9 cd d8 3b 8e 64 20 3d
       0.006783127 -0.14160621 0.0066163284 0.039158396
0000d0 74 2c d8 3c df 8f 9e bd 07 c9 43 3c b9 71 12 3d
       0.026388384 -0.07742285 0.011949784 0.035752986
0000e0 21 c2 89 bc 0d 51 94 3c 4d 6c 83 3d 0d 7a cc bd
       -0.0168162 0.018105054 0.06417141 -0.09984217
0000f0 b8 7b 04 bd c9 e1 bd 3d 7d 57 49 bc ba 64 f9 3b
       -0.03234455 0.09271581 -0.012288925 0.0076108845
000100 20 5d c6 3b c8 6e e7 3d 9a cf 96 3c 67 b8 9d 3d
       0.006053582 0.11300427 0.018409539 0.077011876
000110 e0 3c 08 bc 35 82 90 3d 18 48 a2 bd ef 0f a7 bd
       -0.008315295 0.07056085 -0.07923907 -0.08157336
000120 41 10 22 be a7 1f 13 bd 02 86 db 3d 6c 09 5a bd
       -0.15826513 -0.035918858 0.10718919 -0.05323164
000130 c2 95 82 3d 4d e9 4f 3c 7a 26 f2 bd 0c 7f 30 bc
       0.0637622 0.012689901 -0.11823745 -0.010772478
000140 bb 43 e7 3d f2 18 70 bd c9 ad b0 3c 88 b2 7b bd
       0.112922154 -0.05861754 0.021567242 -0.061449558
000150 9d ef 75 3d ff c1 37 3c b6 98 e1 3b 09 1c c1 3d
       0.060042966 0.011215686 0.0068846596 0.094291754
000160 91 bb 54 3e 9f 94 f9 3d 68 a0 fd bd e6 b5 fb bd
       0.20774676 0.1218655 -0.12384111 -0.12290554
000170 20 f2 de bc f3 86 5c 3d f2 31 01 bd ea b2 48 bd
       -0.027215064 0.053839635 -0.031541772 -0.04899875
000180 a5 95 d2 bc f9 f0 32 3d af 60 c0 3d 89 31 18 be
       -0.025706122 0.04368684 0.09393441 -0.14862646
000190 b1 8e f6 bd 85 bc 81 3d 98 74 9c 3d fa 92 1f be
       -0.12038935 0.06334785 0.07639426 -0.15583411
0001a0 3c e6 8b bd 3d ee ef 3c f2 6b e5 3d 2d 98 a8 bd
       -0.06831023 0.029288406 0.112022296 -0.0823215
0001b0 5a 10 27 3e 5b 20 67 bc 91 35 4d be 40 7c a2 3d
       0.16314831 -0.014106835 -0.20039965 0.07933855
0001c0 f3 d7 36 ba 55 2a 36 be 82 e5 cc bd ed 19 9c 3c
       -0.0006974928 -0.17789586 -0.10004713 0.019055331
0001d0 f3 00 29 be 90 c0 1d 3e 13 13 38 bd af 0f 39 be
       -0.16504268 0.15405488 -0.044940066 -0.18072389
0001e0 64 3f a5 bd ea 0d b2 bd 31 d9 1a be 2d f5 16 be
       -0.080687314 -0.0869406 -0.15121914 -0.14741965
0001f0 2f f0 b0 3d 92 c6 84 bd 19 16 3e bd f1 79 86 bd
       0.086395614 -0.06483187 -0.046407793 -0.06566227
000200 23 38 48 be 87 de ea bd f7 16 ae bd f8 c9 eb bd
       -0.19552664 -0.11468225 -0.08500474 -0.11513132
000210 47 be a1 bd f5 b5 5d bd 23 bd 53 be da 3c a5 bc
       -0.07897621 -0.054128606 -0.20677619 -0.020170618
000220 1a 4c cb bd d0 a2 d9 bc 06 03 bf bc dc 68 04 be
       -0.099266246 -0.026566893 -0.023316871 -0.12930626
000230 22 83 53 bc f2 fb 15 bb 03 f0 d8 3d 27 bf 5b bd
       -0.0129096825 -0.0022885767 0.105926536 -0.053649094
000240 30 f4 54 bd 0a e8 18 3e 7b 73 2d 3c 85 9d 61 bd
       -0.051990688 0.14932266 0.010586615 -0.055081863
000250 cb 84 de 3c b8 cf 34 3e d3 a5 a2 3d 71 50 ee bd
       0.02716293 0.17657363 0.07941785 -0.11636437
000260 d8 60 35 be 4e 51 42 3d d8 4a 57 3d c0 fe 0b 3e
       -0.17712724 0.04744082 0.05256161 0.13671398
000270 18 2f 91 3c 4a 62 c6 3d 56 71 1e 3d 06 94 76 bc
       0.017722651 0.09686716 0.038682304 -0.01504994
000280 24 bf 6d bd e6 87 a9 bd fe 36 08 3e c7 05 be 3c
       -0.058043614 -0.08277874 0.13302228 0.023196114
000290 a7 fd cc bd 9c 21 16 3d 22 0b b8 3d bd f9 21 bb
       -0.10009318 0.036653146 0.089864984 -0.0024715506
0002a0 73 bf 1f 3e 8a e4 e4 bc 48 aa 7a 3d 2e 49 45 3d
       0.15600376 -0.027941007 0.06119755 0.048165493
0002b0 59 09 69 bb d8 46 c0 3d 6b 76 c0 3d f9 06 f5 3d
       -0.003555855 0.093885124 0.093975864 0.119642206
0002c0 1f 76 a5 bc 09 e1 cc 3d 95 c2 00 3d c5 e8 b9 bd
       -0.020197926 0.100038595 0.031435568 -0.090776004
0002d0 94 80 1c 3e c2 b9 ea 3d fe b9 06 be 4a f0 2b 3e
       0.15283424 0.11461212 -0.13156888 0.16790882
0002e0 99 b8 b3 bc c8 49 84 3d a0 45 14 3e b0 4b b2 bc
       -0.021938609 0.06459385 0.14479685 -0.021764606
0002f0 a6 6d ba bd 66 34 e5 bd d3 8a 9a bb 0f 2c 2d bc
       -0.09102945 -0.11191635 -0.004716256 -0.010569586
000300 aa da 67 3d 1e 87 83 bd 35 d1 2a bd 2b 6d 07 be
       0.05660502 -0.06422256 -0.04170342 -0.13225238
000310 4a 7e e6 bd b0 04 a8 3d 4b 71 92 3b 30 16 1e 3d
       -0.112545565 0.08204019 0.004469072 0.03859538
000320 c0 f5 55 3a 21 8a f0 bd fc b2 36 3d 25 1a ea bd
       0.0008161925 -0.11745096 0.044604287 -0.11430768
000330 2d 62 08 be 0b 01 86 3c b4 22 6b bd 40 af a8 bd
       -0.13318701 0.01635792 -0.057406142 -0.08236551
000340 f6 8a 83 ba cd e5 e7 3c f5 94 a0 bd a3 8a 47 bd
       -0.001003592 0.02830782 -0.07840911 -0.0487162
000350 7b 00 e7 bd 5f 48 c4 bd 2e 50 d0 bc 57 f7 cd 3d
       -0.112793885 -0.09584116 -0.025428858 0.10056942
000360 d2 98 25 3e 92 66 1d be 75 ea 3a be d2 a8 79 bd
       0.16171578 -0.15371159 -0.18253501 -0.060952015
000370 07 94 97 bd d0 14 d4 3d af 7c c7 bd a3 dc aa 3d
       -0.07401281 0.10355532 -0.097405784 0.08342864
000380 02 b9 57 3e 61 ec 19 3e e3 29 30 bd 89 d0 0d bd
       0.21066669 0.15031578 -0.043008696 -0.034622703
000390 c7 de 13 3e 43 38 6f 3d 43 c6 4f bc d9 ae 13 3e
       0.14440452 0.058403265 -0.012681547 0.14422168
0003a0 0c 12 f2 bd 96 a9 cb 3a b7 e5 f6 bc 8e fb af 3b
       -0.118198484 0.0015538211 -0.030138833 0.005370564
0003b0 1c 38 ae bd d2 ef e0 3d e0 81 d0 bd c4 b8 16 be
       -0.08506796 0.10983242 -0.10181022 -0.1471892
0003c0 24 e5 a7 3c 4e f4 e7 bd 07 80 24 3c f3 2b de 3b
       0.020495005 -0.11325894 0.01004029 0.0067801415
0003d0 4d 0a 18 3e c0 44 fb bb f0 ad ac 3d 64 9d b8 3d
       0.1484768 -0.0076681077 0.084316134 0.09014395
0003e0 c0 95 95 3d fd f3 69 bd c0 b7 18 bc d5 3e 78 3c
       0.07303953 -0.05711745 -0.009321153 0.015151699
0003f0 81 8b cc 3d 2e 9d a6 bd 0f c5 ac bd bd fb 1e be
       0.09987546 -0.081354484 -0.084360234 -0.15525718

sequential/conv2d_1/Conv2D f4 [32, 3, 3, 32]
000000 02 35 0b bd bd dc 40 be 50 9b 25 3d e8 77 a6 bd
       -0.0339861 -0.18834205 0.04043132 -0.08128339
000010 2d fe 46 3d f8 f4 a7 3d 0e 12 b3 3d bd d8 af bd
       0.048582245 0.08201021 0.08743678 -0.085862614
000020 7a 3d 90 bd 0a 20 8e bd b1 be 32 bd f7 42 82 bd
       -0.07042976 -0.06939705 -0.04363889 -0.06360429
000030 57 00 ed bd d9 7c ca 3d 39 37 33 bd 11 ad 89 bd
       -0.115723304 0.09887094 -0.043753836 -0.06722463
000040 2a e7 00 3d a4 7f eb bb 3a f1 92 3d b4 0e 5a bd
       0.031470455 -0.007186847 0.071749166 -0.05323668
000050 7f e6 a9 3d 64 09 54 bd f9 86 4a bd 6b b7 83 bd
       0.08295917 -0.051766768 -0.049445126 -0.064314686
000060 66 b9 2c 3d a7 ae b5 3d 2c 1e 2a bc 4f 88 11 be
       0.042168997 0.08871203 -0.01038317 -0.14212154
000070 8e dd 08 3d c1 26 d6 3c 14 eb b3 3d 43 0f 38 bd
       0.033414416 0.026141526 0.08785072 -0.04493643
000080 0f f6 d9 bd ab 8f 10 bd a9 12 c0 bd e7 2d 01 3d
       -0.10642635 -0.035293262 -0.09378559 0.031537917
000090 1f 4c 07 3e 75 ef c1 3d 7f 99 a8 3d 86 60 ec bb
       0.13212632 0.09469501 0.08232402 -0.007213655
0000a0 86 72 8d bd e9 6c fc bd f6 06 be 3c 1c a5 23 bd
       -0.06906609 -0.123254605 0.023196679 -0.039952382
0000b0 20 d3 25 3b 80 02 c5 bd e7 81 4b bd 75 5b a1 bd
       0.0025302842 -0.096196175 -0.04968443 -0.07878772
0000c0 04 67 63 3d 01 1c 07 3e 08 b5 3b 3d d1 85 15 bb
       0.055518165 0.13194276 0.04582694 -0.0022815356
0000d0 a8 2d 72 3d 07 e3 4b 3d 76 c5 02 3e 00 13 04 be
       0.059125572 0.049777057 0.12770638 -0.12897873
0000e0 41 39 83 bc 21 16 d8 bc 4b d8 82 3c e1 cd 1f be
       -0.016018512 -0.02637774 0.015972277 -0.1560588
0000f0 87 93 2b 3e fe 02 8a 3d 99 09 85 3d 51 1a 16 3d
       0.16755496 0.06738852 0.06495971 0.03664619
000100 c5 d3 a1 bc 0a 52 9e bd 44 44 cf bd 47 e0 be 3d
       -0.0197543 -0.077304915 -0.101204425 0.09320121
000110 c0 cc a8 3d ea 9f ad bd 08 63 dc bd 0f c3 1d 3b
       0.08242178 -0.08477767 -0.10761076 0.0024072563
000120 d1 38 44 bc d7 1f d9 bd 32 c2 02 be b6 ad 0c 3e
       -0.011976437 -0.10601776 -0.12769392 0.1373814
000130 52 9d 18 be 34 ab f6 bd 6f 6b e4 bd ae dc 56 bd
       -0.14903763 -0.12044373 -0.11153304 -0.05245655
000140 f5 89 04 3e 81 a7 37 3e ac 8f f0 3d eb 72 13 be
       0.12943251 0.17934991 0.11746153 -0.14399306
000150 1c 83 70 3d 52 27 b3 bd fc d0 0e bd a7 66 fb bd
       0.058718786 -0.08747734 -0.03486727 -0.12275439
000160 c7 9b ca bd 70 6b c4 bd a4 0a ac 3c 34 6a 17 3d
       -0.098929934 -0.095908046 0.021001168 0.036966518
000170 14 60 0b bc f9 1d 3e 3e dc 6f ea bd 1e 55 27 3d
       -0.0085067935 0.18566121 -0.11447117 0.04085266
000180 b4 ee 66 bd 5e 22 3e be 4a 0d a9 bc 61 6c ec bd
       -0.05637999 -0.18567798 -0.02063622 -0.11544109
000190 d0 f0 f1 bd 22 f2 aa bd cd 55 c7 3d 0a 9e 42 3b
       -0.118135095 -0.083469644 0.09733162 0.002969625
0001a0 b5 dc 01 be 6a 39 41 bc 9f 4b d4 3d aa a8 cb bd
       -0.1268185 -0.011793474 0.10365986 -0.099442795
0001b0 fe 3d b0 3c 29 d8 8f 3c 62 73 db bd c1 70 02 bd
       0.021513935 0.017559128 -0.10715367 -0.03184581
0001c0 24 6a 6b bd 93 80 66 3d f5 4c 04 3e 8d 3e db 3d
       -0.05747427 0.05627496 0.12919982 0.1070529
0001d0 5e 39 ad bd 50 96 40 3d 99 ba 95 bc 33 44 8b 3d
       -0.084582075 0.04701835 -0.018277453 0.06800117
0001e0 7f 0a 8a bb f1 af ca 3d e1 f7 96 3d 7d a1 1a be
       -0.004212677 0.098968394 0.07371498 -0.15100665
0001f0 69 dc 0d 3e e4 3f a4 3c 5c a1 6d 3d bc 27 97 3c
       0.13853611 0.020049997 0.058015212 0.018451564
000200 ec fa ec 3c 8a 44 ff bd 98 73 0b be f9 40 33 be
       0.028928243 -0.12464245 -0.13618314 -0.17505254
000210 c6 ff c8 3d 46 6a d5 3c 3b 2b 37 3d c0 23 7d bd
       0.0981441 0.026051652 0.044718962 -0.061801672
000220 b4 56 a8 bd 7e 98 85 3d 24 eb 8e bc 7b 36 61 3d
       -0.08219662 0.06523226 -0.017446108 0.054983597
000230 40 dd f8 bc 6b 15 67 bc 26 8d 62 bd d1 1f 90 3d
       -0.030378938 -0.014104228 -0.05531039 0.070373185
000240 8a fc 31 3e 55 a6 73 bc 00 79 21 3c 0d 80 05 bd
       0.17381492 -0.0148712 0.009855509 -0.032592822
000250 ae be 95 bd 67 6f 3d 3c cb f2 08 3e c5 b3 a2 bc
       -0.0731176 0.011562205 0.13373868 -0.019861111
000260 61 10 f0 bc 62 7c 2a 3d cd d2 4d 3d 85 47 8e bd
       -0.029304685 0.041622527 0.050249863 -0.06947235
000270 91 b4 10 3d 77 8c b8 3d 21 aa 35 3d cf dc 84 3d
       0.03532845 0.090111665 0.0443517 0.064874284
000280 07 ea 6f 3c 6a 18 f6 bb a7 71 a7 3c be 75 44 bc
       0.014643199 -0.0075102346 0.020439936 -0.011990963
000290 1d 20 25 3e 01 a1 df 3d 8b 1e 30 bd 2e a9 89 bd
       0.16125531 0.10919381 -0.042997878 -0.067217216
0002a0 86 68 db bd 05 11 2d 3c 86 3a cd bd bf 98 85 3d
       -0.10713296 0.01056314 -0.10020928 0.06523275
0002b0 dc 45 65 bd 24 3c 0d bd 49 6c 03 be 15 88 a4 bc
       -0.055974826 -0.034481183 -0.12834276 -0.02008442
0002c0 12 db 8c 3b 9b ea 2e 3d a4 49 99 3d a6 19 cb bd
       0.004298576 0.042704206 0.07484749 -0.099170014
0002d0 1f 1a a0 3c 5f de f5 3c 6d 90 c5 bc 56 d9 0b be
       0.019543706 0.030013261 -0.02411672 -0.13657126
0002e0 dc 87 16 bd e6 64 ef bd a3 2b 31 bd e1 a9 97 3c
       -0.03675066 -0.11689167 -0.043254506 0.018513622
0002f0 c2 ca 90 3d 4c 61 7c 3e 4f 0a c8 bc f4 57 81 bc
       0.07069923 0.24646491 -0.024418978 -0.01578901
000300 f1 b1 83 3b b3 6e 85 bd 28 dd d7 bc 22 65 2d be
       0.004019015 -0.06515255 -0.026350573 -0.1693311
000310 3d 30 01 be 49 67 8a bd be da ee 3d e0 b3 99 3d
       -0.12616058 -0.06757981 0.116628155 0.075050116
000320 a3 fd dc 3c 7c 3d cb 3d 5e 16 a1 3d 54 ec ac bb
       0.026976412 0.099238366 0.07865594 -0.005277196
000330 05 87 e6 bd ce 84 c8 3c 97 03 80 3d ec 20 c5 3c
       -0.11256222 0.024477389 0.06250685 0.02406355
000340 ad 6c 29 bd cd e6 80 3d 93 ad d4 3c fb 60 16 3e
       -0.041363407 0.06294022 0.025961673 0.14685433
000350 ff 74 60 bb d1 8c d2 3d 62 80 80 bd b7 fa ba 3c
       -0.0034249423 0.10280765 -0.06274487 0.022824628
000360 fb 52 e7 3d 85 f8 da bb b4 93 ca bc 33 f2 a9 bd
       0.11295124 -0.006682458 -0.024728633 -0.08298149
000370 4d a5 e5 3d b2 8e 14 3e 95 54 8f 3d 3c 23 b5 3c
       0.11213169 0.14507559 0.069985546 0.022111528
000380 e6 bc bf 3d 98 c8 00 be 74 f3 ee bd 97 79 bf bd
       0.093622014 -0.1257652 -0.11667529 -0.09349363
000390 ce e4 83 3d e9 2c 22 3d 99 a1 0c bc 0f 01 b7 3c
       0.064401254 0.03959361 -0.00858345 0.022339372
0003a0 24 ef a2 bd d6 06 49 3a c3 0f 77 bd 5a 52 02 bd
       -0.07955769 0.000766856 -0.060317766 -0.031816818
0003b0 d5 ab fa bd fe 51 2a bd 61 b0 67 bd e7 91 6d 3d
       -0.122398056 -0.0415821 -0.056564692 0.05800047
0003c0 56 0d 16 3e 79 26 b2 3c 7e 79 f6 3d 32 70 03 bd
       0.14653525 0.02174686 0.120348915 -0.03208942
0003d0 c9 c9 03 3d c3 6a 08 bd 8b 42 fa 3d 0d 3d 2d 3d
       0.03217486 -0.03330494 0.12219723 0.04229455
0003e0 9d 5c aa 3b 6c 97 0a 3d a9 e6 9c 3d 70 bb f3 3b
       0.0051990286 0.033835813 0.076611824 0.007438116
0003f0 b7 13 bd 3d f0 9a 83 3e de 9c 0b 3d 6f ec 55 3d
       0.09232276 0.25704145 0.034085147 0.052227434

sequential/dense/BiasAdd/ReadVariableOp f4 [9]
000000 43 53 1d bc da e4 92 3c f5 da 99 bc 28 bd 4b 3d
       -0.009602371 0.01793139 -0.018781165 0.04974094
000010 af 2a 50 bc 6f d9 8a bc a7 be 99 3c 62 82 4d bc
       -0.012705489 -0.016949384 0.018767668 -0.012543293
000020 7d d3 dc bc
       -0.026956314

sequential/dense/MatMul f4 [9, 6272]
000000 5d 34 2c 3c 1e f6 8c bc b0 56 87 bd d2 c1 c5 bd
       0.010510531 -0.017207202 -0.06608331 -0.09656109
000010 11 b7 6b bd 54 d8 f2 3a e8 93 d1 bc b7 89 d8 3c
       -0.057547633 0.0018527606 -0.025583223 0.026432855
000020 8c 43 8b 38 fe 33 ba 3a 61 72 b3 bd e8 07 f9 bc
       6.640618e-05 0.0014206169 -0.087620504 -0.030399278
000030 84 c7 2a bd 69 38 e1 3c ba a8 d7 bc 23 56 de bd
       -0.04169418 0.027492719 -0.026325572 -0.10856273
000040 4a c8 61 bd 1f 44 27 bc 7f 1b 7b bc 3d c4 9b 3b
       -0.05512265 -0.010209112 -0.01532638 0.004753618
000050 69 45 56 bd e8 29 fa 3c d8 24 b7 bc f1 42 8b bd
       -0.05231229 0.03053756 -0.022356436 -0.067998774
000060 f6 91 12 3e 70 9e 01 bd 32 22 5d bd 84 6d 3c 3d
       0.14313492 -0.03164524 -0.05398769 0.04600288
000070 80 73 5a 3d 9a 2d c7 3d 4c 2a ea bb 6f 76 87 3d
       0.053332806 0.09725495 -0.0071461555 0.06614386
000080 31 5a 5f bc bf d1 f0 3b 61 77 19 bd 46 f1 77 bd
       -0.013632343 0.0073492224 -0.037467364 -0.06053283
000090 7f 5d d3 bc d9 09 e9 bc 34 41 c2 bb 24 14 4a bc
       -0.025801418 -0.028447079 -0.005928183 -0.012333903
0000a0 89 96 87 3b 72 e4 10 3c 24 f4 f0 bd d9 64 49 bd
       0.0041378182 0.008843528 -0.11765316 -0.04916844
0000b0 58 af 28 bd 0a 20 5f 3b 27 35 34 3c 03 5b 77 bd
       -0.041182846 0.0034046196 0.010999001 -0.06038953
0000c0 a3 40 17 3d 20 1e d2 bb c6 7a 4a bc 89 7c a1 3c
       0.036926877 -0.0064122826 -0.012358373 0.019712703
0000d0 ca 70 b5 ba 66 7f b0 bb 28 a0 1d bd 5d c4 d8 bc
       -0.0013842818 -0.005386281 -0.038482815 -0.02646082
0000e0 5c d5 03 3e 6e fc c6 3c c6 a8 37 bd 39 22 43 bc
       0.12874359 0.02429029 -0.04483869 -0.011910015
0000f0 ba 72 58 3d 7f e8 b1 3d 01 df bd bc 43 77 c7 3d
       0.052843787 0.08686923 -0.023177626 0.09739544
000100 a2 9c 85 3c 7a 25 cc 3c b1 da c2 3c 60 bd a4 bd
       0.01631004 0.024920214 0.02378592 -0.08043933
000110 12 73 7a 3c d6 63 5a 3b 5a 1e 94 3c 46 58 4d 3b
       0.015286224 0.0033323667 0.018080879 0.0031333133
000120 01 a8 b6 3c 6b 61 a3 ba 53 ac a0 bd 92 a9 04 bd
       0.022296907 -0.0012464946 -0.07845368 -0.032388277
000130 ba fb af bc 30 4e 46 3c df 18 ad bc d4 bb be 3b
       -0.021482337 0.012103602 -0.021130024 0.0058207307
000140 56 ad 32 3c 5a d8 b7 3c ba 3a e7 bb fe 8b 24 bc
       0.010905584 0.022442032 -0.0070565613 -0.010043142
000150 32 2c c0 ba 9b fe 32 bb d4 b2 90 bc 79 f3 bb bc
       -0.0014661609 -0.0027312401 -0.017663397 -0.022943245
000160 17 81 0d 3e be b0 d0 3c dc 32 5e bc 14 2b 8a bc
       0.13818775 0.025474902 -0.0135619305 -0.016866244
000170 16 15 74 3a 48 c2 a0 3c 51 c0 60 bd e4 e6 20 3d
       0.00093110034 0.01962389 -0.054870907 0.039282694
000180 89 6f fd bc c5 bc f7 bc a3 37 80 bc c5 26 91 bd
       -0.030936973 -0.03024138 -0.01565153 -0.07087473
000190 d6 63 44 3c 10 af 0f bd ed a3 e8 bc 99 4e 15 3d
       0.011986693 -0.035079062 -0.028398478 0.03645191
0001a0 20 ca 32 3d 6c e5 fd 3c 67 9e 6c bd 92 51 0a bc
       0.043649793 0.030993186 -0.05776825 -0.008442299
0001b0 23 c1 5f bb 13 dc 3f 3d 00 ea d9 3c bc 02 19 ba
       -0.0034142218 0.04684074 0.026600838 -0.0005836894
0001c0 5f f8 72 bb c4 83 18 3b ab 74 fa 3c df 28 5d 3c
       -0.003707431 0.0023271898 0.03057321 0.013498514
0001d0 df 00 29 3d 82 0a d6 3c 62 90 93 bc b2 c2 39 3c
       0.041260596 0.026128057 -0.018013183 0.011337923
0001e0 5f 51 17 3d b2 d4 7b bc 32 3a 00 3d af ee e5 bc
       0.036942836 -0.015370535 0.0313055 -0.028067915
0001f0 27 a4 3b bc d7 4d 76 3d 04 18 6f bd b1 49 41 3d
       -0.011452711 0.060132828 -0.058372512 0.04718942
000200 1f 00 e6 ba 1b 00 17 3c 56 a1 81 3a 79 97 b3 bd
       -0.0017547644 0.009216334 0.0009890001 -0.087691255
000210 ed d6 60 ba d1 be 81 bc 8b 68 32 bd c2 4d 45 3d
       -0.00085769483 -0.015838059 -0.04355673 0.04816986
000220 0b 09 41 3c 6c 3f 3c 3c 81 df 4e bd 39 b5 05 bc
       0.011781941 0.01148973 -0.05050612 -0.008160883
000230 10 c7 71 3c 5b 02 f0 38 73 ea 0d 3c 65 26 aa bc
       0.014756933 0.000114445305 0.008661854 -0.020770261
000240 d2 93 67 3d 65 2b c3 bc 11 8a 6e 3d 06 bb 8a ba
       0.056537457 -0.023824403 0.05823714 -0.0010584302
000250 10 7e 23 3d 20 e8 2b bc 79 a8 b2 3c c4 f3 dd 3c
       0.039915144 -0.010492355 0.02180885 0.027093776
000260 b5 ec 30 bc 41 17 84 bc 70 a6 5d 3c cf 55 ab bc
       -0.010798623 -0.01612437 0.013528451 -0.02091494
000270 75 41 5f bc 59 f0 24 3d 34 65 0c bd 13 81 4e bc
       -0.013626446 0.040268276 -0.034276202 -0.012604016
000280 c1 ec 85 bd e0 0a 53 bc 30 c6 ed 3b 44 cf a0 bb
       -0.06539298 -0.012881011 0.007256292 -0.0049075205
000290 85 ae 71 3b de ba 1a 3c e9 50 87 bc 14 bd ea 3b
       0.0036877703 0.009443967 -0.016518073 0.007163653
0002a0 10 29 35 bc 64 8a 51 3c df 87 94 bd 54 5c 46 bd
       -0.011057153 0.012789343 -0.07252478 -0.048427895
0002b0 23 de 03 bd 3e 51 55 3d bb a9 df 3c 74 52 ce bc
       -0.032194268 0.05207943 0.027302613 -0.025185801
0002c0 da 68 32 3d cd b5 3c bd ce 62 58 3d 80 15 31 bd
       0.043557025 -0.046071816 0.052828602 -0.043233395
0002d0 f5 43 d9 3c fd e8 e4 3a 2f 06 32 3d 77 14 86 bb
       0.026521662 0.0017464455 0.04346293 -0.004091795
0002e0 88 4f 8c bc 47 a7 5f 3c 39 2e 70 bc 42 48 46 bd
       -0.017127767 0.013650722 -0.014659458 -0.048408754
0002f0 92 f2 6d bd 9e dc 4b bc a0 6e 9d bd 22 53 9e bd
       -0.05809266 -0.012442736 -0.07687116 -0.077307
000300 c6 75 a4 3c 05 e3 78 3b d8 2a 1e bd 01 3e fd bc
       0.02007569 0.003797711 -0.038615078 -0.030913355
000310 ba 72 3f 3d 34 86 d2 3c 01 a3 4d bd d9 3c 92 3d
       0.04674027 0.025698759 -0.05020428 0.07140512
000320 61 11 cb bb d1 90 31 3d 1e 5c 8d bd 08 e4 f1 bc
       -0.00619714 0.043351 -0.069023356 -0.02952768
000330 4d 7f 1c bc 38 27 28 3d 00 7e 08 3d 71 04 90 bd
       -0.009551835 0.041053027 0.033323288 -0.07032097
000340 8a 52 43 3d 98 5e 94 bc 9b ca 00 3d ad 8c 8d bc
       0.047686137 -0.018111512 0.03144322 -0.017278994
000350 28 33 de 3c ba 70 34 3b de 62 77 3d 6e ff f1 bc
       0.027124003 0.002753301 0.06039702 -0.029540744
000360 e4 5e 96 bd fe 2f e3 bb 84 53 aa bc 12 7a 6d bd
       -0.07342318 -0.0069332113 -0.020791776 -0.057977743
000370 10 53 4f bd e4 34 38 bd 8c cc 27 bd a0 ae 83 bd
       -0.050616324 -0.044972315 -0.040966555 -0.064297915
000380 2d fc 3d bd f8 62 0f 3c da d7 10 bd 2f a7 ae bc
       -0.04638307 0.008751623 -0.035362102 -0.021319954
000390 ae 80 76 3d 58 e5 3a 3b bf 89 ab bc 96 f1 f9 3c
       0.060181312 0.0028518047 -0.020939706 0.030510705
0003a0 a5 98 58 bc 79 f5 36 3c 6d 24 d1 bd 74 d3 9e bc
       -0.013219987 0.011166924 -0.10212026 -0.019387938
0003b0 8d fd fc 39 61 c0 5f 3d e3 36 06 3d 6c 31 46 bd
       0.00048254096 0.054626826 0.032767188 -0.048386976
0003c0 cb 18 17 3d 6d 9b 17 bd ea 57 87 3d 62 0b 0b bd
       0.03688888 -0.03701346 0.06608565 -0.033946402
0003d0 19 23 96 3d 99 b0 16 3d 80 75 7b 3c 67 12 06 bd
       0.07330913 0.03678951 0.015347838 -0.032732394
0003e0 6c 77 81 bd 53 ac 65 bc 04 82 c1 3c 1c e3 a4 bd
       -0.06321606 -0.014018136 0.023621567 -0.0805113
0003f0 a5 83 ba bc bd 16 f5 bc ed 04 d4 3b c8 8a 3f bd
       -0.022767851 -0.029918069 0.0064703138 -0.04676321
