object_recognition_fruit_v6.tflite (tflite, 269404 bytes, 6 tensors)

sequential/conv2d/BiasAdd/ReadVariableOp f4 [32]
00000000: 3355 31bc 33ed f3bc 9cfa 85bc 677a af3c
00000010: 04cf 61bc cd90 c03d d94c 443d ff4c ca3c
00000020: a86e ab3c 4160 34bd f36e 453d b446 743c
00000030: fc77 823d da72 443d 7de8 bc3d b9b8 663d
00000040: 260c ae3c 6a53 46bd 2036 663c 46d2 d03c
00000050: 1b8b 953d 7755 65bc e537 03bc fadd c13d
00000060: d076 22bd e2e1 2fbc 800f 213c d555 0c3a
00000070: 01a9 76bc 843f 32bd a225 3d3d 2595 00bc
-0.010823536 -0.029776191 -0.016354851 0.02142067 -0.0137822665 0.094026186 0.04792485 0.024694918
0.020926788 -0.044037107 0.048201513 0.014909435 0.063705415 0.047961093 0.09224031 0.05632851
0.021246027 -0.048419394 0.01405099 0.025490891 0.07301923 -0.013997427 -0.008008932 0.09466167
-0.03966409 -0.010735007 0.009830356 0.0005353366 -0.015054942 -0.043517604 0.046178468 -0.007848059

sequential/conv2d_1/BiasAdd/ReadVariableOp f4 [32]
00000000: 27ef 1e3b 433b 613c 465c 963b 34bc d5bc
00000010: bd90 b63c fecd 54bc 573e 2abc 0586 3a3c
00000020: c9db b73c 5c99 043d 4d8a 0bbc 3f7b 90bc
00000030: defe bfbc 9f3f d63a 65a0 16bc 60d5 92bc
00000040: 7228 123d 2376 49bc 7ae3 c03c b97f 75ba
00000050: e429 0fbc acc1 463d 937a ec3c 2063 65bc
00000060: 051c 183d 2645 09bc 123c 1ebd 4e86 1f3c
00000070: 8aaa 793c 0381 d93b 19de 023d 5ae9 373c
0.0024251433 0.013747039 0.0045886366 -0.026090719 0.022285813 -0.0129885655 -0.01039084 0.011384492
0.022443669 0.032372817 -0.00851686 -0.017636893 -0.02343696 0.0016345865 -0.0091935145 -0.01792401
0.035683103 -0.012296232 0.02354597 -0.00093650405 -0.008738015 0.048524544 0.028867042 -0.014000684
0.037136097 -0.008378303 -0.038631506 0.009736611 0.015238414 0.006637694 0.03195009 0.011225069

sequential/conv2d/Conv2D f4 [32, 3, 3, 3]
00000000: 4a1b 9fbd 059d 07be 5200 e4bc 6cc4 c3bd
00000010: 198c 9c3d 3297 9abc 6ed3 f5bd 86bb 0ebe
00000020: 1819 2639 817c ffbd 474d 1abd 3b5d 8a3d
00000030: b4d9 babd 9553 e33d a540 12bd b8b1 e9bd
00000040: ad90 a9bd 3a9c efbd dfce 24bd ad46 0abd
00000050: 6a81 623d 8359 3a3d 3c02 b23d 7ff0 e9bd
00000060: 4901 a2bd f2ed e7bc ddc7 09be 6b4b bdbd
00000070: e641 94bd cc9b c2bd d7c8 623c 28e9 83bc
00000080: 0b8b c7bc b615 c63d b7e9 80bc b6ad 93bc
00000090: cbde a43d 6ed8 873d 5280 a53d ecbd d73d
000000a0: 48a0 773d 24ae 13bc e792 a33d 0bf4 9fbd
000000b0: 6743 36be 7808 09be a9e4 893d cb83 293d
000000c0: 1c2e 91bc f28c ddbc 61e5 473d e845 e83d
000000d0: e2b6 6dbd 0db9 30be 1412 f73d 4e57 86bd
000000e0: a21b 853d 2731 ab3d 40cc 0abe 5046 53bc
000000f0: 8c1a 7e3d 9d66 ac3d 2921 c23d 8f76 463d
00000100: f1ea 07be b3f0 96bd 40c9 113d d9fd e73d
00000110: 0d5f d6bd 57c5 c1bd ffad 87bd 1968 0dbd
00000120: e837 b33d a53c de3d 1672 d1bd 2a60 cdbd
00000130: e20f 98bc a952 283d 37d5 f03c da9e b4bc
00000140: 4815 a5bd fa7f 3e3d 6c11 91bd 3ebb d2bc
00000150: e229 51bd 7a49 7a3d 7fbe d5bd c884 963d
00000160: b7e1 cfbd b589 073e 7736 083c 4e86 443c
00000170: a4ef e83d b6c3 473b 326e 30bd 96c6 4ebd
00000180: 36ab 063e 4ae2 91bc b10d e7bb 80ed 24bc
00000190: 8a85 cbbd 381a 6fbc 39d7 8b3d 6977 8a3d
000001a0: 75f3 f7bc d19b 56bd 33de 1cbe 064a 953d
000001b0: baa0 16bd 42ed 9ebd 88c6 b3bd b9a5 53bd
000001c0: f867 8f3d 550e 9fbd e828 853d 4348 8abd
000001d0: d123 8a3d 2ba9 e93d 8732 4cbd 6406 5bbd
000001e0: 6b67 5d3d 380a 7fbd 65a7 733d 8573 68bd
000001f0: 8b4a 533d 7076 a8bd 0850 123e 8fda e43d
00000200: 9943 14be 116a c53d eb1f febc 365f 3abe
00000210: 989d 9a3c 5e11 bc3d cbf9 70bd 0cdd abbd
00000220: b6f1 03be 6f9a b2bd 3979 96bd e212 bf3d
00000230: 4041 74bd 8313 49bc 53e3 12bd 9372 febd
00000240: 0b91 febd 475e adbd 3c7d 0b3c 42fe 973d
00000250: 624e 583c ae58 27bd c5c7 833c d374 643d
00000260: b2f7 703d 6cca 77bd c19d acbd 451f a43d
00000270: 0094 e83a 19e9 293e ce05 03bd 8654 873d
00000280: 4722 ed3d 7d46 c1bd 7616 563d da94 fa3d
00000290: fcb5 883d 59c4 a2bd ce85 f6bd 19a8 e83d
000002a0: 83e8 e4bd a416 e3bd cd43 9bbd 4bec b33d
000002b0: f327 a53d c835 bc3d 91d7 143d fc83 e6bd
000002c0: bbdb 8a3d 1244 ecbd b08a 083d d48b 8d3d
000002d0: 08ec ccbc 5561 9ebc c0e8 083e e6e6 993d
000002e0: e225 a5ba 884a 4cbc 0703 f0bd aa2a be3d
000002f0: a9b8 f63d 2016 33bb 3033 3a3b 1c32 08be
00000300: 37b3 65bd 4164 0cbe 6624 6a3d 4dde 063e
00000310: 2e99 9fbd 5b93 0e3e 2aae 98bd a40c 883b
00000320: 2ea4 a63c 2549 c23d a3d3 b6bd 9b93 0d3d
00000330: ac98 52bb 6ccc 053d 703a cd3d 14c4 0a3d
00000340: 1300 00bd df3d cb3d 46ac 6bbd 135b 4f3c
00000350: ef5d b7bc b973 ddbc 5a70 893d 2b9d 403d
00000360: 0f64 77bc 1f29 993d a97c 52bd 939c d03d
00000370: fa85 a0bd e2ca d8bc c8be b23b c8ff 0abe
00000380: a6c0 4b3d d0f9 023e 0d0b b3bd d7fe ef3d
00000390: b993 5d3d 8608 c9bd eda4 dd3d 0a1c b3bd
000003a0: 5db6 b3bd eb99 d53d 94f6 063d 0cd2 f4bd
000003b0: c26e edbd 85f8 fc3d 0416 523c 6de9 0e3e
000003c0: b36f 6a3d 457b 06bd 6b69 4d3d 7c7c 9d3d
000003d0: 2e5f 8b3d 3d88 203d dba6 6bbc 2b3b 16be
000003e0: a4cc 4abd 452b 123d 6edc 013d 187e cabc
000003f0: f1a4 073e dc50 073d ac91 81bd 377f ea3d
-0.07768877 -0.13243492 -0.027832184 -0.09558949 0.07643909 -0.018870924 -0.12003218 -0.13938722
0.00015840342 -0.12474919 -0.037671354 0.067560636 -0.09123555 0.110999264 -0.03570618 -0.1141085
-0.08279548 -0.1169972 -0.04023635 -0.033758808 0.0552992 0.04549552 0.086918324 -0.11422824
-0.079104014 -0.028311703 -0.13455148 -0.092429005 -0.07239132 -0.09502372 0.013841829 -0.016102389
-0.024358293 0.0967211 -0.015736444 -0.018027168 0.08050307 0.066330776 0.08081116 0.105342716
0.06045559 -0.009013686 0.07987004 -0.078102194 -0.1779915 -0.13382137 0.067330666 0.041385453
-0.017722182 -0.027044747 0.048802737 0.113414586 -0.05803574 -0.17258091 0.12063995 -0.06559621
0.06499411 0.083589844 -0.13554478 -0.012895182 0.062037036 0.084180094 0.09478981 0.04845291
-0.13273217 -0.073701285 0.035592318 0.113277145 -0.10467348 -0.09461468 -0.06624984 -0.034523103
0.08750898 0.10851411 -0.10226838 -0.100281075 -0.018562261 0.041094456 0.029398544 -0.022048403
-0.080607 0.046508767 -0.07083401 -0.02572405 -0.051065333 0.06110523 -0.10436725 0.07349545
-0.101504736 0.13236125 0.008313767 0.011994911 0.11373833 0.0030481643 -0.04307384 -0.050482355
0.1315125 -0.017808098 -0.0070511927 -0.01006639 -0.0993758 -0.014593653 0.0682816 0.06761057
-0.030267457 -0.05239469 -0.15319137 0.072895095 -0.036774375 -0.07760097 -0.08778101 -0.051671717
0.07002252 -0.077664055 0.06501943 -0.06752064 0.06745113 0.11409219 -0.049852874 -0.05347289
0.054053705 -0.062265605 0.05948581 -0.056750793 0.05158476 -0.08225715 0.14288342 0.11174499
-0.14478911 0.09639371 -0.031021079 -0.18200383 0.018873975 0.09183 -0.05883197 -0.08391771
-0.12885174 -0.08720862 -0.0734734 0.093297735 -0.05963254 -0.012272718 -0.035861325 -0.12424197
-0.124300085 -0.084652476 0.008513745 0.07421543 0.013202282 -0.040856056 0.016086468 0.055775475
0.05882997 -0.06049578 -0.08428527 0.08013777 0.0017744303 0.16592826 -0.031987958 0.066079184
0.115788035 -0.09437273 0.052267514 0.122354224 0.06675336 -0.079476066 -0.1203724 0.11360187
-0.111771606 -0.11088303 -0.07581291 0.08785304 0.0806426 0.091899455 0.036338393 -0.11255643
0.067801915 -0.11536421 0.033335388 0.06911436 -0.025014892 -0.01933352 0.13370037 0.075147435
-0.0012599791 -0.0124689415 -0.117193274 0.09285481 0.1204694 -0.002732642 0.0028411858 -0.13300365
-0.056079116 -0.13710119 0.05716362 0.13170739 -0.077928886 0.13923399 -0.07455094 0.0041518975
0.020341959 0.094866075 -0.08927085 0.034564596 -0.0032134457 0.032665655 0.10020912 0.0338784
-0.03125007 0.0992391 -0.05753734 0.012655991 -0.022383658 -0.02703272 0.067108825 0.047024887
-0.015099539 0.07478546 -0.051388416 0.10186114 -0.07838054 -0.02646393 0.005454872 -0.13574135
0.04974427 0.12790608 -0.08742342 0.11718529 0.054095957 -0.09816079 0.10822473 -0.087455824
-0.087750174 0.10429748 0.03295 -0.11954126 -0.11593391 0.12352089 0.012822632 0.13956232
0.05723543 -0.032832403 0.050149363 0.07689759 0.068052635 0.039192427 -0.014383043 -0.14671008
-0.049511567 0.035685796 0.03170436 -0.02471833 0.13246514 0.033036098 -0.06326613 0.114500456

sequential/conv2d_1/Conv2D f4 [32, 3, 3, 32]
00000000: b2cf a33d 1ced a83c d42e febd facc aabd
00000010: 1fa6 5abd 492e d9ba 9ef6 9a3b 72dc 7dbd
00000020: de68 9b3d c954 c4bb 37c4 bdbd 4a12 093d
00000030: 2dd1 f43c c590 d8bd df09 edbc 1d73 9fbd
00000040: c660 b33c e70d 5a3d 2bea 13bd b4dc 533d
00000050: 2ffd 323d 73ce 89bc 13d7 4cbc b0b1 d13d
00000060: 0db9 01be db86 d03d 4d09 e13d 6dfa 91bc
00000070: c0ca d9bd 0a5d 713d 56a0 d73d 16c5 993d
00000080: 011d 76bd ffb2 033d b0c5 e2bd f42e c0bb
00000090: aa6c 7bbb a39b 273d cc7b 85bd f7c9 e93d
000000a0: cdd2 fe3d b409 723c 0ba7 c2bd 706f 4abd
000000b0: 09b2 883b 604b 443d b75d f83d 81c9 2a3d
000000c0: bd58 e0bd 4816 b03d fe84 b33c ca5f 923d
000000d0: 84c5 763d 5c35 9bbd 29c2 69bd 998a ae3d
000000e0: 3b2d 8fbd c146 0e3c 4896 22bd 7291 873d
000000f0: 9e80 b4bd 262b aebd ab33 cc3d 4bac f63d
00000100: 5d3d 89bc 1693 93ba 1d7c 3ebd 7e8e dfbc
00000110: 7c3e 0bbe 2ebc 39bd a51c 50bd d5a0 7b3d
00000120: 9e42 d53b 34f7 3e39 e563 4dbd c626 54bd
00000130: 3557 96bd e558 03be 5f87 253e c396 1cbc
00000140: 28bb c03b 452b c8bd 2096 b1bd b7dc f73c
00000150: 3e76 843c fb2f 133d 21fd 80bd 132f 563d
00000160: 07c1 1fbd 11b8 1d3c 439c 793c 0017 99bd
00000170: d377 0c3c b09d 423d 67e1 b1bb 4fb5 843d
00000180: b588 c7bd ed1b bcbd 16b9 713d 22a9 0dbc
00000190: 21c0 abbc 8df7 68bd a1bb 53bd cbf4 ed3d
000001a0: 3643 083e e3fe bfbd df97 03bc be46 89bd
000001b0: 514a 913c b3f5 8b3c f06b 423c 4605 8cbd
000001c0: 19fa 20bd 9be3 b6bc d5b3 bdbc 5be0 a0bd
000001d0: 5e9d 803d fb96 1d3c a6f7 7ebd 9487 51bc
000001e0: 5749 2c3d 9bce aebd 55b3 e43d c1c2 ab3d
000001f0: e711 32bb 6bc2 9f3d 8c05 923d 4cfe d3bc
00000200: bb53 1f3d 30ec e0bd 9eee 88bd 3399 c2bd
00000210: 021a 93bd fdf0 a73d 39ad ac3d b305 343c
00000220: 92b9 313d c8c7 95bd a9db a3bd 6460 a03c
00000230: d63a aabd 5af5 babd b441 813d 494c babd
00000240: 8642 e2bd 9a6e 60bd a340 cebd e913 413d
00000250: 7b86 033e beb3 2a3d 5fe0 1e3d ba17 ce3d
00000260: cee2 d5bd cf21 903c 54d4 ea3d ce93 2a3d
00000270: 8624 933d 1cbb bcbd e5b8 0abd dc93 96bc
00000280: 62bf 4dbc 0360 0abe 5696 94bd a3d7 68bd
00000290: 4f0d bd3c 4a5c 393d 0a4e e13c 2b0e a03d
000002a0: 7419 df3c 24a9 693d 10be 643c a237 c1bd
000002b0: 52b0 933d e31f a8bd 4945 e33d 496e d3bc
000002c0: a3fd fcbd eb1c d6bc 912c 2fbd 2125 f03a
000002d0: 98c5 9cbc 5838 b73d f278 a13d 688b ccbb
000002e0: 6c70 00be e5d3 0f3b f70e 343d f2bf abbc
000002f0: 0f80 933d 1cfb e13c 16c6 7d3d 5288 edbc
00000300: 729e 8fbd 8148 38bb c7b8 b3bd 06d7 bd3d
00000310: 34e0 45bd 97b8 d03d 870f dd3d 2391 98bc
00000320: 17b0 30bd 5768 82bd 88a3 9a3b d96f 0e3c
00000330: a3ac d7bc 4a52 eabd b0d7 983d 1653 66bd
00000340: e8a0 443d 20e4 b93c d387 0bbd 279f 043d
00000350: 59ce 2c3d 6dec 983d dc06 553d 8869 823d
00000360: 1dc6 9fbd fef8 773d 75a3 0abd 2aff 113d
00000370: 48ef 993d 5a49 bdbd df4a f03c 0951 86bd
00000380: c781 5b3d 2a6e 0bbd 7a6d 3c3d 4303 083b
00000390: fa0f 19be 9199 abbd 6c17 d93d 1baa aa3d
000003a0: 846b e13c 29d8 78bd d295 11be fe5d 79bd
000003b0: 0947 dd3c 86d3 a4bd 02cc 963c 5d7b 88bc
000003c0: 8ff1 623d dc98 8e3c ffc1 b43c 4aae 25bc
000003d0: 2d9b 87bb cfa9 6b3d 5a17 90bc 62a4 e83d
000003e0: 135b 08be a35b be3c ad74 983d 17cf 46bd
000003f0: 23f5 b6bd 3ced 8d3d 0d4e 38bd 0969 26bc
0.07998599 0.020620875 -0.124112755 -0.083398774 -0.05338108 -0.001656958 0.004729106 -0.06197781
0.07588361 -0.0059915525 -0.09265941 0.033464707 0.029884899 -0.105744876 -0.028935371 -0.07785628
0.021896731 0.053235915 -0.03611199 0.05172415 0.043698486 -0.016822075 -0.01250245 0.10238969
-0.12668248 0.10181972 0.10988102 -0.017819608 -0.106343746 0.05892662 0.105286285 0.07508294
-0.060086254 0.032153126 -0.11072862 -0.0058649722 -0.003836433 0.04091991 -0.06517753 0.11415475
0.12442551 0.014772821 -0.09504517 -0.04942268 0.004171614 0.047923446 0.1212725 0.041696075
-0.109544255 0.08598 0.021914002 0.071471766 0.06024696 -0.07578537 -0.05706993 0.08522529
-0.06991049 0.008683861 -0.0396941 0.06619538 -0.08813594 -0.08504324 0.099707924 0.12044581
-0.016752893 -0.0011259045 -0.046505082 -0.027289625 -0.13598055 -0.045345478 -0.050808568 0.06143268
0.0065081855 0.00018211902 -0.050144095 -0.05179479 -0.07340852 -0.1282688 0.16164921 -0.009557429
0.0058816858 -0.09773878 -0.08671212 0.030256612 0.016169664 0.03593443 -0.062982805 0.052290987
-0.039002445 0.009626404 0.01523501 -0.0747509 0.00857349 0.047513664 -0.0054284814 0.06479894
-0.09742872 -0.09185014 0.059014402 -0.008646281 -0.020965638 -0.056876708 -0.05169261 0.11618956
0.13306889 -0.09374788 -0.008031814 -0.06702946 0.017735632 0.017084932 0.011866555 -0.06836943
-0.03930101 -0.022325328 -0.02315704 -0.078552924 0.062800154 0.009618516 -0.062247895 -0.012788672
0.04206213 -0.085355006 0.11167017 0.08386756 -0.0027171315 0.07800754 0.07129964 -0.025878094
0.03889821 -0.10982549 -0.066861376 -0.09501877 -0.07182695 0.08200262 0.08431477 0.010987687
0.043389864 -0.07313496 -0.08000881 0.019577213 -0.08312003 -0.09128828 0.0631136 -0.090965815
-0.110478446 -0.054792978 -0.10070922 0.04713813 0.12844269 0.04167532 0.038788196 0.10063119
-0.1044365 0.017594246 0.114662796 0.041644864 0.07184701 -0.09215376 -0.033867735 -0.018381052
-0.012557836 -0.13513188 -0.07255237 -0.056846272 0.023077635 0.04525403 0.027503032 0.07815202
0.027233817 0.05704607 0.01396133 -0.09434439 0.07211365 -0.08209207 0.110971995 -0.025809424
-0.12353065 -0.026136836 -0.04276711 0.0018321612 -0.019137189 0.089462936 0.078843966 -0.0062422045
-0.12542886 0.0021946367 0.043959584 -0.02096555 0.072021596 0.027585559 0.061956488 -0.028995667
-0.07012643 -0.0028119388 -0.08775478 0.09269528 -0.04830952 0.10191458 0.10793977 -0.018623894
-0.043136682 -0.063675575 0.0047192015 0.008693659 -0.026327437 -0.11441477 0.07463014 -0.05623158
0.048005015 0.022691786 -0.03406508 0.032378342 0.042188976 0.0746697 0.052008495 0.06367785
-0.07801459 0.06054019 -0.03384729 0.035643734 0.075163424 -0.09242506 0.029332576 -0.06558425
0.053590562 -0.034040608 0.046002842 0.0020753897 -0.14947501 -0.083789 0.106001705 0.08333226
0.027517088 -0.06075302 -0.14217308 -0.060880654 0.027011411 -0.080481574 0.018407825 -0.016660387
0.05540615 0.017406873 0.02206516 -0.0101123545 -0.0041383714 0.05753499 -0.01758926 0.113594785
-0.13315992 0.023237055 0.07444129 -0.04853734 -0.08933475 0.069300145 -0.04499631 -0.010156878

sequential/dense/BiasAdd/ReadVariableOp f4 [9]
00000000: 36ba 24bc e494 333a e997 8e3b fce9 fc3c
00000010: fd4d aabb fc38 493b 5cc1 4a3c 6948 e2bc
00000020: eeab 32bc
-0.010054162 0.00068504945 0.004351605 0.030873291 -0.005197285 0.0030704131 0.012375202 -0.027622418
-0.010905249

sequential/dense/MatMul f4 [9, 6272]
00000000: 302d f33c 50c9 0d3d 05cd 21bd 082d b43b
00000010: 5847 823d 62f5 3b3c c87c 89bc 17c1 d43c
00000020: 7627 d83c 4a16 48bd ff75 2a3c 9c04 5ebc
00000030: 8314 af3c 9505 2e3d 8442 043c 99e2 313c
00000040: b494 bb3d 3eb8 083d e9ad 033d 452c 12bd
00000050: 8f69 0d3c 483a 583d 998f 6f3c b317 8f3c
00000060: 4fe1 f3bb e081 18bc 169b 02bc f42f 243b
00000070: 3b53 42bd 127b 8a3c 8b20 643c 2bd2 5a3d
00000080: abd9 253c 7f74 183d 0ff1 02bd 5999 cd3c
00000090: 57e7 ae3c f4d7 883c 56bc 44bb f1ef cb3a
000000a0: c9c4 8dbb 9108 d0bb 2160 b73c 95fb 693c
000000b0: 4fcd 12bc b0d7 583d 3692 8abc 7fd4 aa3b
000000c0: e8b3 833d 54ca dbbb 1123 6cbc 3d35 7abc
000000d0: 5956 5a3c 6789 513c 13c5 a5bb f6bc 923c
000000e0: 3732 5f3c 53bb b83c 579a ee3c 6005 b5bc
000000f0: 3c80 233b 2fb5 05bc f485 b5bc d786 a53c
00000100: df43 a43c db4a 723c 2ced eb3b c69e 013d
00000110: cf8e 3b3a ff2e 583c 4105 df3c d282 1c3b
00000120: 52c9 18bc e59c dfbb 3389 4dbc df0a dcbc
00000130: cdc4 d93c a628 ccbb 5c17 a43b 2c6c c1bc
00000140: e195 af3c 6d8e 94bc d1c9 3cbb 2691 7dbc
00000150: 7d02 16bc 3659 5f3c 8d9e a2bc d7ac 4d3d
00000160: 6c2c 00bc afe7 32bc 6167 3a3b bc68 0abd
00000170: 5152 81bc 8109 84bc a734 31bd c8d3 a43b
00000180: eb73 893b 4882 04bd 885b d13c 32ee 1abd
00000190: 1106 0e3d c16d 00bd a192 fb3c 0bbf e63c
000001a0: 0a93 b4bc 0a49 143d 5ce6 b9bb c120 d7bc
000001b0: 8128 9dbc 65c9 46bc 94ed debc 5a46 03bd
000001c0: 2f4a d83c 3c83 843c 6b4f b9bb 2bba 86bc
000001d0: 56e5 b03c 1244 bf3b d211 01bb c196 2fbd
000001e0: 8b88 483c 93c3 6fbb c8cf 39bb 6ab0 17bc
000001f0: 5319 dfbb b311 71bc bf44 953c 5655 13ba
00000200: bff5 13bc ae89 8fbc 1245 9bbc 2231 9f3c
00000210: 08a1 8fbc 2fa4 ef3c ddb6 873c 1127 ef38
00000220: 7605 c63c 19f7 b2bc 4280 17bc ecaa e2bc
00000230: 29c2 72bc cac0 af3c 7aac 123b 45b9 95bc
00000240: 5d50 40bc 835f a93c 7da9 9fbb 4dbc a3bc
00000250: 310e 8cbc 410a ccbc 46e8 8fbc 851c 69bb
00000260: d850 8ab9 323e 373d c141 c7bb 7934 de3c
00000270: 59ae 563b 86af c9bc a7d2 9cbb bf41 63bc
00000280: fd7b 023c 99bc 0a3b 6b1e 0a3d 72e5 c13c
00000290: efaa 483c 84d4 22bc ad16 513d 7488 38bc
000002a0: e17c 053d aeaf a5bc 3010 37bb d74b a8ba
000002b0: 5b89 253c f9a2 dbbc 5269 b2bc b2e7 af3a
000002c0: 4f70 573c 34d7 8d3c 1446 7f3c 3987 a93c
000002d0: ce1b 8c3b 50a0 85bc b134 4f3b 323b 2ebc
000002e0: 648a 203d 9f15 5b3d 3992 383c 45fd 523b
000002f0: 5a64 e43c c375 13bc d2c2 8c3c cba6 003d
00000300: 6ccc 2c39 8c0c b93c ec29 963c 3e8e e73c
00000310: fd4a 033d e35c 503a 494f 0f3d 6ee4 ff3c
00000320: 11b8 8a3c a5fc 36bb 2055 6dbc 9e54 ff3b
00000330: 4971 0abd 1557 4dbc 91d4 813c a388 3fbc
00000340: 8194 d03c 5cc7 773d 4d81 97bc 2afe 32bc
00000350: 04f6 0fbd 2335 343c 93bc d83a 348c 543d
00000360: e471 d63c 0a02 213d 6884 fcbb 7651 16bc
00000370: 6579 133c 932d 9d3c 40a7 c13c 9ceb eb3c
00000380: b612 09bd 41a5 eeba 9228 eb3c 83fc 143d
00000390: 4bf0 11bb 2b50 cebb 87cd 703d ee00 dabc
000003a0: 18fa 413d c9e5 023d d4d3 9e3c c89f f63c
000003b0: 8e7a ea3c c4b6 00bd e74f 463d 8ac3 523c
000003c0: eaef 9fba b637 e63b bada af3c f429 8b3b
000003d0: ddb8 95bc dde8 2ebc aa38 883b 574d 1139
000003e0: bec4 0fbc e853 463d b99b e13c 30c3 bdbc
000003f0: bf6e 0a3d 135b 33bc 0c3e 993b b315 f43c
0.029684633 0.034615815 -0.039502162 0.005498532 0.06361264 0.011472078 -0.016783133 0.025970979
0.026386004 -0.04884938 0.010404109 -0.013550904 0.021372085 0.042485792 0.008072499 0.010857248
0.09159222 0.033378832 0.032148276 -0.03568675 0.008631124 0.052789956 0.014621639 0.017467355
-0.0074426304 -0.009308308 -0.007971546 0.0025052996 -0.047442656 0.016904388 0.0139237745 0.053423088
0.010122697 0.037220474 -0.031968173 0.025097536 0.021350546 0.016704537 -0.0030019484 0.0015559179
-0.004326437 -0.0063486774 0.022384705 0.014281173 -0.008960082 0.05294007 -0.016915422 0.00521332
0.06430799 -0.006707469 -0.014412657 -0.015271482 0.013326251 0.012789107 -0.0050588935 0.01791237
0.013622812 0.02255026 0.02912633 -0.02209729 0.002494826 -0.008160873 -0.0221586 0.020205898
0.020051895 0.014788355 0.007199904 0.03164556 0.0007154764 0.0131947985 0.027224185 0.0023881686
-0.009325342 -0.006824123 -0.012544918 -0.026860652 0.0265831 -0.0062304316 0.0050076675 -0.02361115
0.021433773 -0.01813432 -0.0028806815 -0.015476501 -0.009155867 0.013632109 -0.019850994 0.05021366
-0.007823091 -0.0109194955 0.0028442966 -0.03379129 -0.015786322 -0.016117813 -0.043263104 0.005030129
0.0041947267 -0.03235081 0.02555634 -0.037824817 0.034673754 -0.03135467 0.030709567 0.028167268
-0.02204277 0.036202468 -0.005673213 -0.026260735 -0.019184353 -0.012132977 -0.027212895 -0.032049514
0.026402561 0.016175859 -0.0056552193 -0.016446194 0.02159373 0.005836972 -0.001969446 -0.04286838
0.012239586 -0.0036585077 -0.0028352607 -0.009258369 -0.006808439 -0.0147136925 0.018221257 -0.0005620321
-0.009030758 -0.017521705 -0.018953834 0.019432608 -0.01753284 0.029253094 0.016566688 0.00011403685
0.024172526 -0.021846341 -0.009246888 -0.027669393 -0.014816799 0.021454234 0.0022380636 -0.01827682
-0.01173791 0.020675426 -0.0048724995 -0.01998725 -0.01709661 -0.024907233 -0.017566811 -0.0035569977
-0.00026381644 0.04473705 -0.0060808365 0.02712463 0.0032757728 -0.024619829 -0.004785854 -0.013870656
0.007964131 0.0021169542 0.033720415 0.023668978 0.012247785 -0.009938363 0.051047016 -0.011263002
0.032589797 -0.020225372 -0.0027933232 -0.0012839985 0.010103549 -0.02681111 -0.021778736 0.0013420491
0.013149335 0.01731453 0.015580673 0.020694362 0.0042757755 -0.016311795 0.00316171 -0.01063423
0.03919448 0.053487416 0.011265331 0.0032194417 0.027879883 -0.009000245 0.017182741 0.031409066
0.00016479351 0.02258899 0.018330537 0.028266069 0.032053936 0.00079484115 0.03498772 0.031236853
0.016933473 -0.0027921584 -0.014485627 0.0077920696 -0.033799443 -0.012532969 0.01584843 -0.011690292
0.025461437 0.06049286 -0.018494273 -0.010924855 -0.03514673 0.010998997 0.0016535692 0.05189152
0.026177354 0.039308585 -0.0077062137 -0.009174695 0.009001111 0.01918677 0.023639321 0.02879887
-0.03346511 -0.0018207208 0.028705869 0.036373626 -0.002226847 -0.006296178 0.058789756 -0.026611771
0.04735765 0.03195742 0.019388117 0.030105487 0.028622892 -0.0314243 0.048416045 0.012864003
-0.0012202237 0.007025684 0.021466602 0.0042469446 -0.018276626 -0.010675636 0.0041571455 0.00013857089
-0.008774934 0.048419863 0.027540075 -0.023164362 0.033797022 -0.010947007 0.004676586 0.029795503
