object_recognition_fruit_v7.tflite (tflite, 269404 bytes, 6 tensors)

sequential/conv2d/BiasAdd/ReadVariableOp f4 [32]
000000 10 b9 86 3d a4 7a d6 b9 51 2c d1 3d 9e 5c a0 ba
       0.065782666 -0.00040908635 0.10213531 -0.0012234633
000010 fd af 2a bb 13 09 b7 bb bb ff cf 3a 0e ff 3f bd
       -0.0026044839 -0.0055857985 0.001586906 -0.0468741
000020 38 1d 40 3d c6 15 c0 3c 83 5b d8 3d 07 0c 5a ba
       0.046902865 0.023447882 0.105643295 -0.0008317832
000030 cd 78 5e 3d 1a a2 94 bc 12 2f 57 3d fa 7c 7d ba
       0.054314423 -0.018143702 0.052535124 -0.0009669807
000040 50 15 aa bc 1a 42 09 bd 54 1d 91 3d 0e 08 5c 3b
       -0.020762116 -0.033510305 0.07085672 0.0033574137
000050 b2 a8 1f bc 08 f6 c5 bc 05 95 22 3d 15 ad 6b bc
       -0.00974481 -0.024165168 0.039692897 -0.014384528
000060 d7 66 5c 3d 12 76 fd 3d f1 72 83 bd 96 f1 5d 3c
       0.053809013 0.12376036 -0.06418408 0.013546368
000070 80 ac ed bc 88 80 01 3d d2 24 6f bc 39 d9 f7 3c
       -0.029012918 0.031616718 -0.014596181 0.030254947

sequential/conv2d_1/BiasAdd/ReadVariableOp f4 [32]
000000 6b 02 45 bc 37 e6 e0 3b 92 1a 09 3d c5 b0 fd bb
       -0.012024502 0.0068633812 0.033472605 -0.00774202
000010 a5 91 08 bc 68 23 2d bc 40 38 13 bc 3e 4a 49 bc
       -0.008335506 -0.010567524 -0.008985579 -0.012285767
000020 8a 00 6c 3b c8 02 6f 3d dc 4e c2 3c 9b 6e 32 bb
       0.0036011063 0.05835226 0.023719244 -0.002722657
000030 a8 1d 5b 3c 02 ab 9a 3c 9b 65 0d 3d 34 a7 65 3d
       0.01337377 0.018880371 0.034520727 0.05606766
000040 39 b9 1b 3c 7a fb 27 3d f9 1c 69 bc 27 3c 6b 3c
       0.00950461 0.04101131 -0.014228099 0.014357603
000050 6f df 87 3c d1 08 e8 3a 3e 33 e8 3b d5 53 a5 3c
       0.016586034 0.0017702823 0.0070861867 0.020181576
000060 2e b3 03 3d a4 9d 84 3c 04 60 8e 3c f8 d9 47 3d
       0.0321533 0.01618845 0.017379768 0.048791856
000070 1c 18 f6 3c c6 73 09 3c b6 5f e2 3c eb 59 01 3d
       0.030040793 0.008389419 0.02763353 0.031579893

sequential/conv2d/Conv2D f4 [32, 3, 3, 3]
000000 40 3f 41 bd 37 aa 0d be 80 bd a7 bd 32 33 cd bd
       -0.04717946 -0.13834463 -0.08190441 -0.1001953
000010 7b ed c4 3d 88 af 0b 3e 84 18 c2 3d 18 7f bb bd
       0.09615608 0.13641179 0.09477332 -0.091551006
000020 4c 41 cb 3c 24 2e 94 bd 3b 99 74 3d dd a7 99 bd
       0.02481141 -0.07235363 0.059716444 -0.075027205
000030 10 1c d4 bd 9e 92 80 bd da 35 95 3d 2a 2d dc 3d
       -0.10356915 -0.06277965 0.07285662 0.10750802
000040 b4 6d 12 3d 10 46 dd bd e4 13 08 bd 23 b5 6b bd
       0.035749152 -0.10804379 -0.033222094 -0.057545792
000050 cd a0 14 3d c3 18 ec bd 1c 8f 8e 3c 21 1f 02 3e
       0.036286164 -0.115281604 0.017402224 0.12707187
000060 86 31 0c 3e 0c 14 54 bd d7 86 c7 3d 24 25 f9 bd
       0.13690767 -0.05177693 0.097425155 -0.12165287
000070 e4 3b 10 3e ad c6 0a 3e ad 4f f6 3d 1d 3a f7 3d
       0.14085346 0.13552351 0.12026916 0.12071631
000080 49 30 7d 3d f6 10 a1 3c ef 52 d2 3d 3f 6e c4 bd
       0.061813626 0.019661408 0.102697246 -0.0959134
000090 1e 45 d0 bd 60 92 24 bd eb eb 7b 3d c0 ab a3 bd
       -0.10169433 -0.040178657 0.061504286 -0.07991743
0000a0 9f 6d 94 bd 22 b5 e6 ba 18 ae fd bc e7 58 20 bd
       -0.07247471 -0.0017601589 -0.030966803 -0.039147284
0000b0 ec 96 c0 3d e0 80 6c 3c 40 51 8b bd 4d cc ab bd
       0.09403786 0.014435023 -0.068026066 -0.08388577
0000c0 28 17 d8 bc 85 1c 22 3d bc 4f 63 bd d0 93 ba 3d
       -0.02637823 0.03957798 -0.055495963 0.09110224
0000d0 61 85 50 bc c5 6a c7 bd a1 d8 15 3e c4 65 81 bd
       -0.0127271125 -0.097371615 0.14633419 -0.063182384
0000e0 65 10 c1 3b cd b2 d7 3d 6c 9e 08 be 04 01 07 3d
       0.005891847 0.105321504 -0.13341683 0.032959953
0000f0 57 0f 95 bd 25 07 de 3c 24 d5 bb 3d 19 58 a8 bc
       -0.072783165 0.027103016 0.09171513 -0.02054982
000100 06 12 d5 bd 1b 5a b7 3d e5 39 81 bd 83 bf 3d 3d
       -0.10403828 0.08952733 -0.06309871 0.046325218
000110 1a 7d de bd bd 21 99 bd ad cf 9c bd bf 06 b8 bd
       -0.10863705 -0.07477138 -0.076567985 -0.08985662
000120 bc b1 89 3d a2 4b 97 bd 19 e2 6f 3d 92 5d 6f bd
       0.06723353 -0.07387473 0.058565233 -0.058438845
000130 93 e6 b0 3d 9e c6 8e 3d 4d e5 56 bd 0f 36 ed bc
       0.086377285 0.06971477 -0.052464772 -0.028956441
000140 ef 5f 1a 3d db 9d 1c 3e ad 67 b7 bd 78 2d 8f 3d
       0.037689146 0.15294592 -0.089553215 0.06991094
000150 55 9a a3 bd 28 ff d1 3d 11 ad 86 bd 38 75 9c 3d
       -0.07988421 0.10253745 -0.065759785 0.07639545
000160 b5 c1 8a bd b7 92 93 3d e9 1e 2b 3d 65 8a f5 bd
       -0.06775228 0.07205718 0.041777525 -0.11989287
000170 51 5f 19 be 42 06 e5 3d 4c 44 c4 bd b7 04 16 be
       -0.14977767 0.11182834 -0.09583339 -0.14650236
000180 88 dc bb bc 4c 7e 88 3d 0a 14 97 bc 02 4d b5 3d
       -0.022932306 0.06664714 -0.018442173 0.08852579
000190 2a ba aa 3d cb ad 82 bd 46 55 c2 3c 04 8b 12 be
       0.08336289 -0.06380805 0.023722302 -0.14310843
0001a0 ed 4f 52 bd 22 9c 08 3e e8 54 f3 3c 91 cd 0a bc
       -0.051345754 0.1334081 0.029703572 -0.008471862
0001b0 92 2c a8 3d d6 72 00 be c0 50 07 3d df 26 44 3c
       0.08211626 -0.12543806 0.033035994 0.011972158
0001c0 12 83 73 bd 36 1e 51 3d 3d 86 f5 3d ae a2 b7 bd
       -0.05945117 0.051054202 0.119884945 -0.089665756
0001d0 22 79 e0 bd a3 b7 70 3d a4 87 10 3c 12 97 f0 bd
       -0.10960604 0.05876888 0.008821402 -0.117475644
0001e0 5b 16 6d bd 0b cf 86 3d 0a cd 7e bd 61 8a 9a bd
       -0.057882648 0.06582459 -0.06220726 -0.07545925
0001f0 f7 bc 58 bd ad 5b d4 3d 31 5f cf bd e2 11 c3 3d
       -0.052914586 0.10369048 -0.10125578 0.09524895
000200 e6 47 db 3d 4e 3f d2 3d a3 d2 93 bd 84 68 83 3d
       0.10707073 0.10265981 -0.0721791 0.06416419
000210 2e 55 11 3d 2f 66 9e bc 5f 00 b4 3d 5e c1 e6 bd
       0.035481624 -0.019335834 0.08789133 -0.112673506
000220 ab f4 02 3e 2a b0 8d 3d 88 83 02 3d 1f 0e eb 3c
       0.12788646 0.06918366 0.03186372 0.028693257
000230 7a 86 aa 3c f7 d4 ce bd 5e 4b 7d 3d 61 a1 d1 bc
       0.020816077 -0.100992136 0.061839454 -0.025589647
000240 a0 ab e7 bd 41 62 bf 3d 9e df 77 bd 3f ac 90 3d
       -0.11312032 0.09344912 -0.060515992 0.07064103
000250 ad 25 f5 3d 00 33 db 3d 4e 63 02 3c ca fc 7e bd
       0.11970077 0.10703087 0.007958246 -0.062252797
000260 88 bd ed bd 49 78 3b 3d a7 5d 05 3e 22 98 6b bd
       -0.11608416 0.04576901 0.13024007 -0.057518132
000270 da 21 d9 bd e8 68 84 bb dd 35 70 3c 9c 26 f0 3d
       -0.1060216 -0.004040826 0.0146612795 0.11726114
000280 26 c4 9e 3d 63 28 78 3b 78 b0 ce bd eb b8 9a bd
       0.07752256 0.003786587 -0.100922525 -0.075548016
000290 48 8e 27 bd 3d a3 ce bd 22 9d 05 3e 83 4e c2 bd
       -0.040907174 -0.10089729 0.13048223 -0.09487631
0002a0 e9 92 4f 3d cd 98 98 3d 4e cd 3a bd 58 0d ec bd
       0.050677214 0.074510194 -0.04560595 -0.115259826
0002b0 81 03 98 3c 16 5c 04 bb 79 26 f3 bb 06 95 ba 3d
       0.018556358 -0.002019649 -0.007420358 0.09110455
0002c0 ec 6d 7e 3d c0 ee d3 3d fe a3 df 3d 74 1a c0 3d
       0.06211655 0.10348272 0.10919951 0.093800455
0002d0 d4 ce 07 3e c8 48 e2 3d 3a fe ac bd 3c 88 53 b9
       0.13262492 0.11049038 -0.08446927 -0.0002017328
0002e0 b5 f9 4b bd 02 d9 28 bd e8 79 ff bc a2 f8 a4 3d
       -0.049798686 -0.04122258 -0.03118606 0.080552354
0002f0 38 a0 0e be d5 e1 10 3e 8c 5e 64 3d 5d 1d 68 3c
       -0.13928306 0.14148648 0.05575423 0.014167157
000300 f0 8f d9 3c 28 bf b3 3a c9 44 17 be a1 67 0a 3e
       0.026557893 0.0013713585 -0.14772333 0.13516094
000310 36 da 85 bd 69 0a b6 bd 7d 09 a8 3d a2 a2 09 bd
       -0.06535761 -0.08888704 0.08204935 -0.033602364
000320 06 da c8 bc 2a e1 70 bd a7 42 4e 3d b0 e7 13 be
       -0.024518024 -0.058808483 0.050356533 -0.1444385
000330 3b 15 9f 3d ef 9f 33 bd 96 48 02 3d d1 95 cf 3d
       0.07767721 -0.043853696 0.031807505 0.10135997
000340 0d 57 87 3d 25 54 d2 ba 05 00 53 3d 47 65 cb 3d
       0.066084005 -0.0016046806 0.05151369 0.099314265
000350 f2 0a 04 be 46 a3 c5 3c 07 2c fe 3d ae c7 a3 bd
       -0.128948 0.024125706 0.12410741 -0.0799707
000360 83 6e 8e 3d ce 5c 72 bd 56 ac 05 3e df 4d 12 3e
       0.06954672 -0.059170537 0.13054022 0.14287518
000370 10 dd fc bd f0 6b 98 3d ad 4f 26 3d b2 c5 ad bd
       -0.12346852 0.074424624 0.04060333 -0.08484973
000380 ac 6e e4 3d 98 0c 3b 3d ed 32 69 3d a8 08 6e 3d
       0.111539215 0.045666307 0.056933332 0.058113724
000390 d6 3a e7 3b e7 96 04 be 6b 7e c1 bc c8 bb d2 3d
       0.0070565743 -0.1294819 -0.023619851 0.10289723
0003a0 5a f4 d4 bd cc 60 02 be 95 07 92 bd 2b 26 ab bc
       -0.10398169 -0.12732238 -0.071303524 -0.020892223
0003b0 3c aa 27 bd 09 9b 29 bd 07 fd 20 bd 49 6d 96 bd
       -0.040933833 -0.04140762 -0.039303806 -0.07345063
0003c0 6c 37 08 3d 3f b5 16 bd 14 a0 12 3e ec aa 98 3d
       0.03325598 -0.036793943 0.14318877 0.07454476
0003d0 20 1f d0 3d c0 a2 48 bc 9b cd 09 3d ba 41 dd 3a
       0.101621866 -0.012245834 0.033643346 0.001688055
0003e0 6d d5 ac 3d c1 92 e5 3d e5 62 51 bd 19 76 95 bd
       0.08439145 0.11209632 -0.051119704 -0.07297916
0003f0 fb 5f ee bd ea fc 0c be 1b 19 98 3d 82 17 1a be
       -0.116394006 -0.13768354 0.074266635 -0.1504803

sequential/conv2d_1/Conv2D f4 [32, 3, 3, 32]
000000 a5 8e 48 3d a5 df 7f bb 4a f1 ed bc 2a fe ab 3d
       0.04896416 -0.0039043215 -0.02904572 0.08398087
000010 6a d8 bc 3d 80 1a 01 bd 3c 8d c8 bd e7 4d 8f 3c
       0.09220965 -0.031519413 -0.09792563 0.017493201
000020 1d 9b d6 bd 45 0e 59 3d de 5c 2f bd ed d3 17 bd
       -0.10478804 0.052992124 -0.042813174 -0.037067343
000030 e3 28 78 bd 23 05 29 bd 04 ba 2c 3d e3 d2 48 3d
       -0.060585868 -0.041264664 0.042169586 0.049029242
000040 4f 40 38 3d 75 e6 45 bc 71 2a b4 3c 26 bf 97 bd
       0.044983204 -0.012078871 0.021992894 -0.074095055
000050 a2 79 01 bd f6 ee 6a bc b5 78 59 3c 83 fd a7 3d
       -0.03161014 -0.014339199 0.013273408 0.082026504
000060 db b1 4f bc b4 3a 98 3d ed 6e f7 3c 45 fc 41 bb
       -0.012676681 0.07433072 0.03020426 -0.0029599827
000070 1d a7 d1 bd 95 64 30 3b bc de fb 3a 7f f0 b8 3c
       -0.102369525 0.002691542 0.001921616 0.022575615
000080 12 f4 87 bb 6d 9d 8f bd a3 c1 fa bc 14 56 12 3d
       -0.0041489685 -0.070124485 -0.030609911 0.03572662
000090 20 ed 05 3d 07 1e 0b 3d 8b 59 ab bc 74 24 80 bd
       0.032696843 0.033964183 -0.02091672 -0.06256953
0000a0 22 9e 0a bd cc 2a 15 3c f3 60 6d bd 20 62 11 bc
       -0.033842213 0.009104442 -0.057953786 -0.0088734925
0000b0 c1 3a 0d 3d 34 9e 5c bd f5 b9 58 3c fe 6a 43 bd
       0.03447986 -0.05386181 0.013227929 -0.047709458
0000c0 05 81 ca 3c 12 bf db bd 9f 26 77 3d 75 ec f6 bc
       0.024719724 -0.10729803 0.060339566 -0.030142048
0000d0 f0 87 ae 3d cd 43 af 3d 93 2b a7 bd fb f1 89 bd
       0.08522022 0.08557854 -0.08162608 -0.06735607
0000e0 f6 aa 79 bd 62 08 68 3d 4b af 80 3c 5d 49 72 bd
       -0.060954057 0.05664862 0.015708586 -0.059151996
0000f0 6e da d7 bc dc d0 08 3d 35 68 da bd 2b d2 7b bd
       -0.026349273 0.03340231 -0.10664407 -0.06147973
000100 80 4d 34 b9 7b f3 ba bd 84 49 15 3d 70 f7 a9 3c
       -0.00017195009 -0.091284715 0.036447063 0.02074787
000110 aa b9 a9 3d 78 61 c3 3c d2 39 63 3d 8e 48 ee bc
       0.08287366 0.023850188 0.055475064 -0.029087331
000120 c8 74 55 bd 4b 0c 0f bd 18 d2 a5 3d 5c 3f d0 bd
       -0.052113324 -0.034923833 0.08096713 -0.10168335
000130 78 fb e1 bd 7c ea 6b bd 11 ad 4c 3d c6 4a c2 3c
       -0.11034292 -0.05759667 0.049969736 0.023717295
000140 d0 e5 36 bb fc ec 34 3d ab 22 bf bc 87 7e b0 3c
       -0.0027907975 0.04417132 -0.02333196 0.021544708
000150 4f 60 05 3c 44 ce 00 3d 15 7d b2 bd 60 93 22 3c
       0.008140638 0.03144671 -0.08715264 0.009922832
000160 19 87 34 bd 12 4c c1 bd ea f6 7b bd c1 2d 44 bd
       -0.04407415 -0.094383374 -0.061514772 -0.047895197
000170 a1 0a c2 bd 44 52 43 3c 6f 45 69 3d 55 49 d5 bc
       -0.094746836 0.011921469 0.056950983 -0.026035944
000180 34 ec e2 3c 8e 97 37 3c 6d d3 00 be aa be c4 bd
       0.027700521 0.011205567 -0.12580653 -0.09606679
000190 54 4d d8 3b 9c a3 b9 3d ac 1a d9 bc 5a 27 0f bc
       0.006601015 0.09064409 -0.026501976 -0.0087374095
0001a0 e7 4e a2 bd e0 cc 65 3d a2 07 96 3d 68 af 81 3d
       -0.07925206 0.056103587 0.073256746 0.06332284
0001b0 55 18 13 3d 69 79 dc bd af b6 b0 3d 6b 5e db bc
       0.035911877 -0.10765345 0.08628594 -0.02677842
0001c0 b7 cb ca bd c8 47 82 3c c1 43 25 bd d3 2a 5b bb
       -0.09902137 0.015903369 -0.04034782 -0.0033442273
0001d0 8c a2 a2 bd 8a 72 12 3b f7 3d b9 bc 6c 3d 47 3c
       -0.079411596 0.0022346103 -0.022612555 0.01216064
0001e0 e6 fc 8b bd 14 89 62 3d 87 7e f2 3c 5a 78 cc bd
       -0.06835346 0.05530651 0.029601349 -0.09983893
0001f0 bd f2 bb 3d 6c 8b 1d bd 3b 57 d7 bd 6e 06 a6 bc
       0.09177158 -0.03846304 -0.10514685 -0.020266738
000200 88 18 02 bd 10 5a d9 bd c7 74 14 3d db c2 41 3d
       -0.031761676 -0.10612881 0.03624418 0.04730497
000210 ca e6 88 bd 3e a4 f3 38 8b da 46 bd 17 e3 7e 3d
       -0.066846445 0.000116177354 -0.048548263 0.06222829
000220 35 85 b6 3d 9d 69 ad bd d9 0c ef bd da f7 f8 bc
       0.08912126 -0.0846741 -0.11672372 -0.030391622
000230 69 3d d2 bd c3 2c e2 bd fc 3d a5 bd 85 32 93 3d
       -0.10265619 -0.11043694 -0.08068463 0.0718737
000240 f1 fc 95 3d 04 c8 3f 3c 75 9a 93 3c ca fb a8 bd
       0.07323635 0.011705402 0.018017987 -0.0825115
000250 ef ed 73 3b 3c 18 69 bd aa 0f dd bd d8 b0 a0 bd
       0.0037220677 -0.056907877 -0.10794003 -0.0784623
000260 c3 3b 1e 3c f4 7e 8e bd 56 a9 47 bd fc 64 7a bc
       0.009657803 -0.06957808 -0.048745476 -0.015282866
000270 1b 82 cb bd 79 2f 8c bd f2 f1 85 bd a0 ec ca bd
       -0.09936925 -0.06844992 -0.06540288 -0.09908414
000280 7c 89 7f bd 3f c4 60 bd 89 6e aa 3d a6 84 63 bd
       -0.062386975 -0.054874655 0.08321864 -0.055546425
000290 05 0c 22 3d f6 4a 97 bc dc 78 a4 3d 13 f4 c9 bd
       0.039562244 -0.018468361 0.080308646 -0.098610066
0002a0 a2 5c 61 bd 2e c0 aa 3d 40 c4 ad b9 03 74 bd bc
       -0.055019982 0.083374366 -0.0003314335 -0.023126608
0002b0 e9 c2 92 3d 65 38 5d 3d e6 84 80 bd 8f 80 b5 bd
       0.071660824 0.05400886 -0.06275348 -0.08862411
0002c0 89 9d b2 3d 21 85 0c 3d ac fe 8d 3d 8d e7 5d bd
       0.08721454 0.03430665 0.069333404 -0.054175902
0002d0 d3 07 4a 3d 40 fa a9 3d 80 a5 65 3d 41 9b 6d 39
       0.049323868 0.082996845 0.056066036 0.00022659918
0002e0 05 e8 a1 3c 7f cb 09 bd b7 bc 5a 3d a7 d9 74 3d
       0.019763956 -0.033641335 0.05340263 0.059777882
0002f0 48 8e 0d bd da 6b 78 3d 16 b4 02 3d b4 01 3c 3d
       -0.034559518 0.06064973 0.031910025 0.04590006
000300 3b 22 d3 bd ee 97 c1 bd 65 05 10 3d 48 5f 83 bd
       -0.10309263 -0.094528064 0.035161395 -0.06414658
000310 8f df 78 bd a5 a9 4c 3a a9 50 37 bd 26 f5 3f 3b
       -0.060760077 0.00078072614 -0.044754658 0.0029290407
000320 39 5f 37 bd 77 21 b4 bb cd 4a f7 bd f4 60 c6 bd
       -0.044768546 -0.0054971534 -0.12074814 -0.09686461
000330 a7 c8 06 bd c8 5b a1 3d f1 69 47 bc 74 f7 bd 3c
       -0.0329062 0.07878834 -0.0121712545 0.023189284
000340 90 7e 8b 3d 58 b2 ec 3c 40 cc c3 bd 6d a0 54 3d
       0.06811249 0.028893635 -0.09560442 0.051910806
000350 0f 2e ed 3c bc a3 62 3d 50 fd a9 bd de 92 b6 bd
       0.028952627 0.05533193 -0.08300269 -0.089147314
000360 34 c0 88 bd 46 9a 6e bd bd 3c 5b bc 0a 85 aa 3d
       -0.06677285 -0.058252595 -0.01338118 0.083261564
000370 40 58 3a bd 6e 07 8a bd c9 4b 43 3d be 32 8d 3c
       -0.045494318 -0.06739698 0.047679696 0.01723611
000380 5b f9 b1 bd e7 1c cb bd ec 06 39 3d d2 b0 21 3c
       -0.08690139 -0.09917622 0.045172617 0.009868817
000390 03 8d a1 bd 7f 18 28 3c ab f5 73 bd 93 ab a5 3c
       -0.07888224 0.010259747 -0.05956046 0.020223415
0003a0 79 77 df bd a9 76 6e bc 57 a9 e7 3c b0 d7 3b 3d
       -0.109114595 -0.014554658 0.02827899 0.045859993
0003b0 40 ae bc 3d a0 f9 4b 3d 7a ae e8 bd 85 78 8d bc
       0.09212923 0.049798608 -0.11361404 -0.017269382
0003c0 45 d7 d7 bd 76 e3 86 bd c1 ae ad 3d 91 91 09 bd
       -0.10539106 -0.065863535 0.08480597 -0.03358609
0003d0 6c 95 22 bd 7b 3a 93 bd 37 87 91 bc cd 62 48 3d
       -0.03969328 -0.07188889 -0.01776467 0.04892235
0003e0 cc 6d 2d 3d 40 51 30 3d 2d 45 86 3c a0 0c 62 bc
       0.04234104 0.043046236 0.016390407 -0.013796955
0003f0 c6 50 5e bd 2e b7 bb bc 3a 90 0c bc 60 8e 67 3d
       -0.05427625 -0.022914495 -0.008579308 0.056532264

sequential/dense/BiasAdd/ReadVariableOp f4 [9]
000000 51 20 ad bc de 6a 39 3b 1e a0 c1 3c c5 67 be 3b
       -0.021133574 0.0028292458 0.02363592 0.00581071
000010 26 24 20 3d e1 b8 20 bc 0b 49 9a bc 8e e1 97 bb
       0.039096974 -0.009809704 -0.018833658 -0.0046350425
000020 40 75 44 bd
       -0.04796338

sequential/dense/MatMul f4 [9, 6272]
000000 74 48 c8 3c 21 c8 c8 3a af 28 55 bc 7b c5 2c bc
       0.02444861 0.0015318432 -0.013010188 -0.01054513
000010 70 76 1f bb 4a d1 2f 39 59 2d 85 bc 95 42 4f 3c
       -0.002433207 0.00016767267 -0.016256975 0.012650152
000020 fe 6f cf 3b 73 71 71 bc 33 46 32 bc f0 f7 9a bd
       0.006330489 -0.014736521 -0.010880995 -0.075668216
000030 5e 05 88 3c 94 02 8b ba bb be 26 bd b7 82 dc bc
       0.016604122 -0.0010605627 -0.04070924 -0.026917798
000040 77 cf 57 bc 28 4b cc 3b 2b 93 d6 3b 23 84 8b bd
       -0.013172022 0.0062345453 0.0065483055 -0.068123125
000050 ae af 95 bd df fa b4 bd f2 16 81 bd e1 af 73 bc
       -0.07308899 -0.08836912 -0.063032046 -0.014873476
000060 38 66 6d bc b6 73 2a 3c e2 16 97 ba 4f c2 26 3c
       -0.014489703 0.010403564 -0.0011527205 0.010178163
000070 24 3f 43 bd 88 33 8e bd e9 38 98 3c 16 7b 23 bd
       -0.047667637 -0.069434226 0.018581824 -0.039912306
000080 b7 81 b3 3c 93 7d 5a bc d4 f6 d5 bc 60 82 dc bc
       0.021912439 -0.013335603 -0.026118673 -0.026917636
000090 aa 46 4d bc f0 5d f2 3b 7c c6 08 39 16 ca dd 3c
       -0.012529055 0.007396452 0.00013043912 0.027073901
0000a0 5e b5 2b bc 25 fd 50 bb 25 50 31 3c 16 f0 b8 bd
       -0.010480253 -0.0031889167 0.010822331 -0.09030168
0000b0 d4 2a 8d bc fc 0c 17 3b ba d1 08 bd 29 1e 3f 3c
       -0.017232336 0.002304851 -0.033403136 0.011664906
0000c0 bf 25 e2 3c 36 02 8e bc 78 ce 97 3c ec ed de bc
       0.02760589 -0.017335039 0.01853107 -0.02721306
0000d0 00 bd 08 bd 65 ab 72 bd 4f 0a 51 bd 46 23 29 bd
       -0.03338337 -0.059245486 -0.05103522 -0.041293405
0000e0 af cc 2e bc 9c fe 19 3d 31 50 be 3c 66 93 97 3b
       -0.010668918 0.03759633 0.023231598 0.0046257256
0000f0 f6 07 4d bd 47 ae 62 bd 09 ca 69 bd e9 f5 9f bc
       -0.05005642 -0.055341985 -0.05707744 -0.019526439
000100 11 22 82 3c 54 9a 83 3b fe f8 49 3c e8 16 b6 3c
       0.015885385 0.0040162 0.012327431 0.02222772
000110 e1 af 1b bd 0a a7 b8 3c 19 95 08 bd dd 82 eb bc
       -0.038009528 0.022540588 -0.033345316 -0.028748924
000120 b7 88 11 3d ea aa 31 3c a5 35 24 bc 33 b0 ee bc
       0.035530772 0.010843972 -0.0100225555 -0.029136753
000130 a8 61 e7 3c b6 6f c5 bc 3a 07 35 bc b3 2c 37 bd
       0.028244808 -0.02410112 -0.011049086 -0.044720363
000140 72 42 70 3c 44 99 bb bc 46 d7 cb 3b b5 d7 2e bd
       0.014664279 -0.022900231 0.006220731 -0.042686183
000150 0e ce dd bc f2 2f 9a bd 73 b9 40 bd 1d a0 28 bd
       -0.027075794 -0.07528676 -0.04705186 -0.04116832
000160 bd 64 be bc 17 fd 86 3a 43 14 86 3b e5 8a 51 bc
       -0.023241395 0.0010298815 0.004091771 -0.012789463
000170 d0 7b 32 bd d5 bd 1e bd 75 6c 8b bd 4b a9 d7 bc
       -0.043575108 -0.038755257 -0.06807796 -0.026325842
000180 80 e0 ec bc 9c 48 31 3d d9 d3 c2 bc 75 b6 a4 3c
       -0.028915644 0.043282136 -0.023782657 0.020106534
000190 d5 b1 7f bb ea 0b 9f 3c 8b 1b a5 3c 79 a5 a0 3a
       -0.0039015908 0.01941486 0.020154735 0.0012256346
0001a0 b2 d1 38 3d 8a ad 06 bd c9 a5 fd bc b8 c1 a7 bc
       0.045121856 -0.032880343 -0.030962842 -0.020478114
0001b0 13 64 eb 3c b9 14 97 3c 82 6d e7 bc 26 b0 66 bd
       0.028734243 0.018442499 -0.02825046 -0.056320332
0001c0 b5 07 f0 bc 30 06 8e 3c 4c 4f 02 bd af 15 63 bb
       -0.02930055 0.017336935 -0.031813905 -0.0034650376
0001d0 f3 01 24 bc d1 02 1a bd 23 9f 1b bd f9 5f 56 bc
       -0.01001023 -0.037600342 -0.03799356 -0.013084405
0001e0 71 cb a6 bd ed cb 67 bc 59 c5 a4 3b db da 7b 3b
       -0.08144272 -0.014147741 0.0050284085 0.0038430009
0001f0 12 e2 5a bd cf 7c 4c bd 7b 6e 76 bc 99 a7 08 bd
       -0.053438254 -0.049923714 -0.015040989 -0.03336296
000200 bd fb c2 3c 74 da 53 3c f5 d2 7c 3c b7 f5 51 3c
       0.023801679 0.012930501 0.015431155 0.012814931
000210 24 d6 8c 3c b0 00 89 3b ca 4c d9 3b 4b 19 c0 bc
       0.017191954 0.00418099 0.0066314684 -0.02344956
000220 b2 ab 73 3d cf c8 44 bd 91 d4 21 bd c6 e1 9e bc
       0.059489913 -0.04804307 -0.03950936 -0.019394767
000230 0e 0c 1e bc 9f 30 7e 3c 58 b9 cc bc dc 18 74 bc
       -0.009646429 0.015514522 -0.024990723 -0.014898505
000240 88 08 ea 3c 4f 7a 0e 3d ee 27 f5 bc 52 53 14 bd
       0.028568521 0.03478461 -0.029926267 -0.036212273
000250 9a 0b 29 bd 68 05 21 bd 5e 83 21 bd c3 24 25 bd
       -0.04127083 -0.039311796 -0.039431922 -0.04031826
000260 9c 1b 0f bc 75 20 74 bc 9a eb 0f bd ff 19 88 bc
       -0.00873461 -0.0149003165 -0.035136797 -0.016613958
000270 26 62 40 bd 8c 3d 79 bd 2a 8d 02 bd 5f 99 d0 bc
       -0.0469686 -0.06084971 -0.031872906 -0.025463758
000280 fc c3 f9 bc 70 0a dc bc b9 26 f0 3b ff 3b ab bc
       -0.03048896 -0.026860446 0.007328835 -0.020902632
000290 c9 be 35 bc 50 ae f0 bc 2b 9d ba 3c 3d 7e ec bc
       -0.01109285 -0.029379994 0.022780022 -0.028868789
0002a0 d6 dd a8 3c d9 fa 78 bc 27 75 d0 bc 11 87 32 3c
       0.020613592 -0.0151965255 -0.025446488 0.01089646
0002b0 53 76 5e bc 9c 1d 7d 3c 0f a7 22 bd aa eb ba 3c
       -0.013578015 0.015448954 -0.0397101 0.022817452
0002c0 5e 73 79 3b cd b5 be 3c 56 76 b2 3c 5c 11 d3 bc
       0.003806315 0.023280049 0.021784943 -0.025765114
0002d0 46 82 12 3a 02 2b e3 bb fd 90 1b bd 67 2d 09 3c
       0.000558887 -0.006932617 -0.03798007 0.008372641
0002e0 a6 34 d8 bc 97 86 83 3c 21 6f 00 bd f4 c3 30 bb
       -0.026392292 0.016055388 -0.03135598 -0.0026972266
0002f0 11 f5 ed bc 8e f4 72 bd 0c 73 a0 bb 6f 5c 68 bc
       -0.02904752 -0.059315257 -0.004896527 -0.014182194
000300 c1 f5 84 3c f9 93 01 3d 8d 5f 6a bb c5 5b 10 bc
       0.016230466 0.03163526 -0.003576252 -0.008810942
000310 18 c1 e5 bc 1d 44 85 bb 6a d9 2f 3c 21 f1 90 bc
       -0.028046176 -0.0040669576 0.010732988 -0.017693104
000320 f3 1c e1 3c a2 0b b7 3c 36 20 86 bc e1 14 44 bc
       0.027479624 0.022344414 -0.016372781 -0.011967869
000330 d2 97 1a 3d f6 af 18 bd 50 24 15 3c 2d 4f 35 3b
       0.037742443 -0.037277184 0.009102896 0.00276656
000340 2a f4 64 bc 1c 86 3e 3c cf 38 28 3c 33 86 0e bd
       -0.013974229 0.011628654 0.0102674505 -0.03479595
000350 0e ad 47 bc 3a cf 35 bd c0 ab 06 bd 60 b4 a6 3c
       -0.012187256 -0.04438708 -0.032878637 0.020349681
000360 0f cc 63 3b a3 bb 37 3c a3 c0 33 bd a8 f4 7c 3c
       0.003475908 0.01121417 -0.043884885 0.01543919
000370 b8 09 32 bd 77 db 6c 3a 00 0c c9 bb 13 ff d6 ba
       -0.0434663 0.00090353884 -0.0061354637 -0.0016402922
000380 f4 ea 40 bb 30 7c 4c 3d 61 8a 0e 3d 30 9d 38 3c
       -0.0029436918 0.049923122 0.034799937 0.011267945
000390 25 24 85 3c 67 09 80 3c a6 9b 49 ba 81 31 0e bd
       0.016252587 0.015629483 -0.0007690735 -0.03471518
0003a0 81 c9 97 3d 4d 8b 05 bb fd 3a e1 bc fa 12 85 3c
       0.07411481 -0.002037722 -0.027493948 0.0162444
0003b0 aa 39 b0 bc c5 39 04 bd 6e dd 00 bc 4d 8c e7 bb
       -0.021511871 -0.032281656 -0.007865293 -0.0070662857
0003c0 a8 ac a8 3c 43 5d 91 3d a1 fa f4 bc d0 f5 85 bd
       0.020590141 0.070978664 -0.029904665 -0.06541026
0003d0 cb b1 4e 3b ed d1 b7 bc cd 73 ff bb 72 48 fa bc
       0.0031539078 -0.022438968 -0.007795787 -0.030552123
0003e0 1e e1 0b ba c4 19 0f 3d 28 b5 76 bb 05 04 09 3c
       -0.0005335974 0.03493668 -0.0037644599 0.008362775
0003f0 52 c0 4a bd bc 11 b6 3b dc ec 15 bd 16 bc eb ba
       -0.049499817 0.0055563133 -0.03660284 -0.0017985131
